task1/T1_to_T2_Deterministic_mcd_classifier2.pt (torch, 5535 bytes, 4 tensors)

fc1.weight f4 [40, 20]
-0.22946462 0.21381626 -0.03306792 0.01904158 -0.14671125 -0.062355954 0.116581604 0.03401165
-0.20823693 -0.20909342 -0.023712743 0.034400403 -0.10880418 0.2190426 0.16515812 -0.030569086
0.18481807 0.11214359 -0.094823346 -0.0045962064 -0.1375526 0.1230278 0.21336292 -0.29053816
-0.036704723 0.13295516 0.22396989 -0.06718605 -0.06917331 -0.16226532 0.09707064 0.20362629
-0.016187917 0.1667352 0.271589 -0.121488035 0.08821911 -0.19478217 0.13991214 -0.1502104
-0.17223169 -0.13210075 0.13068402 0.36934388 0.08455299 0.16404587 -0.2305192 -0.11480995
0.18070742 0.07608823 -0.0970352 -0.22313656 0.19125502 0.21717027 -0.28677994 0.029803734
-0.16675618 0.30315635 0.15274017 -0.24049746 -0.15696438 -0.19879146 -0.08974845 -0.12785533
-0.0015868804 0.04335218 0.15088557 -0.12506726 -0.1693822 -0.033663116 -0.019390536 -0.23098063
-0.1100676 0.07991842 0.12390359 -0.09340838 0.11685985 -0.028151007 -0.19572927 -0.031732537
-0.07909249 0.051380683 -0.2199461 0.16207315 -0.057859667 0.13517982 0.108431265 0.1991471
-0.024300724 -0.16083454 -0.15833732 -0.16102916 -0.1837989 0.060091604 0.05640863 0.031824563
0.13310164 -0.20193088 -0.07713313 0.055479776 0.0025654654 -0.19726041 0.0700764 -0.0140955495
-0.24977681 -0.037761386 0.019976672 0.2223265 0.2030121 -0.041384507 0.0752941 -0.13523589
-0.07375732 -0.16999848 -0.050076127 0.052761596 -0.20483597 -0.22544326 -0.16556387 0.28138277
-0.11382624 0.066662125 0.11805861 -0.030547231 -0.09079639 0.19941442 -0.11746149 -0.25638938
-0.061150804 0.11366272 0.103177205 -0.136568 -0.088415414 0.1838153 -0.2530476 -0.21441878
0.2693286 -0.06782103 -0.01417962 -0.04109602 0.30911633 -0.012212573 -0.28583398 0.13794641
0.05747614 0.16622947 -0.13300225 0.07625288 0.09407802 0.00010538757 -0.10440325 0.20287378
0.26185957 -0.22452489 -0.26705974 0.28857288 0.10608928 -0.07598211 0.017651144 -0.09006971
-0.1925378 -0.10823383 0.0032239787 -0.033036746 -0.008852189 0.17310584 0.11589297 0.08737672
-0.23405385 -0.18796402 0.1951467 0.018195197 -0.1428131 -0.17631471 -0.22471608 -0.08899389
-0.110444486 -0.17204545 -0.1835836 0.13281862 0.061914302 -0.035557702 -0.18398172 0.14927183
-0.18697317 -0.13619539 -0.21920733 -0.15352303 0.3545914 0.16360405 -0.19610247 -0.16001181
0.27924392 0.005266342 -0.26382455 -0.05156422 0.009383009 0.25604105 -0.18370177 0.0035085806
0.18497853 0.01587952 0.22741757 0.22817543 -0.1438932 -0.17043859 0.06540033 -0.22683705
-0.055629816 -0.1608606 0.1821063 0.19258565 0.21374205 0.2334241 0.06360957 -0.18229671
-0.059802577 -0.20543961 -0.0757795 0.17038344 -0.23284961 0.07757732 0.008421168 -0.0003418811
0.25196472 0.041043274 0.17000735 -0.019862307 -0.18720742 -0.22467935 0.09716277 0.042440254
-0.17156507 -0.02707589 0.20211978 -0.12705901 -0.025854195 0.22602691 -0.019652508 -0.13406898
-0.027484572 0.089807175 0.1661567 0.24350971 0.2714626 0.2499471 -0.048636645 -0.0317183
0.12689608 -0.046746165 0.171519 0.14048746 0.2524368 -0.14444354 0.03761549 0.041683827
00000000: c6f8 6abe a6f2 5a3e 3a72 07bd 16fd 9b3c
00000010: 793b 16be f568 7fbd 56c2 ee3d cd4f 0b3d
00000020: 103c 55be 961c 56be 3a41 c2bc 70e7 0c3d
00000030: bad4 debd b44c 603e 361f 293e 056c fabc
00000040: f340 3d3e 8aab e53d be32 c2bd c69b 96bb
00000050: 97da 0cbe 00f6 fb3d cf7b 5a3e 6bc1 94be
00000060: b157 16bd 6625 083e 5d58 653e d798 89bd
00000070: bdaa 8dbd e128 26be f9cc c63d 6983 503e
00000080: 869c 84bc a2bc 2a3e b70d 8b3e b8ce f8bd
00000090: 39ac b43d fa74 47be 2145 0f3e c1d0 19be
000000a0: 815d 30be 6b45 07be 08d2 053e a41a bd3e
000000b0: 1e2a ad3d a4fb 273e 3a0d 6cbe 7b21 ebbd
000000c0: 5e0b 393e 25d4 9b3d 64ba c6bd e97d 64be
000000d0: 5bd8 433e e261 5e3e d2d4 92be f626 f43c
000000e0: 22c2 2abe 4f37 9b3e eb67 1c3e f744 76be
000000f0: 45bb 20be fd8f 4bbe 09ce b7bd 82ec 02be
00000100: dffe cfba 0e92 313d bf81 1a3e a211 00be
00000110: 8772 2dbe 56e2 09bd e7d8 9ebc 3086 6cbe
00000120: 1f6b e1bd 45ac a33d 2ac1 fd3d e54c bfbd
00000130: 3854 ef3d f19c e6bc 416d 48be faf9 01bd
00000140: 3efb a1bd 8d74 523d 8d39 61be 81f6 253e
00000150: 42fe 6cbd 946c 0a3e 3611 de3d 38ed 4b3e
00000160: 5012 c7bc cfb1 24be 2e23 22be d4e4 24be
00000170: c735 3cbe 9d22 763d bc0c 673d 795a 023d
00000180: cc4b 083e f8c6 4ebe f9f7 9dbd c33e 633d
00000190: 5e21 283b a2fe 49be 3784 8f3d 05f1 66bc
000001a0: 7ec5 7fbe afab 1abd 1ea6 a33c 8fa9 633e
000001b0: 67e2 4f3e cd82 29bd cb33 9a3d 477b 0abe
000001c0: 140e 97bd 1514 2ebe a01c 4dbd 8b1c 583d
000001d0: 85c0 51be 99da 66be 9389 29be 6711 903e
000001e0: bb1d e9bd 2786 883d b6c8 f13d 303e fabc
000001f0: 75f3 b9bd 4b33 4c3e a68f f0bd 7845 83be
00000200: 4479 7abd 00c8 e83d 924e d33d 7bd8 0bbe
00000210: 2413 b5bd 143a 3c3e 748f 81be 9990 5bbe
00000220: 70e5 893e c1e5 8abd a351 68bc 4d54 28bd
00000230: 7f44 9e3e 3e17 48bc d558 92be d341 0d3e
00000240: 1a6c 6b3d 0f38 2a3e be31 08be 782a 9c3d
00000250: faab c03d 8503 dd38 5fd1 d5bd 25be 4f3e
00000260: 7512 863e dae9 65be 0ebc 88be d3bf 933e
00000270: 5645 d93d 829c 9bbd 2299 903c 7876 b8bd
00000280: a128 45be b3a9 ddbd 6349 533b 8a51 07bd
00000290: c608 11bc a842 313e 4b59 ed3d 91f2 b23d
000002a0: d0ab 6fbe a479 40be 89d4 473e 180e 953c
000002b0: 993d 12be d88b 34be f91b 66be 6e42 b6bd
000002c0: b830 e2bd af2c 30be 57fd 3bbe 9b01 083e
000002d0: da99 7d3d f4a4 11bd b465 3cbe b7da 183e
000002e0: e575 3fbe ce76 0bbe e377 60be 2435 1dbe
000002f0: 018d b53e d287 273e 16cf 48be 23da 23be
00000300: 0ff9 8e3e 4791 ac3b 0314 87be 0135 53bd
00000310: 31bb 193c d017 833e 511c 3cbe 37f0 653b
00000320: 036b 3d3e c415 823c 27e0 683e d2a6 693e
00000330: bd58 13be 7487 2ebe 9cf0 853d f947 68be
00000340: 17dc 63bd a4b8 24be 137a 3a3e 2c35 453e
00000350: 32df 5a3e ba06 6f3e bc45 823d fdab 3abe
00000360: 8cf3 74bd c35e 52be 4832 9bbd ff78 2e3e
00000370: 2170 6ebe dce0 9e3d f0f8 093c 813e b3b9
00000380: 8501 813e fe1c 283d 6816 2e3e 47b6 a2bc
00000390: 4db3 3fbe 5812 66be 46fd c63d d5d5 2d3d
000003a0: c1ae 2fbe 42ce ddbc 7df8 4e3e c21b 02be
000003b0: 2dcc d3bc 9973 673e 4cfe a0bc 6149 09be
000003c0: 5327 e1bc d3ec b73d fb24 2a3e 9c5a 793e
000003d0: 25fd 8a3e 22f2 7f3e 3837 47bd 0ceb 01bd
000003e0: 0cf1 013e e878 3fbd ada2 2f3e f2db 0f3e
000003f0: 653f 813e 02e9 13be b312 1a3d a9bc 2a3d

fc1.bias f4 [40]
-0.12461118 0.14405598 0.15374061 0.08429964 -0.047776215 0.20714349 0.024922742 0.27295542
-0.20444198 -0.046887968 0.062975585 -0.14455228 0.20721671 -0.20444524 -0.045510948 0.140542
-0.08967367 -0.00019240138 0.013966724 0.07309861 0.14005856 0.08767359 0.048124418 -0.20566095
0.26026958 0.021216122 0.271728 -0.061310295 0.16757895 0.16678666 0.21840848 -0.058845
0.0019333388 -0.095136106 0.06941632 0.12606226 -0.18861882 -0.22822917 0.15371542 -0.1632368
00000000: 2534 ffbd 6983 133e 2e6e 1d3e 4aa5 ac3d
00000010: feb0 43bd 6c1d 543e c72a cc3c d0c0 8b3e
00000020: 3d59 51be 990d 40bd 58f9 803d 8305 14be
00000030: 9e30 543e 185a 51be b069 3abd 3eea 0f3e
00000040: d4a6 b7bd 5abf 49b9 b0d4 643c b9b4 953d
00000050: 836b 0f3e 368e b33d 1c1e 453d c998 52be
00000060: 0e42 853e 6fcd ad3c ef1f 8b3e 8120 7bbd
00000070: d199 2b3e 1fca 2a3e 79a6 5f3e 7407 71bd
00000080: 1668 fd3a b8d6 c2bd 252a 8e3d 7716 013e
00000090: 4b25 41be e8b4 69be 9367 1d3e 8c27 27be

fc2.weight f4 [4, 40]
-0.07098998 -0.14779198 -0.28802666 -0.17124882 0.08296948 0.15680824 -0.18818767 -0.022692312
0.037423413 0.047500845 -0.061452486 -0.18055022 -0.39562306 0.044409256 -0.007816521 -0.017294522
0.17734122 -0.11983803 0.037373073 0.020013621 -0.1741186 -0.33486444 -0.027343867 0.017692707
-0.35904127 0.015266515 -0.008195613 -0.21688588 0.14692852 0.04649144 0.07129851 0.14634398
-0.0054719145 -0.36388028 -0.14308476 0.00048862083 -0.036552995 -0.010195796 0.17126325 -0.053086385
-0.2932487 -0.25675103 0.0894432 -0.050362036 0.08281367 0.11742954 -0.2616613 -0.012444871
0.0853821 0.06019927 0.10367013 -0.15888064 -0.0648807 -0.16265449 0.040697888 -0.024757756
0.03341581 -0.1855696 0.10344861 -0.15048194 -0.102179974 0.06555993 -0.30445597 -0.24301168
-0.003242127 -0.17920294 0.004753929 0.06058565 0.02954396 0.059005532 0.0940923 0.017835893
-0.019160546 0.030496199 -0.06683871 0.103998065 -0.018456979 0.027701398 -0.1863314 -0.07805277
-0.15771303 -0.1073266 0.10552396 -0.17882599 -0.058583174 -0.040825285 -0.063190475 -0.032692302
0.07425985 0.03521538 -0.076294795 0.043272 0.029147048 -0.11274106 0.064288914 -0.118803285
-0.103264526 -0.0017264263 -0.13609798 0.113968134 0.09771496 0.08633278 0.012439367 -0.16905828
0.031581372 -0.1926324 -0.018006295 0.04459178 -0.12988494 0.008069617 0.05526066 -0.07735314
-0.14943044 0.06388818 0.14788164 0.08202682 -0.018353136 -0.086157866 -0.006091187 -0.16793512
0.18359013 0.016003242 0.10357214 0.22224554 -0.09255834 -0.1002684 -0.054099873 -0.38902694
0.02054707 -0.40045097 -0.14357764 0.06368229 0.020681083 -0.117032975 -0.041831642 -0.2914663
0.023208749 -0.045337707 -0.06310752 0.14291103 0.12538534 0.08489215 0.17625096 0.00080017245
0.033329666 -0.14401402 -0.39860383 0.016247958 -0.10835828 -0.4109008 -0.4090987 -0.13541393
0.20568131 0.06368556 0.15378545 -0.24869655 -0.13116013 0.089977995 -0.0630495 -0.25401932
00000000: 3263 91bd c856 17be 3b78 93be da5b 2fbe
00000010: e7eb a93d 5792 203e 45b4 40be 3ae5 b9bc
00000020: 4b49 193d 3f90 423d 9ab5 7bbd 28e2 38be
00000030: 1b8f cabe 7be6 353d de10 00bc 3ead 8dbc
00000040: f098 353e a46d f5bd 8214 193d 9bf3 a33c
00000050: 254c 32be 5a73 abbe 3f00 e0bc 4cf0 903c
00000060: 42d4 b7be 6820 7a3c e446 06bc 5517 5ebe
00000070: 6e74 163e cf6d 3e3d f404 923d 32db 153e
00000080: bf4d b3bb 844e babe d084 12be ca16 003a
00000090: 98b8 15bd 450c 27bc a25f 2f3e 1c71 59bd
000000a0: b224 96be df74 83be ff2d b73d 6c48 4ebd
000000b0: 379a a93d e67e f03d 78f8 85be 92e5 4bbc
000000c0: cfdc ae3d 8293 763d 0151 d43d 9bb1 22be
000000d0: 2ce0 84bd e68e 26be d4b2 263d c7d0 cabc
000000e0: 04df 083d f505 3ebe dddc d33d f017 1abe
000000f0: bc43 d1bd 4944 863d a7e1 9bbe 0ed8 78be
00000100: dd79 54bb fa80 37be d9c6 9b3b a928 783d
00000110: 2d06 f23c c9af 713d 77b3 c03d 941c 923c
00000120: 94f6 9cbc 2ad3 f93c bce2 88bd f0fc d43d
00000130: 1733 97bc 0bee e23c a9cd 3ebe 21da 9fbd
00000140: 867f 21be 0cce dbbd f21c d83d 291e 37be
00000150: e9f4 6fbd 6a38 27bd 026a 81bd 5de8 05bd
00000160: 8c15 983d 013e 103d 7240 9cbd fb3d 313d
00000170: cac5 ee3c c9e4 e6bd e8a9 833d 234f f3bd
00000180: 5a7c d3bd 4149 e2ba 455d 0bbe 2068 e93d
00000190: c81e c83d 3ecf b03d 7dce 4b3c 9d1d 2dbe
000001a0: 785b 013d 6e41 45be f081 93bc dfa5 363d
000001b0: 8f00 05be 6d36 043c 0059 623d 536b 9ebd
000001c0: 4b04 19be ced7 823d 496e 173e adfd a73d
000001d0: 5159 96bc 8973 b0bd 9498 c7bb 2ff7 2bbe
000001e0: 0dff 3b3e 3b19 833c a11d d43d 5694 633e
000001f0: 3a8f bdbd 8559 cdbd d497 5dbd 8a2e c7be
00000200: 5452 a83c e907 cdbe 0406 13be dc6b 823d
00000210: 606b a93c fcae efbd a857 2bbd 123b 95be
00000220: 4620 be3c 08b4 39bd 843e 81bd 4557 123e
00000230: 0465 003e efdb ad3d 227b 343e aac2 513a
00000240: b084 083d 6978 13be cd15 ccbe 701a 853c
00000250: f2ea ddbd 9761 d2be 6375 d1be f3a9 0abe
00000260: 1f9e 523e 936d 823d ef79 1d3e 4faa 7ebe
00000270: d74e 06be 6246 b83d 1920 81bd d20e 82be

fc2.bias f4 [4]
-0.19932495 -0.13021126 0.06798565 0.043970812
00000000: d71b 4cbe 1a56 05be 0f3c 8b3d bd1a 343d
