task1/T1_to_T2_Gaussian_mcd_classifier.pt (torch, 5535 bytes, 4 tensors)

fc1.weight f4 [40, 20]
0.32039142 0.16400434 0.1344567 -0.103591904 -0.24232824 0.18375075 0.031171646 -0.23097505
-0.16423166 -0.1040298 -0.012744335 0.12534124 0.063275985 -0.1607885 -0.047493648 -0.064447805
-0.06253528 -0.23450536 0.22011288 0.3424945 -0.16921806 -0.12657459 -0.12166433 -0.123733856
0.030146798 0.21267088 -0.014358432 0.3353703 -0.21669883 -0.01435695 0.04596783 -0.2447388
-0.09939633 0.18215847 0.33628651 -0.17197402 -0.21220586 0.022191795 0.052113526 -0.0015494197
-0.02350857 -0.13233587 0.082015224 0.11888393 -0.11233241 -0.29111078 0.03236979 -0.05258188
0.25557888 -0.14048913 0.20859055 0.085266896 -0.0718657 0.09259673 0.11312872 -0.0036051115
0.28856027 0.36629894 0.11936733 -0.043494273 -0.018135212 -0.097072154 -0.29175526 0.19711648
0.026654573 0.2192749 -0.039999463 -0.27763873 -0.0988476 0.33273098 0.118361294 -0.29669228
0.29197922 -0.14196698 0.14204754 -0.003914426 -0.18867613 0.06180236 -0.10529627 0.23393685
-0.20974977 -0.08955801 0.08746961 0.15316102 -0.029010566 -0.09779267 0.13651176 -0.06939767
-0.0019208142 0.05445635 0.10060563 0.043627057 -0.10793587 -0.18371806 -0.01742715 0.20235723
0.08250594 -0.04505287 0.13262856 0.19801864 0.13989633 -0.14023313 0.19221956 -0.12652688
0.032731697 0.009931192 0.33067125 -0.20258768 0.109712966 -0.18036947 0.05066585 0.11408523
-0.12053754 0.052252624 0.11224299 0.005485526 0.13484144 0.21675652 0.0077665416 -0.036253672
0.1277976 -0.031910103 0.039260205 0.107060164 -0.19012533 -0.08681264 0.28512326 -0.4030545
0.039319884 -0.02003356 -0.11603271 -0.083294034 0.06960686 0.11421917 0.010287607 0.16140397
0.0274785 -0.004929514 -0.09801364 0.13335873 -0.03246498 -0.023781471 -0.15295555 -0.1315288
0.0202053 0.011580839 0.091511644 -0.14684935 0.04913318 0.20314047 -0.35094842 0.16731492
0.3269806 -0.27056402 -0.046437755 -0.063393496 -0.1970086 -0.25604805 -0.10558405 0.27756077
0.092542395 0.08172176 -0.4080046 0.207926 0.028812276 -0.059707277 0.09934171 -0.044049684
-0.24905299 0.29826877 0.09955156 -0.15077753 0.055873744 -0.13379031 0.09880149 0.09358062
-0.23829038 -0.30432895 -0.25283587 0.14415535 0.05762453 -0.11369155 -0.015036744 0.016967244
-0.16697474 0.17348959 0.19330014 -0.27144974 -0.25602198 -0.20128426 0.013288868 -0.16426346
0.2546934 -0.10106401 0.10499375 0.027017592 0.1411267 -0.020115927 0.06365836 0.1852313
0.006941924 0.28928423 0.09126421 -0.1379215 0.01137171 0.27948675 0.27065775 -0.33500245
-0.08446633 0.19528216 0.04539209 0.1914785 -0.015922861 -0.13854098 -0.0247609 -0.15945503
-0.1130656 -0.17397062 0.10138814 0.31469476 -0.042875126 -0.015310167 -0.09625348 -0.07225284
-0.06845911 -0.0332606 -0.23974273 0.09636821 -0.23141342 -0.11714357 0.09633538 -0.24153179
-0.1368997 -0.09575081 0.35627565 0.11183305 0.07274233 -0.16919743 0.028545668 -0.0667664
-0.12331694 0.035848938 0.1997337 -0.14627728 -0.19698852 0.20004241 0.2195957 0.18671192
0.1598255 -0.1439087 -0.18346153 0.1799066 0.17062466 0.14273989 0.06976651 -0.16450578
00000000: 580a a43e c1f0 273e 04af 093e fe27 d4bd
00000010: e524 78be 2829 3c3e ae5b ff3c b984 6cbe
00000020: 582c 28be 930d d5bd 9ecd 50bc 7459 003e
00000030: d796 813d bea5 24be b388 42bd 36fd 83bd
00000040: 7f12 80bd 2c22 70be 4565 613e 705b af3e
00000050: 8047 2dbe c59c 01be 262b f9bd 2d68 fdbd
00000060: 6bf6 f63c 65c6 593e a13f 6bbc a8b5 ab3e
00000070: 4ce6 5dbe 6a39 6bbc c348 3c3d cf9c 7abe
00000080: 4e90 cbbd c087 3a3e bf2d ac3e f519 30be
00000090: 7e4c 59be 91cb b53c fe74 553d e615 cbba
000000a0: 0b95 c0bc 0e83 07be 99f7 a73d 6b79 f33d
000000b0: 890e e6bd 790c 95be 2f96 043d 1960 57bd
000000c0: 3cdb 823e 62dc 0fbe c398 553e 69a0 ae3d
000000d0: 532e 93bd 5ba3 bd3d 08b0 e73d bc43 6cbb
000000e0: 2cbe 933e 898b bb3e dc76 f43d 0d27 32bd
000000f0: 4c90 94bc c4cd c6bd f260 95be e7d8 493e
00000100: b15a da3c 9989 603e 7ad6 23bd aa26 8ebe
00000110: 9c70 cabd b75b aa3e 6867 f23d 0de8 97be
00000120: 4d7e 953e cb5f 11be e974 113e 9644 80bb
00000130: 5134 41be 7924 7d3d 92a5 d7bd 248d 6f3e
00000140: a5c8 56be 316a b7bd 4423 b33d 3ed6 1c3e
00000150: 91a7 edbc 8647 c8bd bdc9 0b3e 5e20 8ebd
00000160: d4c3 fbba 9f0d 5f3d 530a ce3d 49b2 323d
00000170: 7b0d ddbd 9620 3cbe 62c3 8ebc bc36 4f3e
00000180: e0f8 a83d 5c89 38bd c8cf 073e 66c5 4a3e
00000190: fc40 0f3e 4699 0fbe 34d5 443e 4390 01be
000001a0: ac11 063d 70b6 223c be4d a93e 2573 4fbe
000001b0: 31b1 e03d c6b2 38be ff86 4f3d 84a5 e93d
000001c0: 63dc f6bd d906 563d a7df e53d edbf b33b
000001d0: e013 0a3e 6cf5 5d3e 797e fe3b bb7e 14bd
000001e0: 60dd 023e 2bb4 02bd 4fcf 203d 5c42 db3d
000001f0: 37b0 42be d3ca b1bd adfb 913e 295d cebe
00000200: e30d 213d 6c1d a4bc 8fa2 edbd 1096 aabd
00000210: 0b8e 8e3d bdeb e93d 5a8d 283c 1547 253e
00000220: 971a e13c c387 a1bb 60bb c8bd 318f 083e
00000230: 00fa 04bd 5cd1 c2bc 61a0 1cbe 7caf 06be
00000240: 9685 a53c 8fbd 3d3c 756a bb3d ad5f 16be
00000250: e03f 493d 0e04 503e 83af b3be 9a54 2b3e
00000260: 006a a73e 5e87 8abe 8435 3ebd 73d4 81bd
00000270: 9fbc 49be bb18 83be 733c d8bd 721c 8e3e
00000280: de86 bd3d bd5d a73d fbe5 d0be 8eea 543e
00000290: b907 ec3c 9e8f 74bd ab73 cb3d 716d 34bd
000002a0: bf07 7fbe afb6 983e b0e1 cb3d 6d65 1abe
000002b0: dedb 643d 5400 09be 7058 ca3d 32a7 bf3d
000002c0: 6502 74be 01d1 9bbe b473 81be 769d 133e
000002d0: b307 6c3d 1ed7 e8bd ad5c 76bc e4fe 8a3c
000002e0: 6dfb 2abe 41a7 313e 79f0 453e 76fb 8abe
000002f0: 5015 83be 761d 4ebe 8db9 593c ae34 28be
00000300: 2c67 823e a6fa cebd f706 d73d ff53 dd3c
00000310: 8583 103e 28ca a4bc 505f 823d 46ad 3d3e
00000320: 1479 e33b 101d 943e bbe8 ba3d 4b3b 0dbe
00000330: 6950 3a3c e318 8f3e a793 8a3e 7185 abbe
00000340: affc acbd 0cf8 473e 0eed 393d f112 443e
00000350: a970 82bc b0dd 0dbe 5fd7 cabc 2e48 23be
00000360: f08e e7bd 5b25 32be 96a4 cf3d ac1f a13e
00000370: d49d 2fbd 7fd7 7abc 8b20 c5bd 4cf9 93bd
00000380: 4a34 8cbd 443c 08bd 1e7f 75be b25c c53d
00000390: a4f7 6cbe f8e8 efbd 7c4b c53d 1c54 77be
000003a0: 6f2f 0cbe 0019 c4bd c369 b63e ba08 e53d
000003b0: eef9 943d 1742 2dbe 9bd8 e93c d3bc 88bd
000003c0: 988d fcbd 56d6 123d fe86 4c3e b6c9 15be
000003d0: 5cb7 49be ebd7 4c3e b2dd 603e 6931 3f3e
000003e0: 4ca9 233e cd5c 13be 57dd 3bbe 7039 383e
000003f0: 3bb8 2e3e 682a 123e bee1 8e3d 3474 28be

fc1.bias f4 [40]
-0.08948876 -0.05643547 -0.03871416 0.25448182 -0.20595823 0.090200864 0.017776791 0.24077593
-0.0020398893 -0.13522965 -0.10577831 -0.098758586 -0.038801115 0.23793608 0.094951175 0.09030981
-0.19421661 0.26273012 -0.044458773 0.13935001 -0.054836012 -0.09460402 -0.22683781 0.009069033
0.12847939 0.16376841 0.21579152 0.087332055 -0.11549796 -0.21749091 -0.022932239 -0.044906504
-0.100581855 0.06529291 0.1901514 0.28789857 -0.021822592 -0.065270446 -0.012187761 0.22363447
00000000: e245 b7bd e128 67bd bd92 1ebd 714b 823e
00000010: b7e6 52be 3bbb b83d a2a0 913c f78d 763e
00000020: aaaf 05bb a479 0abe 4ca2 d8bd f141 cabd
00000030: ebed 1ebd 84a5 733e c375 c23d 5af4 b83d
00000040: b8e0 46be 9084 863e 671a 36bd c5b1 0e3e
00000050: ba9b 60bd c1bf c1bd 2c48 68be 4896 143c
00000060: 1a90 033e e8b2 273e 74f8 5c3e 26db b23d
00000070: 328a ecbd f0b5 5ebe 64dc bbbc e2ef 37bd
00000080: dcfd cdbd 4ab8 853d 0cb7 423e 7167 933e
00000090: 4bc5 b2bc 83ac 85bd 2daf 47bc 6f00 653e

fc2.weight f4 [4, 40]
0.051206756 -0.060961854 0.19644876 -0.20447162 -0.093607455 0.09306069 -0.108433455 -0.32244155
-0.33142477 -0.094681874 -0.08316569 -0.0854717 -0.049095508 -0.12609893 0.15471424 0.19043915
-0.19337787 0.038571034 -0.036308087 -0.15104008 -0.34788024 0.26075774 0.1148833 0.01994675
-0.28648067 0.056393713 -0.17778444 0.23342237 0.20767595 -0.23027948 0.17055906 0.028367708
0.057037596 -0.3468044 0.14162219 -0.24765418 0.06041203 0.22423802 -0.3269824 -0.30619225
0.16570029 -0.1651523 -0.046869624 -0.07582719 0.00017518611 0.09362514 0.0755734 0.07894688
-0.3093227 0.17333697 0.1899484 -0.080515146 0.22376107 0.07690782 0.1913964 -0.22548826
-0.16341083 0.18171771 -0.057617042 -0.24230523 -0.29718116 0.04406938 -0.10220833 0.09918421
0.22339761 0.1334385 -0.059973247 0.0477146 -0.047286294 -0.21206032 0.011525306 -0.123152934
-0.22380355 -0.21980095 0.16419615 -0.016700292 -0.2109984 -0.115508236 -0.023768825 -0.016202064
0.1454451 -0.090723634 -0.010213801 0.16271432 0.11491946 -0.26839086 0.116212964 0.13682516
0.100939974 0.20793676 0.15350056 0.018247768 -0.1908486 0.14312537 -0.09008393 -0.12259017
0.12694259 0.16943622 -0.19357626 -0.0960312 0.06729646 -0.007609703 -0.09089312 0.09325839
-0.14398876 -0.1885276 -0.066184565 -0.14685114 -0.07863087 -0.095078275 -0.19100599 0.061028715
-0.21833056 0.109443344 0.01569982 0.092615016 -0.2211691 -0.06411282 0.0355796 -0.06614595
-0.2822419 0.23074166 -0.19801907 0.15940039 0.0031197206 -0.2850049 -0.23522744 0.10813413
0.120713905 0.031271063 -0.26589513 0.14276202 -0.15763775 0.009828557 -0.25557694 -0.10900201
0.09366439 -0.14593047 0.005042645 0.11381574 0.07345307 -0.10272969 -0.08384663 -0.33269975
-0.07864338 -0.21871942 0.21016444 -0.015816158 -0.08343681 0.117094435 -0.16377783 -0.16078022
-0.051194847 0.1331207 -0.13859318 0.0627596 -0.15007652 -0.15281022 0.11794984 -0.15764263
00000000: 2dbe 513d 23b3 79bd dd29 493e 0261 51be
00000010: 44b5 bfbd 9a96 be3d 5c12 debd 0f17 a5be
00000020: 82b0 a9be 92e8 c1bd c652 aabd c90b afbd
00000030: 5f18 49bd 1420 01be 696d 1e3e 7b02 433e
00000040: d904 46be a9fc 1d3d cab7 14bd 40aa 1abe
00000050: 5c1d b2be 0a82 853e f047 eb3d 5e67 a33c
00000060: 98ad 92be 18fd 663d 200d 36be 4606 6f3e
00000070: 01a9 543e 62ce 6bbe 09a7 2e3e 6563 e83c
00000080: 41a0 693d 5990 b1be 6805 113e 0f99 7dbe
00000090: 9b72 773d a79e 653e 3d6a a7be 3bc5 9cbe
000000a0: 56ad 293e af1d 29be 5dfa 3fbd 494b 9bbd
000000b0: 2ab2 3739 8abe bf3d 3ac6 9a3d e7ae a13d
000000c0: 8c5f 9ebe 3f7f 313e d581 423e 20e5 a4bd
000000d0: 9f21 653e d981 9d3d 6bfd 433e 65e6 66be
000000e0: 2b55 27be 3514 3a3e d9ff 6bbd dd1e 78be
000000f0: 2128 98be 1882 343d 9a52 d1bd 1721 cb3d
00000100: 58c2 643e 1aa4 083e 82a6 75bd 6270 433d
00000110: 46af 41bd 5726 59be a3d4 3c3c 9b37 fcbd
00000120: c22c 65be 8013 61be 0923 283e 0dcf 88bc
00000130: f70f 58be 958f ecbd d7b6 c2bc 31ba 84bc
00000140: 8fef 143e 50cd b9bd c957 27bc 959e 263e
00000150: e55a eb3d 876a 89be 1001 ee3d e51b 0c3e
00000160: 9eb9 ce3d 60ed 543e 402f 1d3e 587c 953c
00000170: d16d 43be 758f 123e ec7d b8bd 8e10 fbbd
00000180: 3dfd 013e b080 2d3e db38 46be 01ac c4bd
00000190: bad2 893d d15a f9bb 2c26 babd 41fe be3d
000001a0: ca71 13be 610d 41be c68b 87bd 2560 16be
000001b0: 3909 a1bd 66b8 c2bd 1397 43be 3ff9 793d
000001c0: 0c92 5fbe d523 e03d e99c 803c f1ac bd3d
000001d0: 277a 62be 954d 83bd eabb 113d 8777 87bd
000001e0: 0382 90be 8b47 6c3e 83c5 4abe db39 233e
000001f0: 3a74 4c3b 2aec 91be 76df 70be 6d75 dd3d
00000200: da38 f73d 1616 003d 6823 88be 3530 123e
00000210: ca6b 21be f507 213c fbda 82be 723c dfbd
00000220: 1ed3 bf3d cc6e 15be c63c a53b 3a18 e93d
00000230: 906e 963d f263 d2bd c8b7 abbd 9f57 aabe
00000240: c80f a1bd fcf7 5fbe 5935 573e e390 81bc
00000250: ebe0 aabd 35cf ef3d 60b5 27be 92a3 24be
00000260: b0b1 51bd cb50 083e 5feb 0dbe 1b88 803d
00000270: a9ad 19be 487a 1cbe b08f f13d 126d 21be

fc2.bias f4 [4]
-0.1984586 -0.06452781 0.14425369 -0.07616939
00000000: bb38 4bbe 2827 84bd 3db7 133e b2fe 9bbd
