task1/T1_to_T2_Gaussian_mcd_classifier2.pt (torch, 5535 bytes, 4 tensors)

fc1.weight f4 [40, 20]
0.12242997 -0.20504019 -0.049760435 -0.0046820138 -0.118676804 -0.20173383 -0.037730686 -0.16561848
0.20479587 -0.30982867 -0.13880153 0.25085464 0.12417188 0.2637198 0.011447185 -0.19545789
0.26439762 0.019635847 0.20364071 -0.0503628 0.07579111 0.0769626 0.13730058 -0.02809107
-0.2046093 -0.2227319 -0.06319704 0.18222262 0.13169001 0.09017662 0.33943278 0.17957422
-0.043922465 -0.0036632002 -0.16698919 -0.14972667 0.023061717 0.043136396 0.31711626 -0.05422025
-0.20274605 0.17136066 -0.32887483 0.21617432 -0.15310748 0.061962508 0.0030389335 0.005775466
-0.30495584 0.31753346 -0.094012834 -0.21647815 0.094025604 -0.32774556 -0.23856759 0.3020916
-0.13095114 -0.26797393 -0.2776834 0.054835472 0.17264606 0.035968713 0.1449802 -0.28626177
0.03508579 -0.11839021 0.06520969 -0.029726073 0.15827864 -0.3111945 -0.15736319 0.028109198
0.12684017 0.28537694 -0.14785156 -0.16048329 0.3626572 -0.18308978 0.2393792 -0.025804676
-0.14123327 -0.17657383 0.3272767 0.038040996 -0.02042538 0.21905553 0.303504 -0.17732164
0.3089136 -0.042237055 -0.19057883 0.34128633 -0.039052755 0.06392378 0.02631663 0.133163
0.050154563 0.15812802 0.029279398 0.26703408 0.07219578 -0.046572927 0.13158499 -0.02599057
0.016470019 -0.029141 0.07804103 0.112758644 0.11517748 -0.06382885 0.37239072 0.16528739
-0.32591808 0.06742117 0.015589229 -0.2678838 0.13400021 0.3408779 0.025194932 -0.0033139407
-0.026460059 -0.007300729 -0.1754339 0.054212976 -0.13434976 -0.15991904 -0.15762283 -0.20842034
-0.24621342 0.262361 -0.04869425 -0.078515455 0.02498608 -0.005390407 -0.27980006 0.101568505
0.036780853 -0.32155752 -0.16070484 0.2068369 0.04427043 -0.10902805 -0.04838187 0.18488659
0.06688211 -0.081917316 -0.120934494 -0.17517023 -0.016883764 0.02072593 0.27588466 0.18563458
-0.27805713 -0.07975358 0.02255806 -0.20160511 -0.031259533 0.06826031 0.23670894 0.13830172
0.28075626 0.19075114 0.13327357 -0.1992786 0.045883454 0.032753658 -0.071935885 0.10106465
0.004067607 -0.04770085 -0.12035442 -0.14858967 0.01673689 0.08287462 -0.101540156 0.186164
-0.04876746 -0.15010606 0.04347613 0.23855862 0.015255357 -0.0006652801 -0.08539681 0.21264897
0.12203317 0.01894017 -0.06877153 0.29557398 0.16940746 0.1911966 -0.19198723 -0.068509616
0.18694845 -0.10675087 0.124725066 -0.1376557 -0.0029016798 0.045993727 0.011616856 -0.27866164
0.1987717 -0.21742085 0.070146084 -0.17077984 -0.02209893 -0.33243978 0.11951975 0.25429386
0.19363402 -0.092593916 0.285628 0.18225694 -0.18136515 -0.06833731 -0.14116031 -0.25673077
0.03758387 0.31896025 0.077319436 -0.11962495 -0.13124424 -0.007439396 0.07309719 -0.07342166
0.06552564 -0.010010503 0.12570532 -0.15671022 0.22921146 -0.039156802 0.11684992 -0.08103773
-0.31391865 0.16197756 0.02638315 0.09009275 -0.020942377 0.31842005 0.22262035 -0.093261465
0.3186855 -0.16093223 0.0629736 -0.080869 -0.15099645 0.04537325 0.16075969 -0.20186867
-0.029364267 -0.10913423 -0.12809421 0.03993148 0.2359695 0.08580925 -0.41453344 0.22016983
00000000: 90bc fa3d 0ef6 51be 99d1 4bbd 946b 99bb
00000010: d30c f3bd 5093 4ebe 7e8b 1abd e497 29be
00000020: 02b6 513e dda1 9ebe fd21 0ebe 0570 803e
00000030: d44d fe3d 4806 873e f98c 3b3c 1d26 48be
00000040: 205f 873e 5bdb a03c 3187 503e 3949 4ebd
00000050: 5f38 9b3d 919e 9d3d 8698 0c3e 3e1f e6bc
00000060: 1a85 51be d513 64be 736d 81bd 9198 3a3e
00000070: bfd9 063e 85ae b83d 22ca ad3e 4ee2 373e
00000080: 0be8 33bd 4d12 70bb 37ff 2abe f351 19be
00000090: edeb bc3c caaf 303d 105d a23e 0e16 5ebd
000000a0: a99c 4fbe 2b79 2f3e 4862 a8be cd5c 5d3e
000000b0: 35c8 1cbe 66cc 7d3d d828 473b 1f40 bd3b
000000c0: 2c23 9cbe bf93 a23e cd89 c0bd 73ac 5dbe
000000d0: 7f90 c03d 44ce a7be 104b 74be c0ab 9a3e
000000e0: 0e18 06be e133 89be 852c 8ebe 299b 603d
000000f0: 21ca 303e ee53 133d b175 143e e790 92be
00000100: 1eb6 0f3d 9176 f2bd a88c 853d 1884 f3bc
00000110: cc13 223e e354 9fbe d123 21be 4345 e63c
00000120: 64e2 013e ed1c 923e 6666 17be bb55 24be
00000130: 34ae b93e e37b 3bbe d21f 753e 5464 d3bc
00000140: 749f 10be c5cf 34be d090 a73e e0d0 1b3d
00000150: 2053 a7bc 1850 603e e064 9b3e ce93 35be
00000160: ec29 9e3e c300 2dbd 1927 43be 15bd ae3e
00000170: c8f5 1fbd 79ea 823d f995 d73c e25b 083e
00000180: df6e 4d3d 50ec 213e 59db ef3c b1b8 883e
00000190: 62db 933d 41c3 3ebd 37be 063e 2dea d4bc
000001a0: 22ec 863c 1bb9 eebc fad3 9f3d 01ee e63d
000001b0: 2ce2 eb3d b3b8 82bd ffa9 be3e 1941 293e
000001c0: bcde a6be 1c14 8a3d f769 7f3c 1128 89be
000001d0: 5a37 093e 8c87 ae3e 9a65 ce3c b32e 59bb
000001e0: c4c2 d8bc f43a efbb f2a4 33be 6d0e 5e3d
000001f0: fc92 09be d1c1 23be e167 21be 246c 55be
00000200: 5f1f 7cbe 2e54 863e 9f73 47bd b6cc a0bd
00000210: 9caf cc3c 03a2 b0bb f441 8fbe 2603 d03d
00000220: 85a7 163d 30a3 a4be cf8f 24be 0dcd 533e
00000230: e954 353d 194a dfbd 112c 46bd e952 3d3e
00000240: 7df9 883d 44c4 a7bd 81ac f7bd d35f 33be
00000250: d24f 8abc 6dc9 a93c c140 8d3e fe16 3e3e
00000260: 815d 8ebe d855 a3bd aecb b83c 9271 4ebe
00000270: ff09 00bd 10cc 8b3d d463 723e f79e 0d3e
00000280: 49bf 8f3e 4454 433e de78 083e b00f 4cbe
00000290: 4af0 3b3d b328 063d 1f53 93bd fcfa ce3d
000002a0: 9049 853b f761 43bd 617c f6bd e427 18be
000002b0: cd1b 893c 2bba a93d 49f4 cfbd c7a1 3e3e
000002c0: 63c0 47bd 67b5 19be 0714 323d b648 743e
000002d0: 9bf1 793c 3166 2eba 86e4 aebd a7c0 593e
000002e0: 87ec f93d 6a28 9b3c 17d8 8cbd 7955 973e
000002f0: 2679 2d3e 0bc9 433e 4d98 44be c54e 8cbd
00000300: 6a6f 3f3e 33a0 dabd db6f ff3d 9ef5 0cbe
00000310: 1c2a 3ebb eb63 3c3d a054 3e3c bdac 8ebe
00000320: cf8a 4b3e 92a3 5ebe c0a8 8f3d e9e0 2ebe
00000330: d108 b5bc 8c35 aabe c5c6 f43d ce32 823e
00000340: ff47 463e e1a1 bdbd d53d 923e 90a1 3a3e
00000350: c9b7 39be 6ef4 8bbd 548c 10be 3772 83be
00000360: 8bf1 193d c24e a33e a759 9e3d edfd f4bd
00000370: e464 06be 2dc6 f3bb fbb3 953d 185e 96bd
00000380: 4f32 863d 1803 24bc e5b8 003e a578 20be
00000390: 69b6 6a3e e262 20bd 034f ef3d 1cf7 a5bd
000003a0: f2b9 a0be 72dd 253e 7a21 d83c 8c82 b83d
000003b0: 598f abbc f407 a33e 97f6 633e deff bebd
000003c0: bf2a a33e 6bcb 24be 4ef8 803d a59e a5bd
000003d0: d09e 1abe 4dd9 393d 309e 243e a9b6 4ebe
000003e0: 558d f0bc c481 dfbd 212b 03be 318f 233d
000003f0: fda1 713e c3bc af3d ba3d d4be 3374 613e

fc1.bias f4 [40]
-0.018047767 -0.018346382 -0.10584427 0.10877619 -0.07800618 -0.2714619 0.1915661 -0.025698744
-0.0003098115 -0.08428442 -0.04172563 0.015616978 -0.10937324 0.10658257 0.22183385 0.028641213
-0.054262508 0.25024483 -0.09614281 0.01841824 -0.04598327 0.07856879 -0.10352146 0.0045386953
0.06007216 0.16993128 0.16766623 0.1877208 -0.032824814 0.0700876 -0.21540624 0.04026287
0.1680477 0.07589335 -0.039061304 0.06037041 0.1888532 -0.112178676 0.09039679 0.12296848
00000000: e9d8 93bc 274b 96bc e1c4 d8bd 0dc6 de3d
00000010: b4c1 9fbd 0efd 8abe e729 443e 2c86 d2bc
00000020: 326e a2b9 4f9d acbd 7fe8 2abd 5ade 7f3c
00000030: 14ff dfbd f647 da3d 6a28 633e faa0 ea3c
00000040: 5d42 5ebd 1720 803e 86e6 c4bd d9e1 963c
00000050: f458 3cbd ace8 a03d 0f03 d4bd 56b9 943b
00000060: 3a0e 763d 7702 2e3e b2b0 2b3e e239 403e
00000070: 5073 06bd 168a 8f3d 7493 5cbe aeea 243d
00000080: b214 2c3e f96d 9b3d bffe 1fbd f746 773d
00000090: bc62 413e efbd e5bd f421 b93d e6d6 fb3d

fc2.weight f4 [4, 40]
0.13342504 0.2226221 -0.15306334 0.07210594 0.059747253 0.20369802 -0.34775475 0.10847085
-0.22541356 -0.10357011 0.22215249 0.08419881 0.06962942 0.0949568 -0.010564838 0.108838014
0.19834948 -0.39967334 -0.058579892 0.10671488 0.23139553 -0.36103895 -0.04046877 -0.03576514
-0.0349178 0.06223221 -0.13225654 -0.39459988 0.06313641 -0.135211 -0.12558642 0.23504487
0.07720356 0.17963597 0.054245394 -0.07355305 0.14830463 -0.2442687 -0.26873046 0.08896152
0.06190044 0.009147989 -0.29775327 0.15604626 0.26974633 -0.1876766 -0.15120807 -0.23625591
-0.017598812 -0.07117985 0.05594303 -0.17810814 0.16815624 -0.022099813 0.19781283 -0.1879029
-0.117000565 -0.2346319 0.12201939 -0.16057405 -0.14211093 0.009308085 -0.3100478 -0.10362749
0.0852878 0.109770045 0.06755849 -0.094723806 0.17546873 0.24571927 -0.08072593 -0.12949106
-0.12641858 -0.15015133 -0.10231384 0.12987684 -0.11717972 -0.29530683 0.054045487 -0.16977386
-0.25054765 -0.035861965 0.09877593 -0.042937554 -0.14374992 0.0034158083 0.026968582 0.0731642
0.15618274 -0.18795434 0.02540309 0.0073718783 0.16242248 -0.28010267 -0.18113871 -0.10212471
0.07042918 0.080841556 0.11284522 -0.23180522 -0.04356616 0.13965847 -0.070660815 0.030310582
0.05215311 -0.24127468 0.0671901 0.13128825 -0.2521257 -0.22906314 0.08938107 0.039056927
-0.16957784 -0.09653237 0.13524683 -0.15179582 -0.17766935 -0.12390527 0.1227624 -0.12742428
-0.1700906 0.018147822 0.11847943 -0.1946366 -0.2536383 -0.11485001 0.0046043135 0.06350555
-0.23552924 0.062254053 -0.07139753 -0.070757724 -0.27247328 -0.047151674 -0.15972283 -0.17599022
-0.110251345 0.122217044 -0.2874785 -0.030679222 0.03798433 0.14208277 0.17145832 0.13484363
-0.35032582 -0.2935166 -0.22999504 0.147965 -0.27782866 -0.093778394 -0.22388417 -0.22680843
-0.14818601 -0.23660263 -0.0045516486 -0.0009693992 -0.2397367 0.10680341 -0.16991039 -0.03604333
00000000: 93a0 083e 0cf7 633e a3bc 1cbe 47ac 933d
00000010: 89b9 743d 3796 503e e90c b2be f725 de3d
00000020: d0d2 66be 911c d4bd f17b 633e 6d70 ac3d
00000030: df99 8e3d b678 c23d 2418 2dbc 77e6 de3d
00000040: 201c 4b3e fca1 ccbe 78f1 6fbd 558d da3d
00000050: f3f2 6c3e 19da b8be 95c2 25bd 787e 12bd
00000060: f805 0fbd 34e7 7e3d 426e 07be ff08 cabe
00000070: aa4d 813d c174 0abe ba99 00be 9aaf 703e
00000080: e61c 9e3d 7ef2 373e 6b30 5e3d fba2 96bd
00000090: 2bdd 173e 9321 7abe 0a97 89be 7531 b63d
000000a0: 518b 7d3d 72e1 153c 1e73 98be 97ca 1f3e
000000b0: 311c 8a3e 4b2e 40be 4ad6 1abe 12ed 71be
000000c0: 622b 90bc bec6 91bd 8524 653d fb61 36be
000000d0: 2631 2c3e ab0a b5bc 728f 4a3e 9e69 40be
000000e0: fe9d efbd 5843 70be 4de5 f93d 866d 24be
000000f0: 8785 11be f080 183c 96be 9ebe a63a d4bd
00000100: 5fab ae3d 1ecf e03d 1b5c 8a3d 8efe c1bd
00000110: 13ae 333e d59d 7b3e a353 a5bd 4e99 04be
00000120: df73 01be 45c1 19be eb89 d1bd 6ffe 043e
00000130: ecfb efbd 7532 97be cd5e 5d3d 33d9 2dbe
00000140: c847 80be ffe3 12bd 094b ca3d 4adf 2fbd
00000150: 2e33 13be c1db 5f3b 37ed dc3c 1dd7 953d
00000160: 5eee 1f3e 1a77 40be 241a d03c cc8f f13b
00000170: 1452 263e 9e69 8fbe 6d7c 39be c326 d1bd
00000180: 2d3d 903d 4290 a53d 651b e73d 595e 6dbe
00000190: 6e72 32bd a102 0f3e 9eb6 90bd e64d f83c
000001a0: 809e 553d b610 77be f79a 893d 6d70 063e
000001b0: 9f16 81be 878f 6abe 6c0d b73d 28fa 1f3d
000001c0: d0a5 2dbe c3b2 c5bd 257e 0a3e 5d70 1bbe
000001d0: f4ee 35be 0cc2 fdbd da6a fb3d 837b 02be
000001e0: 3b2c 2ebe beaa 943c 58a5 f23d d14e 47be
000001f0: e1dc 81be 7b36 ebbd c8df 963b 330f 823d
00000200: 942e 71be 1bfe 7e3d de38 92bd 6de9 90bd
00000210: 9e81 8bbe 1d22 41bd 628e 23be c836 34be
00000220: 75cb e1bd ee4c fa3d 6230 93be fe52 fbbc
00000230: 7595 1b3d 257e 113e c592 2f3e 7314 0a3e
00000240: e85d b3be cf47 96be d283 6bbe 2384 173e
00000250: 8f3f 8ebe e30e c0bd e441 65be 7840 68be
00000260: 13be 17be f647 72be ff25 95bb 471f 7eba
00000270: 8a7d 75be bfbb da3d fdfc 2dbe 2ca2 13bd

fc2.bias f4 [4]
-0.18441921 0.11494234 0.110796675 0.13964258
00000000: 64d8 3cbe e466 eb3d 5ee9 e23d 77fe 0e3e
