task1/T1_to_T2_Gaussian_source_only_classifier.pt (torch, 5535 bytes, 4 tensors)

fc1.weight f4 [40, 20]
0	0xbe6e0c6c	-0.23246926
1	0xbd0ce261	-0.03439558
2	0xbdac8884	-0.08424476
3	0x3e8bfb53	0.27340183
4	0xbe20134a	-0.15632358
5	0xbdc2ee48	-0.09518105
6	0x3e2746a7	0.16335545
7	0x3e9c446a	0.30520946
8	0xbdeba919	-0.11506862
9	0x3d09aa77	0.033609834
10	0x3e9148fe	0.28376
11	0xbd8d50b4	-0.069001585
12	0xb83c9b9b	-4.496761e-05
13	0xbe0f96ae	-0.14022323
14	0x3df98a20	0.121845484
15	0xbddd7ee8	-0.10815221
16	0x3e5a8839	0.21341027
17	0x3e6c0c55	0.2305158
18	0xbd2a8517	-0.04163083
19	0x3e01a35e	0.12659976
20	0xbd3a697e	-0.04551076
21	0x3e1873df	0.14887951
22	0x3e52012c	0.2050826
23	0xbde7b164	-0.113131315
24	0xbd8d3c1a	-0.06896229
25	0x3e800d6a	0.25010234
26	0x3d8ce830	0.06880224
27	0xbe4a61b5	-0.19763835
28	0x3d945016	0.07241838
29	0x38b141b0	8.452253e-05
30	0xbe495c93	-0.1966422
31	0xbc4f8dee	-0.012668116
32	0xbe52d7b7	-0.20590101
33	0xbebe6e80	-0.3719368
34	0x3e128d1e	0.14311644
35	0xbe3e8470	-0.18605208
36	0xbd98a861	-0.07453991
37	0xbed066ec	-0.40703523
38	0x3dfc6091	0.12323106
39	0x3dde6aa9	0.108601876
40	0x3e4b73cc	0.19868392
41	0x3de10ef9	0.10989184
42	0xbe102649	-0.14077105
43	0xbd189b7a	-0.03725765
44	0x3df3f772	0.11912431
45	0x3e9928d8	0.29913974
46	0xbd5d8ad2	-0.054087467
47	0x3e1504b4	0.14552575
48	0xbebc42fb	-0.36769852
49	0x3e929591	0.28629735
50	0x3dcab9b6	0.09898703
51	0xbe153e78	-0.14574611
52	0xbe786b54	-0.24259692
53	0x3d6de713	0.058081698
54	0xbe5793c0	-0.21052456
55	0xbe4daeb2	-0.20086172
56	0xbe3c2673	-0.18374042
57	0x3da655ca	0.08121832
58	0xbe47bb98	-0.19505155
59	0x3d7ff63e	0.062490694
60	0xbe46c8fc	-0.19412607
61	0xbe042843	-0.12905984
62	0x3d8f664c	0.070019335
63	0xbdc70da2	-0.09719397
64	0xbe6d299e	-0.23160407
65	0xbe99c431	-0.30032495
66	0x3e1cddf2	0.1531904
67	0x3cbda190	0.023148328
68	0x3e2efe1e	0.17089126
69	0xbeabcec8	-0.335562
70	0xbe7871ba	-0.24262133
71	0xbd75a454	-0.05997117
72	0x3e8cd04f	0.27502677
73	0xbd6ab169	-0.057298098
74	0x3dd150d8	0.10220498
75	0x3eb74e32	0.35801846
76	0x3d74c2fb	0.05975626
77	0xbde03ad2	-0.10948719
78	0xbd949ea2	-0.07256819
79	0x3e0ed6cb	0.13949125
80	0x3be615ee	0.007021657
81	0x3e006178	0.12537181
82	0xbe597906	-0.21237573
83	0xbe76a37d	-0.24085803
84	0x3eaf09ae	0.34187073
85	0x3d90b7db	0.07066318
86	0xbe8dbdff	-0.27684018
87	0xbdb71e46	-0.08941321
88	0xbe2e1232	-0.16999128
89	0x3dfe217c	0.124087304
90	0x3e6e2606	0.23256692
91	0xbeb1f97c	-0.34760654
92	0xbe72befd	-0.23705669
93	0xbe040e5e	-0.12896106
94	0xbe899a75	-0.26875654
95	0xbeab194f	-0.33417746
96	0xbe82dc24	-0.2555858
97	0x3dfa1bae	0.12212311
98	0xbe6dab88	-0.23209965
99	0xbdb316d6	-0.0874459
100	0xbee0c3a8	-0.43899274
101	0xbe98b115	-0.29822603
102	0x3e2c3ebf	0.1682081
103	0x3e91722e	0.28407425
104	0xbefc8a74	-0.4932438
105	0xbd5121cd	-0.051057626
106	0x3e4afd05	0.19823082
107	0xbe2123c6	-0.15736303
108	0x3efbd42e	0.49185318
109	0xbef91986	-0.48652285
110	0xbe92a724	-0.28643143
111	0x3e081210	0.1328814
112	0x3cb6c572	0.022310946
113	0x3e85fc9a	0.26169282
114	0x3e61d398	0.22053373
115	0x3ede6374	0.43435252
116	0xbd72b346	-0.059253
117	0x3d2f58ae	0.04280918
118	0xbccda91d	-0.025105054
119	0xbdf80e79	-0.121121354
120	0x3eac94e3	0.33707342
121	0xbce31abf	-0.027722714
122	0xbc8d2570	-0.017229766
123	0x3e15914b	0.14606206
124	0x3eb0b186	0.3451044
125	0x3d861710	0.065473676
126	0xbe6688d6	-0.22513136
127	0x3e1efe17	0.15526615
128	0xbe85cdc8	-0.2613356
129	0x3ef9c1eb	0.4878076
130	0x3ddfdb0b	0.10930451
131	0xbe95a53f	-0.29227635
132	0xbe7d23e9	-0.2472073
133	0x3d6405d2	0.055669613
134	0xbd270b9e	-0.040782563
135	0xbe6c7287	-0.23090564
136	0xbe44276e	-0.19155666
137	0x3ca72a9a	0.020406056
138	0xbe432bfc	-0.19059747
139	0x3d960b88	0.07326418
140	0xbdd9f840	-0.10643053
141	0xbe8493d0	-0.25894022
142	0xbd80b501	-0.06284524
143	0xbe42c24e	-0.19019434
144	0x3dbc15cf	0.09183847
145	0x3e37b23f	0.17939089
146	0xbd9e526c	-0.077305645
147	0xbd0c8dce	-0.034314923
148	0x3dc18b6d	0.094504215
149	0xbde1a10a	-0.11017044
150	0xbe0a2d1e	-0.13493773
151	0x3d9fce51	0.078030236
152	0xbe2422e8	-0.1602894
153	0xbe378b5f	-0.1792426
154	0x3e771f3b	0.24133007
155	0xbe1f9d6f	-0.155874
156	0xbe24a0be	-0.16076943
157	0xbdc25897	-0.094895534
158	0xbd0a3e76	-0.033750974
159	0x3cefdb0a	0.02927925
160	0xbea2e315	-0.31813875
161	0xbe9ef5e0	-0.31046963
162	0xbaf20ba8	-0.0018466609
163	0x3eb5c162	0.35499102
164	0xbe8b78ef	-0.27240703
165	0xbea2d025	-0.31799427
166	0xbdb66b60	-0.08907199
167	0x3e66222b	0.22473972
168	0x3eacede2	0.3377524
169	0xbedaf60f	-0.42765853
170	0x3cc01988	0.023449674
171	0xbcbca112	-0.023026023
172	0xbb8148a2	-0.003945426
173	0x3b8df9ce	0.0043327576
174	0x3e5d2c3b	0.21598904
175	0x3e1bee57	0.15227638
176	0x3e30ef4f	0.17278789
177	0xbe0b58c8	-0.13608086
178	0x3ec77188	0.38953805
179	0x3e43830c	0.19092959
180	0x3e8413b8	0.25796294
181	0xbe982d85	-0.2972223
182	0x3e66f953	0.22556047
183	0xbeb2e0df	-0.34937188
184	0xbd58a551	-0.052892033
185	0xbdb72a03	-0.0894356
186	0x3bf1e6c7	0.007382247
187	0xbe990608	-0.29887414
188	0xbd9c57ca	-0.07633932
189	0x3d8fd526	0.07023077
190	0xbe47d777	-0.19515787
191	0x3def9b86	0.116995856
192	0x3b8298b2	0.003985488
193	0x3bc5ef2d	0.006040475
194	0x3e21f1d6	0.1581491
195	0x3deb976b	0.1150349
196	0xbdcc553c	-0.09977195
197	0xbe0f7df2	-0.14012888
198	0xbe85dde3	-0.2614585
199	0x3db09602	0.08622362
200	0xbf0b05c6	-0.54305685
201	0xbe6a7567	-0.22896348
202	0x3e834916	0.25641698
203	0x3e174e0e	0.14775869
204	0xbdbc1c96	-0.0918514
205	0xbef11a90	-0.47090578
206	0x3e227ac7	0.15867148
207	0x3eb1b5c9	0.34709004
208	0x3e00a250	0.12561917
209	0xbe81c376	-0.25344437
210	0xbcefaf9b	-0.02925854
211	0x3e8ab0f3	0.27088127
212	0x3ecc6f4d	0.39928666
213	0x3ed22763	0.41045675
214	0x3e83aa5b	0.25715908
215	0x3e8ce016	0.27514714
216	0x3cca4be8	0.024694398
217	0x3d807f03	0.062742256
218	0x3ec2347f	0.37930676
219	0x3e8e132c	0.27749002
220	0x3ee7b639	0.45256212
221	0xbdc06b8d	-0.09395514
222	0x3dc208c8	0.09474331
223	0xbe5e302c	-0.21698064
224	0x3e548724	0.20754677
225	0x3ecaa025	0.39575306
226	0xbda8d56b	-0.08243831
227	0xbdacf5bd	-0.08445308
228	0x3d4f804e	0.05065947
229	0x3b133d8d	0.0022467107
230	0xbdc74cb5	-0.097314276
231	0xbe45a99d	-0.19302984
232	0xbd86d4c9	-0.06583554
233	0xbe487980	-0.19577599
234	0xbbc194ef	-0.005907647
235	0xbea8ea1b	-0.32991108
236	0xbe45db87	-0.19322024
237	0xbe0e8058	-0.13916147
238	0xbdd7da4e	-0.10539685
239	0x3c99e550	0.018786103
240	0xbee4cf5a	-0.44689447
241	0xbdb2f272	-0.08737649
242	0xbae255d6	-0.0017268013
243	0x3d74bfe3	0.05975331
244	0xbebd9b22	-0.3703242
245	0xbe3ff1b2	-0.18744543
246	0x3e4ef5ab	0.20210902
247	0x3dcf20e5	0.10113696
248	0x3ebf40c9	0.37354115
249	0xbec6c4f3	-0.38822135
250	0xbe48622b	-0.19568698
251	0x3a4af691	0.000774243
252	0x3ed080e7	0.40723345
253	0x3ed0942a	0.4073804
254	0x3e337d1f	0.17528199
255	0x3da93dbc	0.08263728

fc1.bias f4 [40]
0	0xbe67f7d8	-0.22653139
1	0x3eabc341	0.33547404
2	0x3db4efb5	0.08834783
3	0x3dd4f6ef	0.10398661
4	0xbc03625f	-0.008019059
5	0x3e9e86fc	0.3096236
6	0x3e69cd85	0.22832306
7	0x3c924ada	0.017857958
8	0x3cfee99b	0.031117251
9	0x3d926109	0.07147414
10	0x3e50c334	0.20386964
11	0xbdc0a7c3	-0.09406998
12	0xbd5a246e	-0.0532574
13	0x3e79f417	0.24409519
14	0x3de80dfe	0.11330794
15	0xbdf8790d	-0.121324636
16	0x3ddf8f23	0.10915973
17	0x3d820be0	0.06349921
18	0x3dd8066a	0.105480984
19	0x3e46d4e1	0.19417144
20	0x3dffaa9f	0.12483715
21	0x3e513823	0.2043157
22	0x3e240f90	0.16021562
23	0xbcea2c4c	-0.028585576
24	0x3e858463	0.26077566
25	0x3d02350a	0.031788863
26	0x3d82a17e	0.063784584
27	0x3e8818ca	0.26581413
28	0xbe1067e3	-0.1410213
29	0xbdc5a1ee	-0.09650026
30	0x3cd652b5	0.026162485
31	0x3e068f45	0.1314059
32	0x3e630ff2	0.22174051
33	0x3e0aac9b	0.13542406
34	0x3e6f52d6	0.23371443
35	0xbd657cdc	-0.05602728
36	0x3e5fadbe	0.21843621
37	0x3e1abe16	0.15111575
38	0x3e2bdd74	0.16783696
39	0xbd9eebd7	-0.07759827

fc2.weight f4 [4, 40]
0	0xbe6b32d7	-0.22968613
1	0x3dafd459	0.08585424
2	0x3ec57cb5	0.38571706
3	0xbf0ffdd8	-0.5624671
4	0x3ebf03e7	0.37307665
5	0xbee37fbf	-0.444334
6	0x3e69f519	0.22847404
7	0xbea166e6	-0.31523818
8	0xbedbf9bf	-0.4296398
9	0xbdbd6be2	-0.09249093
10	0xbf03ab28	-0.5143304
11	0x3dd5b8c4	0.10435632
12	0xbec11e92	-0.37718636
13	0xbdf19421	-0.117958315
14	0x3ec3e315	0.38259187
15	0x3ead149f	0.33804795
16	0x3e8da12f	0.27662036
17	0x3d265f81	0.040618423
18	0x3e994eeb	0.29943022
19	0x3df1ccac	0.11806616
20	0xbef1c1e4	-0.4721824
21	0xbd3f4c73	-0.046703767
22	0x3eb79438	0.3585527
23	0xbeaaf25e	-0.33388036
24	0x3d359074	0.044327214
25	0x3eb99972	0.36249882
26	0xbefa2605	-0.48857132
27	0x3c53fff0	0.012939438
28	0x3e4d51b2	0.20050696
29	0x3e9f7d64	0.31150353
30	0x3ea984d1	0.33109143
31	0xbf0f8164	-0.5605681
32	0x3ec5ce73	0.3863407
33	0x3dfc3678	0.123150766
34	0xbe1d2a16	-0.15348086
35	0x3e03bf44	0.12865931
36	0x3eb5fb8c	0.35543478
37	0xbeda8f26	-0.4268734
38	0xbe8ec551	-0.27884915
39	0x3e61d5b6	0.2205418
40	0xbe9db47e	-0.30801767
41	0x3e7aa66c	0.24477547
42	0xbe765ebb	-0.24059574
43	0xbcf62310	-0.030046016
44	0xbe51ef97	-0.20501553
45	0x3d5a1b4f	0.0532487
46	0xbe44835b	-0.19190733
47	0x3d550a58	0.052011818
48	0xbe9ef126	-0.31043357
49	0x3e3bdff1	0.18347146
50	0xbea38f10	-0.31945086
51	0x3e2b88bb	0.16751377
52	0xbe6d0476	-0.23146233
53	0x3e0aeebd	0.13567634
54	0xbeb0fff6	-0.34570283
55	0xbe7f708e	-0.2494528
56	0xbe2ed73f	-0.17074297
57	0x3dce8d48	0.10085541
58	0xbd89d03a	-0.06729169
59	0x3e388b8d	0.18021984
60	0xbecaa2ef	-0.39577433
61	0x3d488082	0.04895068
62	0xbe561b86	-0.20908937
63	0x3be6b458	0.0070405416
64	0x3df79375	0.12088672
65	0xbe2b71cb	-0.16742627
66	0xbe9b1cc8	-0.30295396
67	0x3e3b7570	0.18306518
68	0xbec65a80	-0.3874092
69	0xbe90a749	-0.28252628
70	0xbe8d4ef9	-0.27599314
71	0xbd0a4829	-0.033760224
72	0xbde49d76	-0.11162846
73	0x3d921458	0.071327865
74	0x3dfa91ef	0.12234866
75	0x3e3c5f81	0.18395807
76	0xbe324ffc	-0.17413324
77	0xbeaa9f54	-0.33324683
78	0xbee34eb0	-0.4439597
79	0xbe747101	-0.23871233
80	0xbdfd9af7	-0.12383073
81	0x3e3fa0b3	0.18713646
82	0xbb26ff52	-0.0025481773
83	0x3d399934	0.04531212
84	0x3cd5dbe2	0.026105825
85	0x3e18876f	0.14895414
86	0xbc38cbe2	-0.011279078
87	0x3dadadc7	0.08480411
88	0x3e00e4c1	0.12587263
89	0x3dc0b599	0.09409637
90	0xba48488b	-0.0007640204
91	0xbe835a6f	-0.25654933
92	0x3e345d5d	0.1761374
93	0x3d7275c8	0.059194356
94	0xbe4bbf4a	-0.1989719
95	0xbdd2efd6	-0.10299651
96	0x3c13c319	0.009018683
97	0xbe54f156	-0.20795187
98	0xbe412ce2	-0.18864778
99	0xbdd70e3c	-0.10500762
100	0xbcebfffe	-0.02880859
101	0xbd92d74d	-0.071699716
102	0xbdc41507	-0.09574323
103	0x3d173e35	0.03692456
104	0x3d705997	0.05867919
105	0xbe1292d7	-0.14313827
106	0x3ddc5eb5	0.107602514
107	0x3df87d78	0.12133306
108	0xbe4224d4	-0.18959361
109	0xbae33dbb	-0.0017337123
110	0xbd8913a0	-0.06693196
111	0x3da38374	0.07984057
112	0xbd387e9d	-0.045042623
113	0xbea231b1	-0.31678537
114	0x3d29a329	0.041415367
115	0xbe8b0b01	-0.27156833
116	0x3c8bca9e	0.017064389
117	0x3d7c0534	0.0615284
118	0xbd278ed8	-0.04090771
119	0xbe46ff58	-0.19433343
120	0x3e2c43f7	0.16822802
121	0xbecca137	-0.39966747
122	0xbdc19f31	-0.094541915
123	0x3d96534e	0.07340108
124	0xbd7e74c2	-0.062123068
125	0x3e2b7f2c	0.16747731
126	0xbde798ac	-0.11308417
127	0xbe6e1081	-0.23248483
128	0x3e1a9feb	0.15100066
129	0xbec7c2a3	-0.39015684
130	0x3c6bcf1d	0.014392641
131	0xbebdb575	-0.37052503
132	0x3e50ff87	0.20409976
133	0xbee614aa	-0.4493764
134	0xbe6705f7	-0.22560869
135	0xbe8124ee	-0.25223488
136	0xbe45632a	-0.1927611
137	0xbedced18	-0.43149638
138	0xbd7c9cb3	-0.061672878
139	0xbecbbcdb	-0.39792523
140	0xbc2fb2d5	-0.010723789
141	0xbf0fafc1	-0.56127554
142	0x3c981152	0.018562946
143	0x3d6f9c62	0.058498748
144	0xbeeeeebd	-0.46666518
145	0x3c023597	0.007947347
146	0x3e09a1ef	0.13440679
147	0xbed19137	-0.40931103
148	0xbe7dca6b	-0.24784248
149	0xbe030490	-0.12794709
150	0xbe03d5e8	-0.12874568
151	0x3dd8086b	0.105484806
152	0x3d093b02	0.03350354
153	0xbdee9372	-0.11649217
154	0xbed9716f	-0.42469355
155	0xbe5e817c	-0.21729082
156	0xbe4f3021	-0.20233203
157	0x3da9bf31	0.0828842
158	0x3cc0329b	0.02346163
159	0xbe8c3df8	-0.27391028

fc2.bias f4 [4]
0	0xbe5696bf	-0.20955943
1	0x3de77e5d	0.11303399
2	0x3e74dfaa	0.23913446
3	0xbe5fc824	-0.21853691
