task1/T1_to_T2_Deterministic_source_only_encoder.pt (torch, 42327 bytes, 6 tensors)

fc1.weight f4 [48, 140]
0.019387007 -0.008153006 -0.00914583 -0.054750945 -0.0057054525 -0.051023334 -0.047436636 -0.11869236
-0.01846736 -0.09613503 -0.037458807 -0.03288327 -0.05831814 -0.009876269 -0.028738255 -0.06266986
0.012056086 -0.16130078 -0.04436693 -0.038519338 -0.08889325 -0.13242973 -0.011205651 -0.06886763
-0.012593956 -0.10995649 -0.00842806 -0.18598068 -0.0534612 -0.1832321 -0.081006594 -0.20232841
0.02071026 -0.08751066 0.009350275 -0.1683431 0.04900938 -0.14928192 -0.0024873724 -0.15914644
-0.0038810319 -0.16139507 0.062192164 -0.06203658 0.044422433 -0.10883207 0.06379584 -0.14046732
0.035002697 -0.122612394 0.06929879 -0.05326498 0.08378904 -0.045183618 0.000328358 -0.085292265
0.0016937773 -0.020720156 0.027393552 0.023046717 0.061865486 -0.11796171 0.04476671 0.0797685
0.09580403 -0.020818092 0.050765656 -0.1650417 -0.002187458 -0.052033048 -0.04472741 0.010797106
-0.02250166 -0.06370088 0.035221934 -0.099262744 0.051773075 -0.18862195 0.026874797 -0.14211664
0.1158902 -0.102619305 -0.036053583 -0.07141336 0.09444785 -0.13426109 0.05437523 -0.06192971
0.0053866436 -0.11827091 0.057645343 -0.09839561 0.109752245 -0.027653666 0.09820286 -0.027144842
-0.034194976 -0.1412001 -0.052651104 -0.11869295 -0.08410148 -0.10358622 -0.17403421 -0.03710385
-0.10776693 0.0261207 -0.14226043 0.1448607 -0.3070923 0.10280351 -0.064694196 -0.029353833
-0.0056982003 -0.0019032384 -0.045021396 0.04938234 -0.055595744 0.14639495 -0.005314231 0.079672374
0.061888576 0.054372165 -0.0734976 0.07864053 0.05573368 -0.045898855 -0.030135814 0.07176979
-0.082157865 -0.05668695 -0.07111163 0.035107348 -0.04005661 -0.07200021 0.06040311 0.065378726
0.031656288 -0.049549036 0.08229418 0.01703974 -0.08043968 -0.012723051 0.055201605 0.03892181
-0.0009032339 0.059579924 -0.07711013 0.058640614 0.08389446 -0.051390853 0.01812815 -0.013628654
-0.071347065 -0.00074093044 -0.028323058 -0.07218839 -0.061583765 0.001844123 0.07835139 0.030259244
-0.056231223 0.058294326 0.0069373623 -0.08258371 0.004009016 0.054253966 -0.049695507 -0.003888689
-0.04210701 -0.06664102 -0.04802279 0.008486949 0.05463195 -0.015704855 -0.076005794 -0.0007234588
-0.07350528 0.0049645975 0.06266163 0.03606987 -0.0516927 -0.018652327 0.03384217 0.02292765
-0.0793875 -0.04927385 -0.029889684 0.031058587 0.07551478 0.037661225 0.03192652 -0.07171644
0.05468723 0.030268185 -0.027176932 -0.040551353 0.024027027 -0.045811273 0.0343083 0.06463511
-0.055765234 -0.052719768 -0.035111386 -0.072360076 -0.009692684 0.052639946 0.031631894 -0.027235437
-0.010492131 -0.036752608 -0.06822429 -0.02306753 0.005832702 -0.042859845 -0.06331692 0.024687305
0.012449235 -0.02628925 0.023141272 0.07811004 0.004615009 -0.05792533 0.07815345 0.06081976
-0.008066528 -0.038175948 -0.03566102 0.073696226 0.044149876 -0.04346186 0.0033731163 0.017335266
0.022341564 -0.0047814846 -0.044233162 -0.0025996491 -0.023346014 -0.028372385 -0.04189617 -0.04098028
-0.03982515 0.0333028 -0.071452826 -0.08038446 0.07228726 0.03034088 0.046745285 0.03686692
-0.032236658 -0.05308011 -0.057610817 -0.0053334385 0.020961612 -0.0791677 -0.064892635 0.047572732
00000000: 80d1 9e3c 3094 05bc 64d8 15bc 8742 60bd
00000010: cef4 babb d8fd 50bd eb4c 42bd fb14 f3bd
00000020: dc48 97bc 71e2 c4bd 686e 19bd 9cb0 06bd
00000030: 01df 6ebd 13d0 21bc 7d6c ebbc 0e59 80bd
00000040: e486 453c 082c 25be 19ba 35bd 74c6 1dbd
00000050: aa0d b6bd a99b 07be e897 37bc 790a 8dbd
00000060: e156 4ebc de30 e1bd d915 0abc b871 3ebe
00000070: 22fa 5abd 32a1 3bbe c9e6 a5bd 2e2f 4fbe
00000080: 90a8 a93c ca38 b3bd e531 193c 2262 2cbe
00000090: 0fbe 483d 5cdd 18be 2f03 23bb 49f7 22be
000000a0: e958 7ebb c044 25be 36bd 7e3d 121a 7ebd
000000b0: 4cf4 353d 59e3 debd 65a7 823d aad6 0fbe
000000c0: fd5e 0f3d 351c fbbd 86ec 8d3d 612c 5abd
000000d0: 9799 ab3d 7512 39bd 7727 ac39 b6ad aebd
000000e0: bc01 de3a 51bd a9bc 7168 e03c 78cc bc3c
000000f0: aa66 7d3d e995 f1bd 4c5d 373d ab5d a33d
00000100: e734 c43d b48a aabc a6ef 4f3d b100 29be
00000110: 755b 0fbb 9b20 55bd 1734 37bd 58e6 303c
00000120: 6755 b8bc 9b75 82bd e044 103d 444a cbbd
00000130: 0110 543d 1d26 41be 8928 dc3c 0687 11be
00000140: d757 ed3d 122a d2bd ecac 13bd 2b41 92bd
00000150: e06d c13d bd7b 09be 90b8 5e3d 02aa 7dbd
00000160: 7182 b03b 0538 f2bd 861d 6c3d a383 c9bd
00000170: c9c5 e03d f189 e2bc 951e c93d dc5e debc
00000180: 0810 0cbd c296 10be afa8 57bd 4a15 f3bd
00000190: 663d acbd 0325 d4bd 0636 32be 35fa 17bd
000001a0: e8b4 dcbd 14fb d53c b8ac 11be 5d56 143e
000001b0: 343b 9dbe a68a d23d 647e 84bd 7377 f0bc
000001c0: f8b7 babb 1576 f9ba 5b68 38bd 2345 4a3d
000001d0: 5db8 63bd 8fe8 153e 0023 aebb 452b a33d
000001e0: e07e 7d3d 59b5 5e3d e985 96bd 490e a13d
000001f0: 0049 643d 7000 3cbd 62df f6bc 0afc 923d
00000200: 6242 a8bd 9330 68bd f9a2 91bd b9cc 0f3d
00000210: 6612 24bd d974 93bd 4069 773d 48e5 853d
00000220: 06aa 013d eef3 4abd da89 a83d ed96 8b3c
00000230: 8fbd a4bd 5874 50bc 141b 623d 7a6c 1f3d
00000240: 00c7 6cba 140a 743d eaeb 9dbd 2431 703d
00000250: dcd0 ab3d 377f 52bd 7c81 943c b84a 5fbc
00000260: 691e 92bd 003b 42ba c205 e8bc 82d7 93bd
00000270: 423f 7cbd 80b6 f13a b276 a03d 3ce2 f73c
00000280: b652 66bd 08c6 6e3d d052 e33b a621 a9bd
00000290: 105e 833b 6839 5e3d 848d 4bbd 60d9 7ebb
000002a0: 6678 2cbd 167b 88bd 8cb3 44bd d80c 0b3c
000002b0: c0c5 5f3d 78a7 80bc eda8 9bbd 80a6 3dba
000002c0: f089 96bd 10ae a23b be54 803d 00be 133d
000002d0: b9bb 53bd c4cc 98bc 169e 0a3d c4d2 bb3c
000002e0: ea95 a2bd 60d3 49bd 36db f4bc 946e fe3c
000002f0: 7ea7 9a3d a842 1a3d 62c5 023d 12e0 92bd
00000300: b8ff 5f3d fcf4 f73c 28a2 debc 2d19 26bd
00000310: 54d4 c43c 9aa4 3bbd dc86 0c3d 6a5f 843d
00000320: 166a 64bd aff0 57bd f5d0 0fbd 8531 94bd
00000330: 10ce 1ebc fc9c 573d 7290 013d da1c dfbc
00000340: 30e7 2bbc e789 16bd 2db9 8bbd 1ef8 bcbc
00000350: 4020 bf3b ce8d 2fbd 4dac 81bd 083d ca3c
00000360: e0f7 4b3c 8e5c d7bc c492 bd3c 28f8 9f3d
00000370: 8039 973b 1c43 6dbd ea0e a03d 241e 793d
00000380: 7829 04bc 625e 1cbd 4a11 12bd 0cee 963d
00000390: 80d6 343d 1005 32bd 800f 5d3b b002 8e3c
000003a0: a805 b73c 00ae 9cbb d52d 35bd e05e 2abb
000003b0: 2440 bfbc 346d e8bc 519b 2bbd f0da 27bd
000003c0: b21f 23bd 8468 083d dc55 92bd 9ca0 a4bd
000003d0: 580b 943d 708d f83c fc77 3f3d c401 173d
000003e0: 960a 04bd 886a 59bd 52f9 6bbd 20c4 aebb
000003f0: b0b7 ab3c ad22 a2bd 6ee6 84bd a0db 423d

fc1.bias f4 [48]
-0.018421136 0.035942674 0.048643623 -0.07187447 0.039612062 -0.008973397 0.08945997 0.030611902
0.06599648 -0.07784692 0.014251456 0.038646184 0.02187848 0.052975923 0.00016014278 -0.04442384
-0.010681362 0.071804635 0.030397058 0.0061297044 -0.070493326 -0.0547513 -0.0349943 -0.016234055
0.0029569159 -0.05671513 0.016804054 -0.017583832 -0.047329187 -0.031230653 0.041033268 0.05313043
0.011629067 -0.01957141 -0.0827201 -0.05665519 -0.021408461 0.039533466 0.074301235 0.068875216
0.048870977 -0.08319644 -0.051842112 0.009989873 0.07616669 0.053222064 -0.0367661 0.051169768
00000000: ece7 96bc a038 133d 893e 473d ec32 93bd
00000010: 4240 223d 2805 13bc ca36 b73d d0c5 fa3c
00000020: 2a29 873d 356e 9fbd f07e 693c 764b 1e3d
00000030: 803a b33c 48fd 583d 00ec 2739 c6f5 35bd
00000040: e100 2fbc 4f0e 933d 4003 f93c b0db c83b
00000050: ce5e 90bd e642 60bd 2f56 0fbd 48fd 84bc
00000060: d1c8 413b 204e 68bd a8a8 893c f80b 90bc
00000070: 40dc 41bd 6dd7 ffbc 8012 283d 4b9f 593d
00000080: d887 3e3c 3954 a0bc 2869 a9bd 460f 68bd
00000090: cc60 afbc d8ed 213d 3f2b 983d 730e 8d3d
000000a0: ef2c 483d e562 aabd 6558 54bd 90ac 233c
000000b0: 48fd 9b3d 61ff 593d 0d98 16bd 6497 513d

fc2.weight f4 [48, 48]
0.10418528 -0.101274624 0.1479163 0.0061110854 -0.1292533 -0.050718017 0.007776789 0.05902393
0.018449133 -0.013567405 0.27876228 -0.11790792 0.085670814 0.26522678 0.12917611 0.070435956
-0.17317806 0.085277185 -0.012356281 -0.1301477 -0.03137524 0.13166657 0.14933626 -0.107708246
0.22801965 -0.10153112 0.096298754 -0.03986123 -0.09102924 0.10489941 -0.023751304 -0.060469296
0.044213235 -0.012811443 0.12336066 -0.10440121 0.118858695 -0.08201193 0.0725279 0.124455124
0.23603272 0.060891002 -0.12584418 -0.09484727 -0.13566954 0.16238178 -0.00069088466 0.10061939
0.47102833 -0.056232803 -0.073913604 0.03433898 0.009451432 0.077608526 0.34135777 0.038784623
-0.088308826 0.044833094 0.27168787 0.11392355 0.12106758 -0.044072486 0.043660358 0.1944125
-0.3510478 -0.39922056 0.10193953 -0.018400162 -0.41896334 0.44033274 -0.043390017 -0.038054213
0.4353324 0.04651487 -0.10040692 -0.14329815 0.04188864 0.14104618 0.012637243 0.041539486
-0.12001839 -0.25117105 0.11725482 -0.11815119 -0.0675228 0.041908905 -0.05831516 -0.04673183
-0.066386856 0.09721804 -0.38293004 -0.062404387 0.09156665 -0.056205116 -0.14566709 -0.14206201
0.3729001 -0.010592684 0.2473071 0.067263484 -0.06927821 0.011006549 0.30161363 0.057304576
0.25533736 0.013842177 0.35448518 -0.12968919 0.11703938 0.15143047 -0.098625585 0.12953934
-0.16988286 -0.006499966 0.12968925 0.04819815 -0.031942252 0.30037153 0.15397799 0.01635851
0.14837867 -0.008166045 -0.08542263 0.11389427 -0.071334735 0.2083151 -0.07486714 0.17659004
0.0671498 -0.08084549 0.087426454 0.04992763 0.09380229 0.020509288 0.24903257 -0.11404448
0.19276083 0.041132987 -0.052415177 0.11377582 0.11748046 0.0796987 -0.06312857 -0.10904807
0.26034027 0.017862856 -0.067610905 0.08344065 -0.01233518 0.04075533 0.19995372 0.12869143
0.052781064 0.002019798 0.46384853 -0.11539291 0.13014472 0.07209014 -0.05740779 0.28581524
-0.33820358 -0.243422 -0.0796874 -0.06810116 -0.21041279 0.3622477 -0.09841631 -0.04973492
0.21139912 0.0011556149 -0.013851095 0.10333046 -0.06331168 0.3973538 0.08858611 -0.070841275
-0.12340413 -0.19662076 -0.004888028 -0.088317886 0.070491195 -0.05901088 0.10476993 -0.03025809
0.033242147 0.013262168 -0.13660239 0.095609546 0.08070959 -0.2388664 -0.09198465 -0.11211072
-0.063429736 -0.015721709 0.2814805 0.06121035 -0.06822771 0.11406708 0.03258424 -0.10551307
0.42077357 -0.04158521 0.033941116 -0.034460362 0.10290447 0.29033434 0.049102068 0.069323316
0.020542175 -0.066588864 -0.011635691 0.11534393 0.11419481 -0.085462116 0.2668561 0.025672153
-0.096024334 -0.002075702 -0.13457178 -0.045856066 -0.07198438 0.04597771 -0.124089114 0.44365638
-0.07129874 -0.0036949331 0.06645101 0.12297831 -0.10164637 0.09899019 0.23144327 0.081826255
0.38995102 0.10978851 0.053682063 -0.008601934 -0.0663957 -0.017186569 -0.09479205 -0.12972881
-0.38248482 0.026145518 0.10867636 0.016277477 0.016246093 -0.07775353 -0.23286034 -0.014096722
0.034412272 -0.06354793 -0.28386298 0.021938981 -0.09554961 0.15042228 0.10583481 -0.2045266
00000000: 185f d53d 1269 cfbd 5f77 173e 803f c83b
00000010: fa5a 04be b2bd 4fbd 6fd4 fe3b 14c3 713d
00000020: a322 973c d249 5ebc eeb9 8e3e b579 f1bd
00000030: 2e74 af3d cecb 873e be46 043e ba40 903d
00000040: 9755 31be cea5 ae3d 0072 4abc 7045 05be
00000050: 5383 00bd 9ad3 063e 9beb 183e 2496 dcbd
00000060: fc7d 693e 8cef cfbd 4838 c53d 8745 23bd
00000070: 8a6d babd 80d5 d63d 1892 c2bc a7ae 77bd
00000080: f018 353d 16e7 51bc 84a4 fc3d 4dd0 d5bd
00000090: 306c f33d dff5 a7bd 8289 943d 54e2 fe3d
000000a0: 90b2 713e d868 793d 4cdd 00be 493f c2bd
000000b0: f5ec 0abe 6947 263e 7c1c 35ba 8a11 ce3d
000000c0: a02a f13e 5e54 66bd 0460 97bd 08a7 0c3d
000000d0: 2eda 1a3c 38f1 9e3d 72c6 ae3e a0dc 1e3d
000000e0: 42db b4bd e8a2 373d ac1a 8b3e c050 e93d
000000f0: 48f2 f73d 5a85 34bd 34d5 323d 1214 473e
00000100: 8abc b3be a366 ccbe acc5 d03d f0bb 96bc
00000110: 5d82 d6be 4b73 e13e bbb9 31bd bcde 1bbd
00000120: e3e3 de3e 6086 3e3d 25a2 cdbd c0bc 12be
00000130: 6c93 2b3d 696e 103e 700c 4f3c 4f25 2a3d
00000140: 34cc f5bd 7e99 80be 4c23 f03d 40f9 f1bd
00000150: 6549 8abd aca8 2b3d e1db 6ebd e069 3fbd
00000160: d5f5 87bd 401a c73d 680f c4be be9b 7fbd
00000170: 4c87 bb3d 5637 66bd c129 15be b478 11be
00000180: c3ec be3e f08c 2dbc 133e 7d3e 70c1 893d
00000190: bce1 8dbd d054 343c 1a6d 9a3e 34b8 6a3d
000001a0: 94bb 823e 4cca 623c 157f b53e 3ecd 04be
000001b0: 58b2 ef3d 9710 1b3e 36fc c9bd f6a5 043e
000001c0: c6f5 2dbe abfd d4bb 42cd 043e 6c6b 453d
000001d0: e1d5 02bd 4cca 993e 68ac 1d3e 4802 863c
000001e0: 94f0 173e e0ca 05bc 0ff2 aebd 6641 e93d
000001f0: f217 92bd 8e50 553e f153 99bd 05d4 343e
00000200: d685 893d 5292 a5bd a40c b33d ea80 4c3d
00000210: 6a1b c03d 1803 a83c 6502 7f3e 2790 e9bd
00000220: 1863 453e 107b 283d 4cb1 56bd 4c03 e93d
00000230: 9899 f03d 1239 a33d 8d49 81bd 9854 dfbd
00000240: 524b 853e 2055 923c 9677 8abd eee2 aa3d
00000250: 7f19 4abc 10ef 263d abc0 4c3e b0c7 033e
00000260: f530 583d 965e 043b 8e7d ed3e 1e53 ecbd
00000270: a844 053e ffa3 933d 6e24 6bbd 6056 923e
00000280: 0529 adbe 9e43 79be 2633 a3bd 9f78 8bbd
00000290: 7376 57be 8878 b93e 7e8e c9bd d8b6 4bbd
000002a0: 0379 583e 0078 973a b4ef 62bc ec9e d33d
000002b0: 8ea9 81bd f571 cb3e a26c b53d 3b15 91bd
000002c0: 4ebb fcbd f456 49be c02b a0bb 02e0 b4bd
000002d0: b05d 903d 64b5 71bd 9e91 d63d d0df f7bc
000002e0: eb28 083d 9049 593c 7fe1 0bbe f0ce c33d
000002f0: 124b a53d 6599 74be 7362 bcbd 4e9a e5bd
00000300: 73e7 81bd d0ca 80bc 361e 903e b4b7 7a3d
00000310: f8ba 8bbd 009c e93d 0d77 053d 3d17 d8bd
00000320: a26f d73e 4155 2abd d705 0b3d 4f26 0dbd
00000330: 94bf d23d b4a6 943e 401f 493d 62f9 8d3d
00000340: 1048 a83c be5f 88bd a0a3 3ebc 7039 ec3d
00000350: f8de e93d c306 afbd 5da1 883e 684e d23c
00000360: 68a8 c4bd 8008 08bb 2fcd 09be 92d3 3bbd
00000370: 8c6c 93bd 2053 3c3d 6f22 febd ee26 e33e
00000380: 1305 92bd b126 72bb 7817 883d 0ddc fb3d
00000390: f92b d0bd 5ebb ca3d 77ff 6c3e 8694 a73d
000003a0: a9a7 c73e ccd8 e03d b9e1 5b3d 20ef 0cbc
000003b0: 78fa 87bd d9ca 8cbc 5622 c2bd a1d7 04be
000003c0: 0dd5 c3be 202f d63c b691 de3d 5858 853c
000003d0: 8716 853c 3e3d 9fbd f172 6ebe f0f5 66bc
000003e0: e2f3 0c3d 6b25 82bd 7d56 91be 61b9 b33c
000003f0: 84af c3bd 4c08 1a3e ecbf d83d 6c6f 51be

fc2.bias f4 [48]
0.07317605 -0.13206908 -0.018165307 -0.16688098 -0.100051105 0.064296395 0.20971449 0.019468341
-0.019926133 0.06342117 -0.06420213 0.021394936 -0.1757849 -0.14284031 0.18156104 -0.06000637
-0.06697064 0.13384522 0.1268611 0.0035607342 -0.045072336 0.007193634 0.084447265 -0.15853642
-0.05084606 -0.011716817 -0.029910067 0.04554508 -0.032788534 -0.16437528 -0.050710022 0.1732785
-0.14274329 0.017807953 0.13928494 -0.051466033 -0.003337082 -0.035046928 0.015335931 0.0735567
0.073355444 0.048409496 -0.09787233 0.23295079 0.03829463 0.028638974 -0.012110224 -0.047520928
00000000: 53dd 953d 1e3d 07be 69cf 94bc d9e2 2abe
00000010: 98e7 ccbd d4ad 833d 65bf 563e 127c 9f3c
00000020: 213c a3bc f5e2 813d 687c 83bd 6f44 af3c
00000030: f500 34be bb44 12be 23eb 393e 3dc9 75bd
00000040: e727 89bd b90e 093e e0e7 013e 355b 693b
00000050: c59d 38bd 93b8 eb3b b0f2 ac3d 5f57 22be
00000060: f543 50bd e4f7 3fbc f505 f5bc 7a8d 3a3d
00000070: 454d 06bd fe51 28be 50b5 4fbd eb6f 313e
00000080: 4c2b 12be fce1 913c b6a0 0e3e 0cce 52bd
00000090: f2b2 5abb 5e8d 0fbd 8f43 7b3c e5a4 963d
000000a0: 613b 963d 0949 463d 4a71 c8bd a78a 6e3e
000000b0: d4da 1c3d 489c ea3c f669 46bc 4ea5 42bd

z_loc.weight f4 [20, 48]
-0.12351684 -0.14149919 -0.34272823 0.07157227 -0.098829694 0.11146527 -0.025572963 0.16558973
0.16547495 -0.06792383 0.040998388 0.2965153 0.14545763 0.18205306 0.16207233 0.06727874
0.041637912 0.07936251 -0.024914859 0.14393131 0.13842477 -0.1912837 0.11385378 -0.14865221
-0.08175199 -0.28046656 -0.1183151 0.08752133 -0.116382815 0.15752217 -0.27361363 0.042822372
-0.0223591 0.18197797 -0.1460588 -0.19864433 0.178361 -0.10608603 0.04452397 -0.15214175
-0.046149712 -0.14351168 0.113887854 0.1047799 -0.16332822 -0.15438616 0.2681638 0.07437873
0.014768721 0.30154362 0.032012217 0.27054685 0.024617095 -0.06097876 -0.2735908 -0.28055435
-0.2797223 -0.07214751 0.28814185 -0.15900391 0.17964862 -0.19260319 0.19310075 0.098998845
-0.25056028 -0.22390151 0.16003856 -0.10303826 -0.298488 0.29568857 -0.051950414 0.17565443
-0.066463396 0.03296542 0.18362756 -0.40057006 -0.077959694 0.2056856 -0.109031625 -0.3686295
0.2248609 -0.29639402 -0.018341955 -0.20233695 -0.10825187 0.25383702 -0.3941153 0.22061138
-0.38420606 -0.35216424 -0.28924903 -0.1102789 0.033709843 0.25993216 0.07944269 -0.14426997
0.054152034 0.26335576 0.118887804 0.14272326 0.01801147 -0.04671471 -0.14195172 -0.28135023
-0.26152456 0.01470791 0.13554256 -0.06079083 0.18502684 -0.32328728 0.4027587 0.102071635
-0.010810711 -0.19992694 0.24324933 -0.100646146 -0.15837261 0.23646194 -0.089198045 -0.084481984
-0.24007264 -0.009476552 0.21021108 -0.28230962 0.08525152 -0.09486455 -0.014952205 -0.013455355
0.11606524 -0.16783218 0.016820133 -0.24327186 0.09422373 0.32285088 -0.14847516 0.28134373
-0.22727236 -0.29677698 -0.15975258 0.076298594 0.1586971 0.10268997 0.13177831 -0.24590765
0.10301153 0.24798585 0.07047503 0.26071444 -0.09406285 -0.19124764 -0.040492482 -0.25225064
-0.189016 0.048629515 0.021320172 -0.17872912 0.21178992 -0.22929844 0.18794286 0.07448571
-0.28241873 -0.28036976 0.28285438 -0.18194202 -0.11162014 0.32052207 -0.015909038 0.110129364
-0.23439597 0.13474137 0.081240416 -0.28654855 -0.004151558 0.11118335 0.029049639 -0.1741283
-0.025252484 -0.11171364 -0.10755844 -0.054600842 -0.08096674 0.30563807 -0.26933834 0.28446123
-0.38699886 -0.10380655 -0.3616225 -0.25998613 0.13524315 0.25092617 -0.10573724 -0.10022236
0.020284887 0.25751716 0.043922216 0.07552865 0.03424937 -0.27094844 0.057168208 -0.26181224
-0.33929518 0.018188844 -0.06128276 0.066579424 -0.018765617 -0.33112496 0.39180094 0.048433173
-0.18464 -0.28227735 0.30306336 -0.040009838 -0.11919095 0.12971354 0.0149627 -0.13609338
-0.24383548 -0.0761437 0.23229042 -0.25838193 0.0043913345 -0.0017168226 0.054520875 -0.11888656
-0.037889324 -0.17623661 0.032087844 -0.3095962 0.038522035 0.05606513 -0.10193175 0.3956381
-0.19578944 -0.085628994 -0.2818373 0.06771451 0.21360028 0.19158626 0.16645114 -0.10130438
-0.15351781 -0.24217586 0.023375612 -0.02867559 0.059063494 0.18935114 0.05582774 0.27030802
0.24200642 0.06434959 -0.1762315 -0.11784323 -0.016177934 0.36245885 -0.40675253 -0.17104764
00000000: 66f6 fcbd 2ae5 10be 137a afbe 7b94 923d
00000010: 3967 cabd e747 e43d 647e d1bc 5b90 293e
00000020: 4472 293e a61b 8bbd eded 273d dad0 973e
00000030: d8f2 143e 1e6c 3a3e 4af6 253e 70c9 893d
00000040: 848c 2a3d d088 a23d 3f1a ccbc bb62 133e
00000050: 39bf 0d3e e0df 43be 2c2c e93d 4938 18be
00000060: 966d a7bd 5099 8fbe 304f f2bd 623e b33d
00000070: 1d5a eebd 7e4d 213e 1617 8cbe 8366 2f3d
00000080: 6e2a b7bc 6f58 3a3e 7090 15be 6b69 4bbe
00000090: 44a4 363e a243 d9bd c45e 363d 0ccb 1bbe
000000a0: 7b07 3dbd baf4 12be 093e e93d d896 d63d
000000b0: 833f 27be 6817 1ebe c44c 893e e053 983d
000000c0: 81f8 713c ed63 9a3e 3e1f 033d 1e85 8a3e
000000d0: caa9 c93c ddc4 79bd 1814 8cbe d2a4 8fbe
000000e0: c337 8fbe 13c2 93bd 5487 933e ecd1 22be
000000f0: cff5 373e c539 45be 34bc 453e e8bf ca3d
00000100: 7049 80be 7046 65be 26e1 233e b905 d3bd
00000110: 6bd3 98be 7e64 973e f5c9 54bd c1de 333e
00000120: f61d 88bd c006 073d dd08 3c3e 8517 cdbe
00000130: 55a9 9fbd 3f9f 523e f94b dfbd 01bd bcbe
00000140: f041 663e f5c0 97be de41 96bc 6b31 4fbe
00000150: 28b3 ddbd edf6 813e 7bc9 c9be f3e7 613e
00000160: a8b6 c4be df4e b4be 7318 94be e7d9 e1bd
00000170: 5513 0a3d d415 853e d9b2 a23d 82bb 13be
00000180: 86ce 5d3d 91d6 863e 737b f33d 0c26 123e
00000190: ca8c 933c ec57 3fbd cb5b 11be 230d 90be
000001a0: 8ce6 85be 72f9 703c abcb 0a3e ceff 78bd
000001b0: ad77 3d3e e985 a5be 6336 ce3e ef0a d13d
000001c0: 691f 31bc a6b9 4cbe 5a16 793e 911f cebd
000001d0: 6e2c 22be 1423 723e 77ad b6bd e404 adbd
000001e0: 9ad5 75be 8a43 1bbc 9341 573e e38a 90be
000001f0: 5998 ae3d 5848 c2bd 18fa 74bc d973 5cbc
00000200: 9db3 ed3d 33dc 2bbe 60ca 893c 421c 79be
00000210: 5ff8 c03d b64c a53e df09 18be 490c 903e
00000220: 16ba 68be 27f3 97be 2e96 23be 7042 9c3d
00000230: 7e81 223e 1e4f d23d e5f0 063e 37cf 7bbe
00000240: b6f7 d23d 01f0 7d3e 3655 903d 5d7c 853e
00000250: 06a4 c0bd 6cd6 43be 72db 25bd ff26 81be
00000260: 698d 41be be2f 473d a4a7 ae3c c404 37be
00000270: 75df 583e 36cd 6abe 1874 403e f78b 983d
00000280: 3099 90be a08c 8fbe 4ad2 903e 024f 3abe
00000290: 1a99 e4bd 781b a43e ac53 82bc 818b e13d
000002a0: 7f05 70be a4f9 093e 6061 a63d 7eb6 92be
000002b0: cb09 88bb 19b4 e33d 82f9 ed3c b04e 32be
000002c0: 4cde cebc 1fca e4bd 9947 dcbd 22a5 5fbd
000002d0: e4d1 a5bd 987c 9c3e b7e6 89be e7a4 913e
000002e0: b724 c6be 8798 d4bd 9626 b9be e71c 85be
000002f0: 2e7d 0a3e 6579 803e c48c d8bd 6141 cdbd
00000300: 7e2c a63c 4ad9 833e c8e7 333d c4ae 9a3d
00000310: 1149 0c3d c1b9 8abe 3629 6a3d 410c 86be
00000320: 19b8 adbe c500 953c a203 7bbd cb5a 883d
00000330: 5aba 99bc 3689 a9be 229a c83e dd61 463d
00000340: 4512 3dbe a886 90be 1f2b 9b3e 5be1 23bd
00000350: 631a f4bd a0d3 043e 1d26 753c 105c 0bbe
00000360: 02b0 79be 3af1 9bbd 8add 6d3e a34a 84be
00000370: 2fe5 8f3b 0207 e1ba 4851 5f3d cc7a f3bd
00000380: d631 1bbd 5f77 34be 8b6e 033d 6583 9ebe
00000390: 48c9 1d3d 8da4 653d 98c1 d0bd 1491 ca3e
000003a0: 077d 48be 415e afbd fb4c 90be e8ad 8a3d
000003b0: 08ba 5a3e 302f 443e 2b72 2a3e ac78 cfbd
000003c0: c633 1dbe f3fc 77be 367e bf3c 12e9 eabc
000003d0: 90ec 713d 44e5 413e a1ab 643d d065 8a3e
000003e0: 88d0 773e b8c9 833d 0876 34be cb57 f1bd
000003f0: 9687 84bc 3594 b93e de41 d0be 1d27 2fbe

z_loc.bias f4 [20]
-0.078675374 -0.10512896 0.071217544 0.06984207 0.062607124 -0.10620866 0.045444123 -0.17195748
-0.041170336 -0.10368625 0.0755729 0.08611735 0.088118896 -0.011024778 -0.05808362 -0.12447548
0.16004916 0.10375785 0.21180546 -0.04487796
00000000: 8e20 a1bd da4d d7bd 81da 913d 5c09 8f3d
00000010: 2a38 803d ed83 d9bd 9e23 3a3d 9f15 30be
00000020: 3aa2 28bd 7559 d4bd f7c5 9a3d 4b5e b03d
00000030: ae77 b43d 45a1 34bc 17e9 6dbd 00ed febd
00000040: ede3 233e ff7e d43d 88e3 583e f4d1 37bd
