task1/T1_to_T2_Gaussian_source_only_encoder.pt (torch, 46735 bytes, 8 tensors)

fc1.weight f4 [48, 140]
00000000: 0cdf 7abd d87f b93c e427 b03c 8c9d 333d
00000010: e8f9 78bc 08ab a33d 006d 063d 840b dbbc
00000020: dd53 57bd 30a3 3c3c d5f3 96bd 9980 3bbd
00000030: f99b 9cbd ef7a 9fbd d8e3 2c3d 95a9 a3bd
00000040: f318 25bd 8855 443c f8a0 773d 6029 023d
00000050: 9865 65bc 92ae 76bd 84f1 92bc a0b4 673b
00000060: ac5a 3c3d 8432 923c 0dd2 4dbd 8428 a83d
00000070: b022 e1bb b281 0abd 5abd 65bd 3eba b9bc
00000080: 9c18 b8bc 641a 043d 6048 2a3c 605d 2fbb
00000090: 1387 8abd 5660 f8bc 3f1d 17bd e80a d23c
000000a0: 8098 c4bb 8da9 31bd b037 b33c 20d8 183d
000000b0: 54d0 3c3d 50e9 863b 2088 97bd 00a9 2c3d
000000c0: dfc1 9cbd b4b7 abbd c057 1abb 3c3e d9bc
000000d0: 7d33 6cbd 2829 acbd c05d 8d3b e0b3 5f3b
000000e0: f0e1 913b 78ff d73c 141b 1c3d 53c7 83bd
000000f0: fcbc f1bc d805 35bc 2034 cf3c 80b3 a93c
00000100: 4633 83bd 9cc3 8a3d 499c 25bd beb9 9d3d
00000110: 5ce2 84bd c8e8 0f3c fc6d 353d e49c 663d
00000120: 3c84 7d3d c7c8 83bd d48a cf3c 8814 06bc
00000130: ac89 78bd ca54 49bd 3455 5d3d 2351 22bd
00000140: acba 9f3d 7cb3 9fbc e6a0 9a3d 38d2 0abd
00000150: 4249 cbbc 36f1 c3bc 6699 cdbc 188b a63d
00000160: 440a a6bc c2a4 8b3d a092 c13b 24a9 ac3d
00000170: 80a5 a0bd e490 49bd 6869 66bd d08a fbbb
00000180: 4e2e babc 6e6a a6bd 7c31 6d3d c443 e3bc
00000190: f1df 65bd 4900 96bd a977 33bd cb2c 51bd
000001a0: 74c1 6a3d c205 98bd 20dd 113b a8b6 7d3c
000001b0: efb4 2cbd ea60 12bd ec89 5c3d 48ae 7f3d
000001c0: d4b5 96bd 4a81 83bd d045 4e3d 02a8 67bd
000001d0: 148b 773d cd20 96bd 0aa3 33bd dc73 923c
000001e0: cb09 8ebd fc87 a73d c1fa 3bbd e327 98bd
000001f0: e0aa 673c d0d4 0bbc aa1a 0d3d 691a 33bd
00000200: e8df 2c3d c4b8 423d 35bc a2bd 57be 9dbd
00000210: 1412 c0bc b8bb febc b80d b43c c0a5 79bb
00000220: 9cde 2cbd e292 90bd e6df 803d f2f3 26bd
00000230: e695 0cbd 296f 8dbd 5573 a8bc 2928 9dbb
00000240: 313c c4bb db04 81bd 7968 28bd 267d bb3c
00000250: ca67 4d3d 13a2 2fbd 315a 1e3d 3cff 82bd
00000260: 3fc3 d5bd 8428 8cbd 0f95 21bd 7584 35be
00000270: 0a04 62bd ac9f aebd 316b 423c b5be 1dbd
00000280: 78f5 ce3c 3525 2bbe 096d ec3c be99 0ebe
00000290: 459f 013b c711 afbd df78 30bc 1679 42bd
000002a0: cc52 62bd d1c2 44be ec13 303d 4b04 15be
000002b0: c2fa 24bd dc04 2fbe ba9a 503d b4c3 abbc
000002c0: 14fb 46bd cba7 0abe 1b40 cf3c ef51 31be
000002d0: 27a7 003c 8ebc 1abc 7a39 003d 54ec 0dbd
000002e0: 870e cc3c c145 b8bd 25d1 ad3d 4cd6 47bd
000002f0: 5253 fd3c 4977 28bd bd6e 01bc b87a ddbc
00000300: ad5c 84bb 7604 89bd d72d 5fbd 859c 75bd
00000310: 46c9 71bd c57a 75bd c89d 1a3d e112 edbd
00000320: 7dc3 063d 474b ddbd 9685 513d 2ebe be38
00000330: 7fc3 a83d b55f 25bc 00ee 913d 68be 47bd
00000340: dda7 723d f9d0 75bd 8f17 a53d 059c 08bd
00000350: b353 dabc 2e47 02be 25a0 8a3d a95f 9abd
00000360: 0148 ab3d d545 b9bd 0b38 b53d 2c06 b7bc
00000370: 4b36 1d3b bcf3 84bd efe4 c03d d8c5 f2bc
00000380: 7208 093c 9401 30bd b8c0 c43d 9ed4 c1bd
00000390: a291 833c b27a 8ebd 9fb8 4d3b 233c c8bc
000003a0: 6adf 2dbd f192 c8bd e001 53bd 9a9d e5bd
000003b0: 452e ac3d a3f6 09be ebc2 87bd b636 21be
000003c0: 46bb 17be 32a2 fbbd 4795 abbd 71eb 16bb
000003d0: f23a 69be ea3b d2bc 0864 79be 15f7 ff3d
000003e0: 5ef0 6dbe 55c7 7f3d 7cbf 2bbe fe58 543c
000003f0: bfb1 10be 8c60 163d d35a 60bd 04cc f43c
-0.06124787 0.022643968 0.021503396 0.04385142 -0.015196301 0.07991606 0.032818794 -0.02673889
-0.052570213 0.011513516 -0.07370726 -0.045776937 -0.07646937 -0.077871196 0.042209476 -0.079913296
-0.040306997 0.011983283 0.060456246 0.03177774 -0.014001273 -0.060225077 -0.01793743 0.0035355464
0.04598491 0.017846353 -0.05024915 0.08210853 -0.00687059 -0.033815093 -0.056088783 -0.022671815
-0.022472672 0.03225173 0.010393232 -0.0026758537 -0.067640446 -0.030319374 -0.036893126 0.025639966
-0.0059996247 -0.043374587 0.02187714 0.037315488 0.046097115 0.0041171685 -0.07399011 0.04215336
-0.076541655 -0.08384648 -0.0023550838 -0.026518933 -0.05766629 -0.084062874 0.0043141544 0.0034134313
0.0044519827 0.026366934 0.03811176 -0.064345025 -0.02950906 -0.011048757 0.02529341 0.020715475
-0.06406264 0.06775591 -0.04043225 0.07701443 -0.06488487 0.008783527 0.044294342 0.056301966
0.061893687 -0.064347796 0.025334753 -0.008183606 -0.06067817 -0.049153127 0.054036334 -0.03962816
0.07799277 -0.019494765 0.0755022 -0.033891886 -0.024815205 -0.02391873 -0.02509756 0.08131999
-0.020268567 0.068185344 0.0059073716 0.084306985 -0.078440666 -0.049210444 -0.056252867 -0.00767646
-0.022727158 -0.081257686 0.05790852 -0.027742274 -0.05612177 -0.07324273 -0.04381529 -0.05106811
0.057313398 -0.07422973 0.0022257045 0.015485443 -0.04216474 -0.035736956 0.05384247 0.062422067
-0.073589 -0.06421144 0.050359547 -0.05655671 0.06043537 -0.07330475 -0.043856658 0.017877512
-0.069354616 0.08180234 -0.045893434 -0.07429483 0.014139861 -0.008534625 0.034449257 -0.04372636
0.04220572 0.047539487 -0.07946054 -0.0770232 -0.02344612 -0.03109537 0.021979198 -0.003809318
-0.042204484 -0.07059266 0.06292705 -0.040759988 -0.03432264 -0.06905968 -0.020562807 -0.004796047
-0.0059886207 -0.06299754 -0.041115258 0.022886824 0.05014781 -0.042879175 0.038660232 -0.06396338
-0.10437631 -0.06843665 -0.039448794 -0.1772631 -0.055179633 -0.08526549 0.011866377 -0.03851195
0.025263533 -0.16713412 0.028860586 -0.13925835 0.001977877 -0.08548313 -0.010771005 -0.047478758
-0.055254743 -0.19214942 0.04298775 -0.14552419 -0.040278204 -0.17091697 0.05092881 -0.020967342
-0.04857929 -0.1354057 0.025299123 -0.17316411 0.007852352 -0.009444369 0.031304814 -0.03464921
0.02490927 -0.089976795 0.08487157 -0.048788354 0.03092352 -0.041129384 -0.007899937 -0.027036056
-0.004039368 -0.06690304 -0.054487076 -0.05996372 -0.05902984 -0.059931535 0.03774813 -0.115758665
0.032901276 -0.10805374 0.051152788 9.09533e-05 0.08240413 -0.010093619 0.07125473 -0.04876557
0.05924212 -0.060013745 0.08061134 -0.033351917 -0.026651239 -0.12722465 0.067688264 -0.07537777
0.08363343 -0.090465225 0.0884858 -0.02234181 0.002398866 -0.06491801 0.094186656 -0.029635355
0.00836383 -0.042970255 0.09607071 -0.09464382 0.016060654 -0.06956996 0.003139056 -0.024442738
-0.042449392 -0.09793652 -0.05151546 -0.11211701 0.08407263 -0.1347299 -0.066289745 -0.15743527
-0.14817533 -0.12286796 -0.08378082 -0.0023028518 -0.22776392 -0.025663335 -0.24354565 0.12498299
-0.23236224 0.062445957 -0.16772264 0.0129606705 -0.14130305 0.036713168 -0.054774117 0.029882438

fc1.bias f4 [48]
00000000: a0f3 cb3c 8ea8 133c b43c a03d d869 2ebc
00000010: 508d 133c 1300 cd3c e2cf 293c fba3 3abd
00000020: 1fc4 303d 86c9 a5bd 2295 743d 519e a33d
00000030: 0400 133d aea2 48bd 1da1 70bd c4b8 4fbd
00000040: cf1b 0fbd 602d 433d e7f3 6e3d b26c 82bd
00000050: 4743 7dbd 2e88 823c 40e5 3cbd 3d2b 4b3d
00000060: ea10 c1bc 8b3d 39bd db2d c13c e4d7 723d
00000070: ba29 e5bc f2ad a43d f7dd d1bc 91e0 4c3d
00000080: 15fd aa3d 6c3f c53c 2350 4fbd 93a3 28bd
00000090: a5e1 c7bb 85b0 9a3d 03e5 233c 2c06 17bd
000000a0: 44a1 a0bd 52ba 9e3c 3663 81bd 488f f5bc
000000b0: f8d9 513d cac7 afbd e6fb c4bd 02ed 973d
0.024896443 0.009012355 0.07824078 -0.010645352 0.0090058595 0.02502445 0.0103645045 -0.04556654
0.043155786 -0.08095078 0.059712537 0.07989181 0.035888687 -0.04898327 -0.0587474 -0.050713316
-0.03493863 0.047650695 0.058338072 -0.06368388 -0.06183174 0.015934076 -0.046117067 0.049601782
-0.023567636 -0.045224708 0.023581436 0.05928792 -0.027973998 0.0804099 -0.025618536 0.05001885
0.08349053 0.024078093 -0.050613534 -0.04117162 -0.006099897 0.075532 0.010003331 -0.03687112
-0.07843259 0.019375954 -0.06317751 -0.029975548 0.05123326 -0.085830286 -0.09618358 0.074182525

fc2.weight f4 [48, 48]
00000000: 1b8b efbd e394 b9bc b4c4 87bc 56ad 00be
00000010: 98ff 20bd 0c9a 7f3d 9628 25be 741c 843e
00000020: 7c4d 6dbe 5746 51be 4699 c0bd 5c14 52bd
00000030: 00ef 743a dbc9 fdb8 2426 c03d 7b88 a2be
00000040: 352e 5bbd 60ce 783d 47e7 fabc ae28 c23d
00000050: 409a 80bc 0123 48be f2a5 0f3e 5c98 923d
00000060: 18ad 803c d960 d5bd 2fa4 13be 78d9 253d
00000070: c02e e0bb eaaf a3bb 8715 283d 044c 083d
00000080: e857 5a3d 634f 6a3a aa2e 103e 5577 1bbd
00000090: 49c2 28bd 04e2 fb3d cea4 e3be b82b 043e
000000a0: a1fa f8bd d82a 81bd 09fd 83be 6c36 b53d
000000b0: 7d72 0ebd 90e4 dabb 4937 babd ccef 043e
000000c0: 9943 dcbd c11b b23d 01ce c038 61a7 8cbd
000000d0: 7904 88bd fd3b 93bd 4c95 70be 4984 15be
000000e0: a7f1 b73c f6ac 8a3e 102e 88bd 36d5 1abe
000000f0: e994 96bd 3506 f7bc 87cb dc3b 53c6 e73d
00000100: 56c5 113e a30a 01be afb2 d73d a2b7 c0bd
00000110: c063 efbc 8855 0bbc 1e4e e8bd 211a 38bd
00000120: 0c41 723d b439 6dbd 401f 7cbe 5dcb 81bd
00000130: aca0 6b3d 388c 75be 2be1 67be 6efd ab3c
00000140: aedb 40bd 118b e33d 3542 08be caba eabd
00000150: 5a5e d3bc 5839 a3bd a7b0 843e 89f5 bbbd
00000160: 6871 f63d 1da7 6bbe 786a 333e 61a8 783c
00000170: 4bcb a9bd 2dcc 2c3e 6936 3e3c 9d89 edbd
00000180: 1c4c fc3d e558 9fbe 49c1 9abd e88f 943c
00000190: 209a 40bd a3d1 693e 4b2f c5be ca1d aa3e
000001a0: becd a53c c0f6 7cbe 4206 fe3c c196 ddbd
000001b0: 48ca 99bc b2e4 91be 7e0a a1bd 82f3 f5bc
000001c0: f57d 1d3b 0c50 fe3d 4284 97bc 98b6 e83d
000001d0: 0487 293d ff43 8fbe 4334 d9bd 3569 853d
000001e0: 0c71 e5bd 527f 0fbe 4e7c 90be 406a b5bb
000001f0: e0e1 41bc 4a6f 48be 0ea5 9dbe daf0 5bbd
00000200: a1a9 1cbe 538f 3e3d 34c9 a7bc 3815 af3b
00000210: ed6d 62be f278 afbe c8b6 85be 218e e23d
00000220: 2489 9bbd 3902 3abe 798e d53d c910 c7bc
00000230: eb53 36be ec7b cbbd 275f ea3c 69c6 6d3e
00000240: 7cdb 633d 0f48 193d c5dc 73bd d2f7 d63d
00000250: 4de2 94bd b43f 99bd 9172 75be cf8b 9a3d
00000260: a5c5 1f3e f3a6 a13e c9fe eabd 9746 46be
00000270: 7d9e 84bd 56e2 94bd 2f7a 043e 1a78 b13e
00000280: 409f c43d 8c07 003e b3b9 553d eecd cebd
00000290: 6c28 cc3d 5e1d cd3c 54a2 f83d ebf5 003b
000002a0: a080 23bc 8db0 52bd f7f5 0abe e6e0 f4bd
000002b0: 70ac cbbc a511 6fbe 36e7 2dbc b743 7c3e
000002c0: dc84 e0bd 8d16 8cbd 342c a93d 98ac 453d
000002d0: 13ad 5abe 0422 b43c fa10 c13e ecc2 7bbd
000002e0: 2c3f e73d 89f1 08be 08e8 813e a208 d13c
000002f0: 9a09 4bbe d02c 7e3e 4813 5a3c 9d3d 34bc
00000300: f82c d0bc 1cfa 2cbe 2149 3e3d 7cd4 813d
00000310: 56c5 fabd 8076 6d3e 4ddb f0bd a1d9 e63e
00000320: b5fc 103d 8d87 0cbe a7c2 723d fa7d 23be
00000330: b2a5 2abd 1162 73be 0dc0 f53d 02c2 61be
00000340: 2cb5 6c3d d053 703c 0d36 033d accb e9bd
00000350: c050 0c3e e6af a9be 31c3 70bd 282c 493e
00000360: c406 403d cbe3 bcbe 1fe4 c2be 76f1 50bd
00000370: 0014 56bd 87b4 b7be 68f4 5abe 736c 95bd
00000380: 3978 a5be ab6c fd3c e65c f0bd daf8 f13d
00000390: e138 f0bd 7149 babe ebf6 1fbe b22a 113e
000003a0: 42e3 013e c413 13be 6c9f 94bd 4b7e 0b3e
000003b0: b02f 2cbe e476 983c 452d cd3c a497 233e
000003c0: 8611 9e3d e7d5 093e 5dc7 003e acd8 a8bd
000003d0: d4c9 fdbd c4ba 823d 34a3 123e f12a 943c
000003e0: d802 c5bd 2883 48bd 843f 64bd dac8 0c3e
000003f0: 5c3a df3d f589 7c3e 80cc 8fbd b49c 20bd
-0.11696454 -0.022654003 -0.016573288 -0.12566122 -0.039306253 0.06240277 -0.16128764 0.25802958
-0.23174089 -0.20436989 -0.094042346 -0.051288947 0.0009343475 -0.000121015786 0.09382275 -0.3174475
-0.053510863 0.06074369 -0.03062786 0.09480415 -0.015698552 -0.19544603 0.14028147 0.071579665
0.015707538 -0.10418863 -0.144181 0.040490597 -0.0068415105 -0.004995336 0.041036155 0.03327562
0.05330649 0.0008938221 0.14080301 -0.0379556 -0.04120091 0.122989684 -0.44461673 0.12907302
-0.12157179 -0.06307 -0.25778988 0.08848271 -0.034777153 -0.006680079 -0.09092576 0.129821
-0.10755081 0.086967 9.193645e-05 -0.068678625 -0.06641478 -0.07189176 -0.23494452 -0.14601244
0.022454096 0.27085084 -0.06649411 -0.15120396 -0.07352621 -0.030154327 0.0067381295 0.11317124
0.14235434 -0.12601714 0.10532128 -0.09410025 -0.02922237 -0.008504279 -0.11343025 -0.044946793
0.059144065 -0.057916358 -0.24621296 -0.063376166 0.057526276 -0.2397927 -0.22644489 0.020994868
-0.047084503 0.11110509 -0.13306506 -0.114614084 -0.025801826 -0.07969922 0.25916025 -0.091776915
0.12033349 -0.23012967 0.17521083 0.015176863 -0.08290728 0.16874762 0.011609652 -0.11598513
0.12319204 -0.3112251 -0.075563975 0.018135026 -0.047021985 0.22833876 -0.38512644 0.33225852
0.020239707 -0.24703503 0.031008843 -0.1081977 -0.018773213 -0.28494793 -0.07863329 -0.03002334
0.0024031375 0.124176115 -0.018495683 0.11362952 0.041388527 -0.27981564 -0.10605671 0.06514207
-0.112032026 -0.14013413 -0.28219837 -0.0055363476 -0.011833638 -0.19573703 -0.3078999 -0.05369649
-0.15299083 0.046523403 -0.020481683 0.0053431056 -0.22112246 -0.3427196 -0.26116014 0.11062265
-0.07594517 -0.1816491 0.10427565 -0.024299996 -0.1780545 -0.099357456 0.028609825 0.23220219
0.05562924 0.037422236 -0.059536714 0.10496487 -0.07269726 -0.074828535 -0.23969485 0.075461976
0.15602739 0.31572685 -0.11474378 -0.19362865 -0.06475542 -0.07269733 0.12937234 0.34661943
0.09600687 0.12502879 0.05217905 -0.10097872 0.09968647 0.025038417 0.12140337 0.0019677829
-0.009979397 -0.051437903 -0.1357039 -0.119569585 -0.024862498 -0.23346575 -0.010614207 0.24635206
-0.10962841 -0.06840239 0.08260384 0.0482603 -0.21355085 0.021988876 0.37708265 -0.06146519
0.11291346 -0.13373388 0.25372338 0.025516812 -0.19827881 0.24821782 0.013310261 -0.011001018
-0.025412068 -0.16892284 0.04645646 0.06339356 -0.1224467 0.23189735 -0.11760578 0.45087913
0.03539725 -0.13723584 0.059267666 -0.15966025 -0.041661926 -0.23767878 0.119995214 -0.22046664
0.057789966 0.01466842 0.03203397 -0.114158005 0.13702679 -0.33142012 -0.0587799 0.1964575
0.046881452 -0.36892542 -0.38064668 -0.051011525 -0.052265167 -0.3587992 -0.21382296 -0.07296076
-0.32318285 0.030935606 -0.11736469 0.11815043 -0.11729599 -0.36384156 -0.15621535 0.14176443
0.12684348 -0.14363009 -0.0725697 0.13622396 -0.16815066 0.018611379 0.025046 0.15975815
0.07718186 0.13460504 0.12576051 -0.08244452 -0.12392011 0.06383279 0.1432007 0.018086882
-0.09619683 -0.048953205 -0.055724636 0.13748494 0.10899803 0.24662001 -0.07021427 -0.039211944

fc2.bias f4 [48]
00000000: 7f90 163c 79ac ba3d a9dd 873d 4af5 51bd
00000010: 988a fb3d 44ad c6bd dea4 4a3e 3d2e aebd
00000020: dc56 1f3e 1921 4c3d af1c 2a3e 4503 e3bd
00000030: 3504 8cbd a7b1 bbbc c91a 673e 47d8 09be
00000040: 542f 98bb 2f00 843d c3b2 0c3e 9667 563e
00000050: 43ca 38bd 769d 053d 98a5 7abd 8835 063b
00000060: 5fc9 86bd 796e 43be 04d2 b8bd e8f6 d33d
00000070: 1459 0fbd 29fd 01be b166 053d 1188 9abd
00000080: cd28 1f3e 0464 a2bc 982d ed3d 53d9 53be
00000090: cccd 0e3e 6145 b8bb 78dd 833d 226c f4bd
000000a0: 2520 403d 0cf2 303d dc10 5b3c 8727 2cbd
000000b0: fcfd 2dbe d5ad da3c 16d8 5cbe 2080 ae3d
0.009189724 0.09114928 0.06634075 -0.051259317 0.12282294 -0.097010165 0.19789454 -0.08504913
0.15560478 0.049836252 0.16612504 -0.11084608 -0.0683674 -0.02291186 0.22568811 -0.1346141
-0.004644314 0.064453475 0.13740067 0.20937952 -0.045114767 0.03262087 -0.06119308 0.0020478684
-0.06581377 -0.1908511 -0.09024432 0.10349828 -0.03499706 -0.12694229 0.032568637 -0.07545484
0.15542908 -0.019823082 0.11580962 -0.20688371 0.13945693 -0.005623505 0.06438726 -0.11934687
0.046905655 0.043199584 0.013370719 -0.042029884 -0.16991419 0.026694218 -0.21566805 0.08520532

z_loc.weight f4 [20, 48]
00000000: 92d7 653e c39e adbe de83 253e 4d28 95be
00000010: df0d 2c3e e40e 163e 22ec 3dbe e044 2e3d
00000020: c3a7 c9bd 4da1 b13e 8616 89bd 4f57 25be
00000030: 2dc2 3bbe f9e2 13be 083c a43d 4b2a 58be
00000040: e04d c8b9 3d3f 813e fdae 91bd 8d23 23bd
00000050: 6b35 a83d 41c7 2abd dec2 4bbe f138 83be
00000060: a082 293d bf83 3e3e efe9 713e babc 72bd
00000070: fc82 483e 6d68 3e3a 2e0b 9abe 6188 983e
00000080: 2f56 4f3e 079d 823e ce22 a6be 5110 86be
00000090: 981c 643e 6ca9 a7be 0c58 b1be 850b a1be
000000a0: 9054 8ebe 5bc4 89be 2a3c 7fbe a4b5 3dbc
000000b0: c4d3 383e 8e28 913e 21f7 2fbe e5b7 283e
000000c0: e499 b5bd 49c6 8bbd 05c0 29be 2c2b 14bc
000000d0: 8ee9 3fbe 67ac 5b3e 8564 8bbe d186 00be
000000e0: 5771 94bd 3af5 8e3d 1234 09be ee66 cfbd
000000f0: 868c 5a3d 9f39 5f3c b46c 5cbe 0d38 853d
00000100: bf4c 943e 8a7a 063a 2d19 63be dd00 23be
00000110: 082f 663e 080b 51be 2d4a b23c 6374 1dbd
00000120: c522 28be c080 7f3e 9d0e 74bd 75c9 03be
00000130: 2892 943d fdf1 033e a8d1 8fbe 92aa ec3d
00000140: 7de3 a2bc ff1d 633d 13f5 e7bd 644e dc3d
00000150: fd01 b7bd d40d f8bd 4917 9fbc 973f f1bc
00000160: 07d4 cebd d581 27be 5802 973d c618 8fbb
00000170: dd00 cd3d 7981 13be 1017 813e e5c4 bd3d
00000180: f9f4 703d a8b8 aebd 6da5 0d3d 3dd1 fc3d
00000190: 41a1 953e dfd1 8bbd 0cb8 073e 3474 c03d
000001a0: e2cb 263e c34c 51be b4ef 083e 8a3a 0d3d
000001b0: cc29 553c 6e5e e2bd c775 573e 6070 58bd
000001c0: 06f0 a9be d045 2d3e e89c 293e 906a 553e
000001d0: 1ebd 9bbd 9a02 3f3e 6298 de3d 00e4 e03b
000001e0: 000b 1b3e 95c4 a3bd a546 8b3d 570a 7c3e
000001f0: b63a 3abe 9f15 b5be 2a59 b13d 0c96 1cbb
00000200: ca30 723e 0580 d43d 1420 a0bd 7a83 78be
00000210: 047b 133e e1e7 a9bc ae23 a33d d11b 24be
00000220: 3aaa 05bd ca30 cabc 6bd7 55be cf72 94be
00000230: cc68 59be 5275 d23d 9957 26be e517 bf3d
00000240: 263a 40be d6f3 103b b127 a5be 53c8 c13d
00000250: 2a8f aebe 46b7 063c 0b9e a53d 903e 823d
00000260: ce2d febd 1030 b9bd dbd6 3a3d 8dcb 843e
00000270: d321 d23d 69a4 013e f6e5 8fbe b350 ad3e
00000280: 0231 393e 6f46 2ebe e137 06be 8cfb 20be
00000290: 8462 243c 7348 e0bd 3723 483e 0822 883e
000002a0: 91ca ddbc 4830 d6bd 71ba 7fbe 8dac 43bd
000002b0: 3cff e0bb f7a2 703e dbbe 513e 0a8d 4bbe
000002c0: dba9 a9be 45a4 96be 406d 523e 101c 3a3e
000002d0: c843 72be bbcd cc3d ed72 a93d f8e7 aa3e
000002e0: 055f 6c3e a919 253e 1440 ad3e 8967 c13e
000002f0: ea03 3cbe 735d 36be ce2b 443e 3266 1dbd
00000300: b477 393e f780 6abe cbe6 3ebd 3ba3 3dbe
00000310: 085a 38be a311 3e3e d45a 75be 9e90 8fbd
00000320: 87b0 0dbe af5d 953e fb1a f6bd 390c 20be
00000330: 9b83 97bd 782b 5abd 8b01 c6bd c500 bd3c
00000340: f156 073e 5082 503e be04 4b3d b487 e03c
00000350: 6ce5 813e d561 e1bc 4116 19be 84d0 72be
00000360: ddad 1c3d cc1b 823e f657 863e b2ab e73d
00000370: 7386 0a3e 3d56 493d e82a 87be c078 913e
00000380: df7f 163e fc7f 5e3d 2c1e 4fbe 2339 13bd
00000390: 599c 4d3e b14f e1bc 3a75 55be af07 81bd
000003a0: 7d7b 5fbd eed0 56be 7089 a8bd cc28 543c
000003b0: 331e 8b3e b0a5 763d e549 ccbd e09b ad3c
000003c0: 9c06 b63e 1037 02be 433e 0d3e 53bd 93be
000003d0: edd8 283d 8f83 fc3d f85b 003c 97e9 ffbd
000003e0: 2039 9bbd fc55 2e3e 35a9 80be 2d34 8cbe
000003f0: f4ec 9cbe f8a2 98be 16b3 9c3c 963e 81be
0.22445515 -0.33910188 0.16163585 -0.2913231 0.16802166 0.14654118 -0.18547109 0.042546153
-0.09846451 0.34693375 -0.06693749 -0.16146587 -0.18335791 -0.14442052 0.080192626 -0.21109883
-0.00038204994 0.2524356 -0.071134545 -0.039828826 0.08213314 -0.04169393 -0.19898555 -0.2562938
0.04138434 0.18604945 0.23624395 -0.059262015 0.19581217 0.00072634855 -0.30086654 0.2979155
0.2024772 0.25510427 -0.3244843 -0.26184323 0.22276533 -0.32746446 -0.34637487 -0.314541
-0.2779889 -0.2690762 -0.24925295 -0.011578951 0.18049532 0.28351253 -0.17184116 0.164764
-0.08867243 -0.06824929 -0.16577156 -0.009043496 -0.18741438 0.21452485 -0.27225128 -0.12551428
-0.0724818 0.06980367 -0.1339877 -0.10127054 0.05335667 0.013624578 -0.21525842 0.065048315
0.28964803 0.0005129954 -0.22177573 -0.15918298 0.22478878 -0.20414364 0.021763885 -0.038441073
-0.16419514 0.24951458 -0.05958425 -0.12869819 0.072544396 0.1288528 -0.28089643 0.11555971
-0.019883865 0.05544853 -0.11326041 0.10757139 -0.08935926 -0.121120125 -0.019420283 -0.029449267
-0.10099035 -0.1635812 0.07373494 -0.004366967 0.1000993 -0.14404859 0.25212908 0.0926607
0.058827374 -0.08531314 0.03458159 0.123445965 0.2922459 -0.06827139 0.13253802 0.09397164
0.16288713 -0.20439439 0.1337269 0.034479655 0.013010453 -0.11053167 0.21041022 -0.052841544
-0.33190936 0.16921163 0.16563761 0.20841432 -0.076044306 0.18653336 0.108689085 0.006863117
0.15140915 -0.079964794 0.06800584 0.2461332 -0.18186459 -0.35368058 0.08659585 -0.0023893146
0.23651424 0.1037598 -0.078186184 -0.24268904 0.14402395 -0.020740451 0.0796579 -0.16026236
-0.032633044 -0.024681468 -0.20882957 -0.28993842 -0.21231383 0.10276283 -0.16244353 0.093307294
-0.18772182 0.0022117994 -0.32256845 0.09462037 -0.340936 0.008222407 0.08086785 0.06359589
-0.1241108 -0.0904237 0.04561506 0.25936547 0.10260358 0.12660374 -0.28105134 0.3385063
0.18085101 -0.17019056 -0.13107254 -0.15720958 0.010033254 -0.109513186 0.19544683 0.26588464
-0.02707413 -0.10458428 -0.24973466 -0.04777198 -0.006866364 0.23499666 0.20482962 -0.19878021
-0.33137402 -0.29422203 0.20549488 0.18174767 -0.23658669 0.100001775 0.082738735 0.33380103
0.23083122 0.1612307 0.3383795 0.37774304 -0.18360868 -0.17809086 0.19157335 -0.03842754
0.1811207 -0.22900759 -0.04660682 -0.18519299 -0.18003094 0.18561415 -0.2396043 -0.070100054
-0.13836871 0.29173037 -0.12016865 -0.15629663 -0.073981486 -0.05326411 -0.09668263 0.023071656
0.1321676 0.2036221 0.04956507 0.027408458 0.25370347 -0.02751247 -0.14949895 -0.23712355
0.038251746 0.25411832 0.26238984 0.11312045 0.13527851 0.04915451 -0.26399922 0.28412437
0.14697216 0.054321274 -0.20226353 -0.03594316 0.20079173 -0.02750382 -0.208455 -0.06300294
-0.054561127 -0.20978138 -0.08229339 0.01294918 0.27171478 0.060216606 -0.09975032 0.021192491
0.35551918 -0.12716317 0.13793282 -0.2885538 0.0412225 0.1232978 0.007834427 -0.124957256
-0.07579255 0.17024988 -0.25129095 -0.27383557 -0.3064953 -0.29811835 0.019128364 -0.25243062

z_loc.bias f4 [20]
00000000: 2632 cbba ace3 423d a824 ec3d d8ca 8e3c
00000010: 666e 5d3d 67df f4bc c416 69bb 169f 593d
00000020: 571e 5c3c 6147 0ebe 214c 74bd 10e5 033e
00000030: 2c0c b2bd 7bda 00be fcd5 ff3d fdd5 003e
00000040: e11e 4abe f75c 43bd 7487 babd 4164 073d
-0.0015502616 0.047580406 0.11530429 0.017430708 0.054060362 -0.029891683 -0.0035566548 0.05313023
0.013434968 -0.13894416 -0.059642915 0.12880349 -0.08693728 -0.12583344 0.12491986 0.1258163
-0.19738342 -0.04769608 -0.09107867 0.033054594

z_logit_scale.weight f4 [20, 48]
00000000: 7436 45be f258 65be 3ff4 c4bc 2bc6 8a3d
00000010: 2331 cfbd 5742 433e a24a 2abd 135f b83d
00000020: 6690 84bd fe72 173e 1286 8cbe b430 c93d
00000030: d6d2 a63d bb05 b03d fb34 a7bd 612b 5c3e
00000040: 39c8 8c3e 3c89 afbd 7ac0 f4bb 7248 60bd
00000050: 522d 8b3e 3d37 49be c972 243d db02 af3d
00000060: c63c c63c 79ff 1cb8 3279 1a3c ea2a e9bd
00000070: 1183 5c3e 6b8b 993e 1f76 353d 08fc e53c
00000080: 424e b5bd 10fc e73c 7ee9 9bbd a11f a83d
00000090: 5791 1cbe 9e0a 17be 8747 56be 719b 0c3e
000000a0: 27eb a5bd 54f9 ccbd 69cd 993d 18e6 dc3d
000000b0: cd12 853e afe1 e4bd 702c 833c a929 2fbe
000000c0: bee2 9ebd 7916 d9bd 05fa bf3d 79e1 5bbd
000000d0: 4b6b 05bd bde6 373e fcfc 92b9 d6f5 9dbd
000000e0: 6a7c 86bd 303c 5fbd a47a b2bd 69cd 78bb
000000f0: 6f27 98ba 2f5c 8e3d da26 493d 9b87 503b
00000100: c357 6a3e b63d cd3c a6dd 89bc f97b cf3b
00000110: acbb 8b3d 30cb 563d b9cd adbd be24 00be
00000120: 14e0 46be 1f27 68bc cc4e a43d a496 f63b
00000130: a9af 193e 0cb9 3a3e b425 33bd feeb 8abd
00000140: 388f 493c 4dbb 7cbd 5889 10be 5677 523e
00000150: 16f5 143e 3e8c 1a3d ca89 e0bd f4c5 073e
00000160: dffd e9bc e93b a3bd 63be db3d 17a8 723e
00000170: 201d e03c 4cdf b4bc 6328 143e d3fc 92bd
00000180: b52c b63d 3cdd 0a3c 095f ab3d 705c c6bd
00000190: 0ea8 81bc 95af 163d a0ab a7bd 8447 14be
000001a0: f6cd d63b 70a7 a63d 5a83 573d d91d 0cbe
000001b0: 17b7 56be 0145 5c3c f4d6 c3bd e6c1 d63c
000001c0: 64c4 1d3c e5af cdbd 2338 acbd 8f6d ad3d
000001d0: 2469 ba3d 5888 23be 61b6 52be 6ab5 4a3d
000001e0: f530 33be 4902 1f3e 400d b1bb b94f 0d3d
000001f0: 895d 763e 9978 433c 544d 02be 99ea ac3d
00000200: cf08 e53d f15b 89bd 60e2 ebbd 96e4 0b3e
00000210: 6889 8dbc 909c 14bd c2bd a7bb 005a 06bd
00000220: 75c4 f03c cc69 04be 8837 79bb e745 28ba
00000230: 4aee 203d 2d96 e4bd 058a 6f3b cd51 07be
00000240: 7cad a9bc fc1a 73bd 4e66 29bc 2a82 69bd
00000250: eba7 85bd 5400 d43d bb61 6dbe 6363 a0bd
00000260: c91c e4bd 9fcb 073e cb84 a4bd a56b 2bbe
00000270: 4b3a a5bd b563 843c fee5 03be f8ab d2bd
00000280: 71d6 6e3e db6a 19bd 2028 82bd 15af 82bd
00000290: 5182 613d 4f14 23be 1a63 1dbd ff69 39bd
000002a0: 308b acbd d377 19bc 4604 1e3d f9a0 f9bd
000002b0: 8c74 713e 71f6 463e 3ac1 28be 6756 793e
000002c0: 28ab 9cbc 5a0f 693e f35c e6bd 5ad4 903d
000002d0: 8c94 ddbd ebb9 81bc f8b2 f7bd 43e2 4b3d
000002e0: e7ab 14be 806d 0d39 9a77 0e3d 7cf7 063e
000002f0: 2d66 2c3e fc38 113d 7813 bf3d bb64 063e
00000300: cb54 f9bd 4bd4 97bd 5589 64bd 4757 9f3d
00000310: 10d5 66be 293c ff3d 4cf3 493d 97ac 72bd
00000320: 68d8 b8bd d369 97bd 9c81 4cbe 017d 0bbe
00000330: 833a 8bbd 5e88 dc3c 2c36 30be 6661 123e
00000340: a27d 963d 4fc5 dbbd 15f9 97bd d603 30be
00000350: db4d 54bd bd80 073d 787c e7bc c912 5d3c
00000360: 8cef 41be b3a0 8cbd d458 d3bd 7389 49be
00000370: 76c3 bdbc 3927 5e3e 5bf5 8ebd d3a9 183e
00000380: 4a18 b43c 98ca 133d 58a7 1fbe d413 ba3d
00000390: 02fc 01be 4679 0cbd 70c0 eebd 4a10 85bd
000003a0: ebc2 d83d aef8 fe3d 235d b9bd aa91 063e
000003b0: a47f 1c3e 88b6 b0bd 3c34 923d 1a5b ccbd
000003c0: c567 5f3d f087 39be 59e2 0dbd 8def 163d
000003d0: 1e01 14bd 71d9 343e d2bf 3abe 59d4 cb3d
000003e0: 65f7 1a3d 545f 883d db4d 2e3c 6252 8abd
000003f0: 8bad dcbc ca18 2dbc bd66 35bb 5c79 023d
-0.19259053 -0.22397211 -0.024042247 0.06776079 -0.10116794 0.19068275 -0.04157508 0.09002509
-0.06472854 0.1478996 -0.27446038 0.098237425 0.081456825 0.08594843 -0.08164402 0.21500923
0.27496508 -0.08571097 -0.007469234 -0.05475659 0.27183014 -0.19649978 0.04014853 0.085454665
0.0241989 -3.7431226e-05 0.009428309 -0.11385138 0.21534373 0.2998918 0.044302102 0.02807428
-0.08852817 0.028318435 -0.076128945 0.08209158 -0.15289818 -0.14750144 -0.20925723 0.13731171
-0.081014924 -0.10008493 0.07509882 0.107860744 0.25990906 -0.11175858 0.0160124 -0.17105736
-0.077580914 -0.105999894 0.09373859 -0.053681824 -0.032573026 0.17959113 -0.00028035778 -0.07712905
-0.06566699 -0.05450076 -0.08714798 -0.003796423 -0.0011608432 0.069511764 0.049109317 0.0031819108
0.22885041 0.02505384 -0.016829323 0.0063319174 0.06822905 0.05243987 -0.08486504 -0.12514016
-0.19421417 -0.014169483 0.08022842 0.007525282 0.15008415 0.18234652 -0.04373713 -0.06783293
0.012302212 -0.06170206 -0.14114892 0.20553336 0.14546618 0.0377314 -0.10963781 0.13259107
-0.028563438 -0.07970411 0.10729673 0.23696934 0.027357638 -0.022079132 0.14468531 -0.07177129
0.08895246 0.008475598 0.08367736 -0.096856 -0.015827205 0.03678854 -0.08187032 -0.14480406
0.006555314 0.08137405 0.0526155 -0.13683261 -0.2096828 0.013444186 -0.095624834 0.026215505
0.009629343 -0.10043315 -0.08409145 0.08468162 0.09102085 -0.1596998 -0.20577385 0.049489416
-0.17499144 0.15528215 -0.005403191 0.034499858 0.24059118 0.011930608 -0.12724811 0.084431835
0.11183321 -0.067069896 -0.11517787 0.13661417 -0.017277434 -0.036282122 -0.0051190564 -0.032800674
0.029390553 -0.12930983 -0.0038027484 -0.00064191077 0.03928975 -0.11161456 0.0036550772 -0.13214798
-0.020712607 -0.059351906 -0.010339333 -0.0570089 -0.065261684 0.10351625 -0.23181812 -0.078314565
-0.11138303 0.13261269 -0.08033141 -0.16740282 -0.08067759 0.016160825 -0.12880704 -0.10286707
0.2332399 -0.03745542 -0.063553095 -0.063810505 0.05505592 -0.15925716 -0.03842459 -0.0452671
-0.084249854 -0.009366947 0.038578294 -0.12188906 0.23579615 0.19429947 -0.1647996 0.24349366
-0.019124582 0.22759762 -0.112481974 0.07071753 -0.10819349 -0.015835723 -0.120946825 0.049776327
-0.145187 0.000134876 0.03478203 0.13180345 0.16835852 0.035454735 0.09329885 0.13124363
-0.12174376 -0.074135385 -0.055795033 0.07780319 -0.22542214 0.124626465 0.04930429 -0.059246626
-0.09025651 -0.07393231 -0.19971317 -0.13621904 -0.067982696 0.026920494 -0.17208165 0.14294967
0.07348181 -0.10730993 -0.074205555 -0.17188963 -0.05183206 0.03308176 -0.028257594 0.013493248
-0.18939036 -0.068665884 -0.10319677 -0.19681339 -0.023164492 0.2169465 -0.069803916 0.14908533
0.021984238 0.03608188 -0.1559118 0.09085813 -0.1269379 -0.034295343 -0.11657798 -0.064972475
0.10584053 0.12449776 -0.090509675 0.13141504 0.15283066 -0.08628565 0.07138869 -0.09978314
0.05454232 -0.18118262 -0.03463969 0.036849547 -0.036133878 0.17661072 -0.18237236 0.099526115
0.03783359 0.066588074 0.010638679 -0.067539945 -0.02693822 -0.010564992 -0.0027679645 0.03185402

z_logit_scale.bias f4 [20]
00000000: 995e 8fbd 852a b23d 744e 32bd 3f4b d53c
00000010: 8265 013e 44a3 89bd 5089 bf3d 09d7 25bd
00000020: f9c1 9bbc 740b 19bd 328b 27bd 7751 0c3d
00000030: 8a19 9d3d d1cc babd 9852 b83c 6eb4 d9bd
00000040: 6b8c f03d 8080 b43a a891 eabd 0038 c63d
-0.07000465 0.08699516 -0.04353185 0.026036857 0.12636378 -0.067205936 0.09352362 -0.040488277
-0.019013392 -0.03736444 -0.04090423 0.03425738 0.07670887 -0.09121097 0.022500321 -0.10630117
0.117455326 0.0013771206 -0.11453563 0.0967865
