task1/T1_to_T2_Deterministic_mcd_encoder.pt (torch, 42327 bytes, 6 tensors)

fc1.weight f4 [48, 140]
0	0x3b9b9160	0.0047475547
1	0x3e01623c	0.1263513
2	0x3dd00b04	0.10158351
3	0xbc907c23	-0.017637318
4	0xbd24b0e3	-0.040207755
5	0xbd936861	-0.07197643
6	0x3cee0c07	0.02905847
7	0xbe018992	-0.12650135
8	0xbda34d9a	-0.07973786
9	0xbc74a879	-0.014932745
10	0x3cbcc6f1	0.023044081
11	0x3c26aa81	0.010172487
12	0xbdc76393	-0.09735789
13	0xbd8f7bad	-0.07006011
14	0x3d18eb38	0.037333697
15	0xbe1f4d28	-0.15556777
16	0xbd8a4354	-0.06751123
17	0xbe4cb903	-0.19992451
18	0xbcbea64c	-0.023272656
19	0xbe461786	-0.19344911
20	0xbd21da68	-0.03951493
21	0xbe3fb790	-0.18722367
22	0x3d98af15	0.07455269
23	0xbe69eed7	-0.22845016
24	0xbd0e458a	-0.034734286
25	0xbe88d1c4	-0.26722538
26	0xbd8f21cf	-0.0698887
27	0xbe9d414a	-0.30713874
28	0xbc565780	-0.013082385
29	0xbe49ac7e	-0.19694707
30	0xbc259195	-0.01010551
31	0xbe884a78	-0.26619315
32	0x3da14f78	0.078764856
33	0xbe9b686f	-0.30353114
34	0x3d70084a	0.058601655
35	0xbe5953a5	-0.21223314
36	0x3cdbf1e0	0.026848733
37	0xbe0a6ed4	-0.1351884
38	0xbc8a5512	-0.016886268
39	0xbe379073	-0.17926197
40	0x3d99b334	0.075048834
41	0xbd51d696	-0.051230036
42	0xbc981d7c	-0.018568747
43	0xbda09bde	-0.07842229
44	0x3db8611a	0.09002896
45	0xbdabf4d4	-0.08396307
46	0x3d597cf3	0.053097676
47	0xbe3a5c94	-0.18199378
48	0x3d0179bb	0.03161023
49	0xbe4acdf6	-0.1980513
50	0xbd31789d	-0.043327916
51	0xbe1fae2d	-0.15593787
52	0x3d5bcf81	0.053664688
53	0xbe35f7b9	-0.1777028
54	0xbd4567af	-0.048194584
55	0xbe31e5a3	-0.17372756
56	0x3d7e0180	0.06201315
57	0xbdef030f	-0.11670505
58	0x3d57e221	0.052705888
59	0xbdc6679c	-0.09687731
60	0x3d5d1b9d	0.053981412
61	0xbd65cfb6	-0.05610629
62	0x3d8b8b03	0.06813624
63	0xbbefe060	-0.0073204488
64	0xbb1d24e7	-0.0023978294
65	0x3b8a135e	0.0042137345
66	0xbd3e9e17	-0.046537485
67	0xbdd9787d	-0.106186844
68	0x3d000d67	0.03126278
69	0xbd938fea	-0.07205184
70	0x3df6382f	0.12022435
71	0xbafdb367	-0.0019355834
72	0x3d8e4a23	0.06947734
73	0xbc429eab	-0.01187865
74	0x3dc85295	0.09781376
75	0xbe252df0	-0.16130805
76	0x3d93fd9a	0.07226105
77	0xbe3608b2	-0.17776754
78	0x3c2b082b	0.010438959
79	0xbe16be63	-0.14721064
80	0xbccaea21	-0.024769844
81	0xbe41e53e	-0.18935105
82	0x3905696e	0.00012723144
83	0xbe386ca9	-0.180102
84	0x3e21ba9f	0.15793847
85	0xbdcf2f0e	-0.10116397
86	0x3d9b7bb1	0.07591952
87	0xbe68efb3	-0.22747688
88	0x3dedb37f	0.11606502
89	0xbda18a68	-0.07887727
90	0x3c5c3de4	0.01344249
91	0x3ca2eee9	0.019889312
92	0x3cf262c7	0.029588116
93	0xbdc2bd47	-0.09508758
94	0x3a4b9f03	0.000776753
95	0xbdde02fd	-0.10840414
96	0xbc9d3359	-0.019189524
97	0xbd856c56	-0.06514804
98	0xbc75d15a	-0.015003527
99	0xbde887c8	-0.11354023
100	0xbdaa40e7	-0.083131604
101	0xbe457f8b	-0.19286935
102	0xbe108135	-0.14111789
103	0xbd9b8f45	-0.07595686
104	0xbe861e7b	-0.2619513
105	0x3dc0beda	0.09411402
106	0xbe9cc3e8	-0.30618215
107	0x3e767d8d	0.24071331
108	0xbeb3a538	-0.3508699
109	0x3e2a1b43	0.16611962
110	0xbeafbf9f	-0.34325883
111	0x3e0b7720	0.13619661
112	0x3ef368c6	0.47540873
113	0xbd38de8e	-0.04513412
114	0x3ea516cf	0.32243964
115	0x3d5719fe	0.052515022
116	0xbcae850f	-0.021303682
117	0x3e06e091	0.13171603
118	0xbd4783b7	-0.048709597
119	0xbc078a2b	-0.008272688
120	0xbd1ea69b	-0.038733106
121	0x3ddaca00	0.1068306
122	0xbdb32116	-0.08746545
123	0x3d803148	0.062594
124	0xbd3ae242	-0.045625933
125	0xbd5ad1fa	-0.053422906
126	0xbd9ef8b4	-0.0776228
127	0x3db042f1	0.08606518
128	0x3c817581	0.0158031
129	0x3d3565c0	0.04428649
130	0x3df16da5	0.11788491
131	0x3c171924	0.009222303
132	0x3e31f08a	0.17376915
133	0xbd10a8b3	-0.035317134
134	0x3daa5cf8	0.08318514
135	0xbd533d67	-0.05157223
136	0x3c769013	0.015048998
137	0x3d478925	0.048714776
138	0x3d889350	0.06668723
139	0x3c1ae7e3	0.0094547
140	0x3c04bac0	0.008101165
141	0xbd18deeb	-0.037321966
142	0xbcdeabc6	-0.027181517
143	0x3c12ef28	0.008968152
144	0x3cd27e8c	0.025695108
145	0x3cee5214	0.029091872
146	0x3bba14b0	0.0056787357
147	0xbc8cc720	-0.017184794
148	0xbda83a85	-0.08214287
149	0x3d9a8cb0	0.07546365
150	0xbc9d30bc	-0.019188277
151	0x3cc7bafc	0.024381153
152	0xbd20c6fb	-0.039252263
153	0xbc7a9a88	-0.015295632
154	0xbd465952	-0.048425026
155	0xbd9cb3bd	-0.0765147
156	0xbdab7b5b	-0.083731376
157	0x3d24f542	0.04027296
158	0xbd73bd74	-0.05950685
159	0xbd859c56	-0.06523959
160	0xbd9b1376	-0.07572071
161	0x3d118728	0.035529286
162	0x3d2a99e4	0.041650668
163	0x3c4783c0	0.012177408
164	0x3d95bbd2	0.073112145
165	0x3d92dacc	0.071706384
166	0x3c6ec1b8	0.014572553
167	0x3caef7bc	0.021358363
168	0xbd848cac	-0.064721435
169	0x3cbffdc0	0.023436427
170	0xbcda030c	-0.026612781
171	0xbd46bef6	-0.04852196
172	0xbcea8190	-0.028626233
173	0xbd55c063	-0.052185427
174	0xbbd536b0	-0.0065067634
175	0x3c0b8f80	0.0085181
176	0x3d83205a	0.06402655
177	0x3c8f1130	0.01746425
178	0x3abdc4c0	0.0014478192
179	0x3bd3d8f0	0.00646507
180	0x3d5cdab8	0.053919524
181	0x3d844c7a	0.06459899
182	0xbd4f3f16	-0.050597273
183	0xbcc1e5ca	-0.023669142
184	0x3d96c710	0.07362187
185	0xbd61eb7d	-0.05515622
186	0xbcb13228	-0.021630362
187	0x3c959450	0.018259197
188	0x3ca74420	0.020418227
189	0x3c79e398	0.0152520165
190	0xbd5871aa	-0.052842773
191	0x3d1258dc	0.035729274
192	0xbcb39ae4	-0.021924444
193	0x3da70f60	0.081572294
194	0xbba04b00	-0.004891753
195	0xbd4f74f7	-0.050648656
196	0xbd45638f	-0.04819065
197	0x3d97adba	0.074061826
198	0xbc0e2e98	-0.008678101
199	0x3d856b18	0.06514567
200	0xbcaf4df8	-0.021399483
201	0xbbad3220	-0.0052855164
202	0xbc3bb510	-0.011456743
203	0x3d94a0de	0.072572455
204	0xbd205f4f	-0.039153393
205	0x3d97ad08	0.0740605
206	0xbda48b3d	-0.0803437
207	0x3d540f2c	0.05177228
208	0xbd46deba	-0.048552252
209	0x3d4cdb0c	0.050013587
210	0x3d5d5f64	0.05404605
211	0x3d0928d4	0.033486202
212	0x3d3caef0	0.04606527
213	0xbba126c0	-0.0049179494
214	0xb7b5d000	-2.1673739e-05
215	0x3d9ea2e4	0.07745913
216	0xbd60a4bb	-0.0548446
217	0xbd8612cc	-0.06546554
218	0xbbb6d5c0	-0.00557968
219	0xbc0ed200	-0.00871706
220	0x3c592e58	0.013255678
221	0x3da269e2	0.07930352
222	0x3bf9be10	0.007621534
223	0xbcaaae58	-0.020835087
224	0xbcce4f1a	-0.025184203
225	0x3da10b66	0.07863502
226	0x3d94df34	0.07269135
227	0x3d13e32c	0.03610532
228	0xbd33c7a0	-0.04389155
229	0x3ca71334	0.020394899
230	0x3ca6c434	0.020357229
231	0xbda5c734	-0.080946356
232	0x3d00b8c4	0.031426206
233	0xbd07405d	-0.033020366
234	0xbd8ed92b	-0.06975015
235	0x3d1ae932	0.03782005
236	0xbd7a64bc	-0.061131224
237	0x3cccf4b4	0.025019027
238	0xbc68fc68	-0.014220335
239	0x3d54d968	0.051965147
240	0xbcf11460	-0.02942866
241	0x3d0b8f2c	0.034072086
242	0xbc90d6b8	-0.01768051
243	0x3d343400	0.043994904
244	0x3d9e6b94	0.07735363
245	0x3d308854	0.043098763
246	0x3da71b2a	0.08159478
247	0xbd12cbd9	-0.035838936
248	0x3d5b4f9c	0.05354272
249	0xbcb96cbe	-0.02263486
250	0xbd4334cc	-0.047657773
251	0xbd7bd3de	-0.06148135
252	0x3d440ffc	0.047866806
253	0x3ceb1b08	0.028699413
254	0x3c91dcb0	0.017805427
255	0x3d8420c0	0.06451559

fc1.bias f4 [48]
0	0x3da2fa00	0.0795784
1	0xbdac74b4	-0.08420697
2	0xbc43ee64	-0.011958692
3	0xbbc7d2e0	-0.0060981363
4	0x3d9e90c6	0.07742457
5	0xbc89097f	-0.01672816
6	0xbd67c103	-0.056580555
7	0xbcb51d0d	-0.022108579
8	0xbd3df6cb	-0.04637794
9	0x3d29a1bc	0.041414008
10	0x3d53934d	0.05165415
11	0x3d819e43	0.06329014
12	0x3da89898	0.0823223
13	0x3dc8e27f	0.09808826
14	0xbda40d0e	-0.080103025
15	0x3d0a45cc	0.03375797
16	0x3acb5636	0.0015513364
17	0x3ce45f9b	0.02787762
18	0xbd0f4a2a	-0.034982838
19	0xbdab09be	-0.083514675
20	0xbcc01bf8	-0.023450837
21	0x3d0c1e92	0.03420884
22	0x3cffdd74	0.031233527
23	0x3dd76f2c	0.10519251
24	0xbd48ac0e	-0.04899221
25	0x3c49db24	0.012320314
26	0xbac7eae5	-0.0015252499
27	0xbd8e1137	-0.06936877
28	0x3d46afc9	0.048507486
29	0xbbf6cd90	-0.007531829
30	0xbc7508e0	-0.014955729
31	0x3d11272b	0.035437744
32	0x3cd86219	0.026413964
33	0x3d9a56a4	0.07536057
34	0xbd53cd7e	-0.051709644
35	0x3d2b0dad	0.04176109
36	0xbcbc7c38	-0.02300845
37	0x3b0a3d99	0.0021093844
38	0xbce705ad	-0.028200949
39	0x3c9d5086	0.019203436
40	0x3c4d60fe	0.012535332
41	0xbd7cd18d	-0.06172328
42	0xbc4b3b58	-0.012404285
43	0xbd03958e	-0.03212505
44	0x3d13a1b6	0.03604289
45	0x3d20bab6	0.03924056
46	0xbc6d165b	-0.014470662
47	0xbd0dc746	-0.03461387

fc2.weight f4 [48, 48]
0	0xbe81fd1f	-0.2538843
1	0x3e0d61c4	0.13806826
2	0xbeea7dfd	-0.45799246
3	0xbdbb5ab0	-0.09148157
4	0xbe50aecf	-0.20379184
5	0x3daa6f89	0.08322055
6	0xba9a2e8e	-0.0011763142
7	0xbd8255c2	-0.06364013
8	0x3d92f10a	0.07174881
9	0xbe1c24be	-0.15248391
10	0xbd5230ef	-0.051316198
11	0xbc3353dc	-0.010945287
12	0xbe009431	-0.1255653
13	0xbe7f2a50	-0.24918485
14	0xbd8914b8	-0.06693405
15	0xbe04bce0	-0.12962675
16	0x3de064ed	0.1095675
17	0x3d8a0c3f	0.06740617
18	0xbed50324	-0.4160396
19	0x3db1255a	0.08649702
20	0xbdae1f11	-0.08502019
21	0x3e2627cf	0.16226123
22	0xbd028580	-0.031865597
23	0xbe6a3448	-0.22871506
24	0x3e2a283a	0.16616908
25	0xbdae2571	-0.08503235
26	0xbcae843c	-0.021303289
27	0x3c52c390	0.012864009
28	0xbed0c77d	-0.40777197
29	0x3da319b4	0.07963887
30	0xbc874948	-0.016514435
31	0xbe266f18	-0.16253316
32	0x3dbc0391	0.09180368
33	0x3dae034e	0.08496724
34	0x3e0b7f7a	0.13622847
35	0xbca2a436	-0.019853693
36	0x3c885c80	0.01664567
37	0xbecbb4a7	-0.39786264
38	0xbe217a7e	-0.15769383
39	0xbdd9304e	-0.106049165
40	0xbe8bbf88	-0.27294564
41	0x3dd8cd68	0.10586053
42	0xbe042e06	-0.12908182
43	0x3daeaee4	0.085294515
44	0x3dce6a54	0.10078874
45	0xbdd69d29	-0.10479195
46	0x3e1ef08c	0.15521449
47	0x3de53c64	0.11193159
48	0x3f63c65b	0.8897454
49	0xbdf026f4	-0.1172618
50	0xbaadbbfa	-0.0013254874
51	0x3dd705b4	0.10499135
52	0x3e11ec38	0.14250267
53	0xbebf265a	-0.37333947
54	0xbe8f83d2	-0.28030258
55	0x3dce125a	0.10062094
56	0x3da6fe9c	0.08154032
57	0x3dc13204	0.09433368
58	0xbe3282d4	-0.1743272
59	0x3e0bddb9	0.13658799
60	0x3d7b1a64	0.061304465
61	0x3d34b112	0.04411418
62	0x3d74bb70	0.059749067
63	0xbd97c584	-0.0741072
64	0xbd7d9fc4	-0.061919942
65	0xbdf9dee1	-0.12200714
66	0x3dfdfd89	0.124018736
67	0xbeafc545	-0.34330192
68	0xbd9e3e4e	-0.077267274
69	0xbe174757	-0.14773308
70	0xbd8abbba	-0.06774087
71	0x3dbeddb8	0.09319633
72	0x3f3e00c1	0.742199
73	0xbe314f90	-0.17315507
74	0x3d7fa732	0.06241531
75	0x3dc2dd44	0.09514859
76	0x3c9dbf70	0.019256324
77	0xbd67ddcc	-0.056608006
78	0xbdba0703	-0.09083369
79	0x3f8b9e7c	1.090774
80	0xbda90ef1	-0.08254803
81	0xbda5637a	-0.08075614
82	0xbe0eb13d	-0.13934799
83	0x3f834009	1.0253917
84	0xbe0d9e7f	-0.13829993
85	0x3e1e53c6	0.15461645
86	0x3e02d334	0.1277588
87	0xbea41539	-0.32047442
88	0x3d3dd36c	0.046344206
89	0xbca5a954	-0.020222344
90	0xbd817915	-0.06321923
91	0xbbde60c0	-0.006786436
92	0x3de2d9b4	0.1107668
93	0x3f8bcb1f	1.0921363
94	0xbec4adac	-0.3841375
95	0x3d976dac	0.07393965
96	0x3f539bd9	0.8265968
97	0x3ca1d218	0.0197535
98	0x3eaa1a1c	0.33223045
99	0x3c07fac0	0.00829953
100	0x3e982a96	0.2971999
101	0xbe06f677	-0.13179956
102	0xbdc87bb4	-0.097892195
103	0xbdf24e1f	-0.11831307
104	0xbc6b9ebf	-0.01438111
105	0x3e89a2fa	0.26882154
106	0xbe0c21db	-0.1368479
107	0x3cd3aa6f	0.025838105
108	0xbdebeb14	-0.11519447
109	0x3e7e5a17	0.24839054
110	0xbcbd6d74	-0.02312348
111	0x3d98e9b2	0.07466449
112	0xbdda9e76	-0.10674755
113	0xbd8621f8	-0.06549448
114	0x3d70be39	0.05877516
115	0xbdafb0af	-0.085786216
116	0x3cf839e0	0.030301034
117	0x3d21548c	0.03938727
118	0xbc87dc10	-0.016584426
119	0x3e85337d	0.26015845
120	0x3de3820c	0.11108789
121	0xbe21b5c7	-0.15791999
122	0xbd1dc46f	-0.03851741
123	0xbc458710	-0.012056127
124	0x3e06f700	0.1318016
125	0x3dddb73c	0.10825965
126	0x3d60b83b	0.054863196
127	0x3f168da2	0.58809865
128	0x3dd91a2a	0.106006935
129	0xbdaf8022	-0.08569361
130	0x3da384f2	0.07984342
131	0x3f16e8e3	0.58949107
132	0x3df3cb4c	0.1190401
133	0x3e6eb2d9	0.23310412
134	0x3de02043	0.109436534
135	0xbe8608a0	-0.26178455
136	0x3e010835	0.12600787
137	0xbda5d78f	-0.08097755
138	0x3c65d2e0	0.014027327
139	0xbdd761da	-0.105167106
140	0xbe0fc4f9	-0.14039983
141	0x3f198a45	0.5997661
142	0xbe36b63c	-0.17842954
143	0xbdea58da	-0.11442728
144	0xbf4b7d89	-0.79488426
145	0x3c71ee70	0.014766321
146	0xbe7d319d	-0.24725957
147	0x3e0f6f3c	0.14007276
148	0xbe9cf907	-0.30658743
149	0x3e4d1ccc	0.20030516
150	0xbd0f06bf	-0.034918543
151	0xbc1c89f6	-0.009554377
152	0xbbe574e5	-0.0070024603
153	0xbe47505b	-0.19464247
154	0xbda63a3d	-0.08116577
155	0xbdf8b418	-0.12143725
156	0xbe0ccea9	-0.1375071
157	0xbe220b6e	-0.15824673
158	0xbe0fc2e2	-0.14039186
159	0xbdfb2d46	-0.122644946
160	0xbe0ec9fa	-0.13944235
161	0x3d495c99	0.049160574
162	0xbd1b9555	-0.03798421
163	0x3e2dc54b	0.16969793
164	0xbbfd1e80	-0.007724583
165	0xbca76a8b	-0.020436546
166	0xbd028814	-0.031868055
167	0xbeb2ae16	-0.34898442
168	0xbea01640	-0.31266975
169	0x3e175a21	0.14780475
170	0xbe109b18	-0.14121664
171	0x3db21122	0.08694674
172	0xbd3637ca	-0.0444868
173	0xbe077399	-0.13227691
174	0xbdf476f9	-0.11936755
175	0xbf0373c1	-0.513485
176	0x3e010547	0.1259967
177	0x3c10d8c0	0.00884074
178	0xbd8cf3be	-0.06882428
179	0xbf2329f3	-0.63735884
180	0x3d234068	0.039856344
181	0xbddcfad0	-0.10790026
182	0xbe3052d5	-0.17219098
183	0x3e4da83a	0.20083705
184	0xbe9f9ee7	-0.3117592
185	0xbc641de0	-0.013923138
186	0xbc8e90b0	-0.017402977
187	0x3d6682b8	0.056277007
188	0xbdc0d357	-0.0941531
189	0xbf300448	-0.6875653
190	0x3d4ff676	0.050772153
191	0xbdd04168	-0.10168725
192	0xbf97297a	-1.1809533
193	0x3d9e78ec	0.07737908
194	0x3c0cd2d6	0.008595189
195	0x3dc39084	0.095490485
196	0x3d710ed5	0.058852036
197	0x3eb3646e	0.3503756
198	0x3ea18b35	0.3155152
199	0x3cc6a4f8	0.024248585
200	0x3dd6c2db	0.104863845
201	0xbdffdc07	-0.12493139
202	0x3e472794	0.19448692
203	0x3db2f7d2	0.08738674
204	0x3dad5e8e	0.084653005
205	0xbd566e1a	-0.052351095
206	0xbd2021d6	-0.03909477
207	0x3ddbdaa8	0.10735065
208	0x3dda06aa	0.10645802
209	0x3e63f651	0.22261931
210	0xbe29868a	-0.16555229
211	0x3ea95fe5	0.33080974
212	0x3be97d40	0.0071255267
213	0x3e71b3d5	0.23603757
214	0xbb03c9c0	-0.0020109266
215	0x3df33b72	0.11876573
216	0xbf6eeb1f	-0.93327516
217	0x3ea25f80	0.31713486
218	0xbdb8ab19	-0.09017009
219	0xbdcaf8ee	-0.09910761
220	0x3d483461	0.048878077
221	0x3da37cc0	0.079827785
222	0x3dfe4e87	0.12417322
223	0xbf894223	-1.0723308
224	0xbdd91806	-0.10600285
225	0x3e084e44	0.13311106
226	0xbde87969	-0.11351282
227	0xbf6c0571	-0.921958
228	0x3de671b8	0.11252159
229	0xbdba3159	-0.090914436
230	0xbe1a0cd0	-0.1504395
231	0x3ea41938	0.3205049
232	0x3d38a260	0.045076728
233	0xbd17eb04	-0.037089363
234	0xbcf2f540	-0.02965796
235	0x3e0a8b60	0.1352973
236	0x3cb24d78	0.021765456
237	0xbf6a70fc	-0.9157865
238	0x3ec4f9a9	0.38471726
239	0x3d6a45a4	0.05719532
240	0xbf97ed49	-1.1869289
241	0x3da0981c	0.078415126
242	0xbc5839f4	-0.013197411
243	0xbe02de05	-0.12780006
244	0x3d509265	0.050920863
245	0x3f0b5be1	0.5443707
246	0x3efd6b3e	0.49495882
247	0xbcde1ce0	-0.027113378
248	0xbc95c248	-0.018281117
249	0xbddc3fcf	-0.10754358
250	0x3e99625c	0.29957855
251	0x3c8ea904	0.017414577
252	0x3d8041d8	0.06262559
253	0xbd1f00d2	-0.03881914
254	0x3d808eb2	0.06277217
255	0x3c5d9a50	0.0135255605

fc2.bias f4 [48]
0	0x3b69712f	0.0035620441
1	0x3dbe4668	0.09290773
2	0xbe6b28cb	-0.2296478
3	0xbc9d238d	-0.019181991
4	0x3e130543	0.14357476
5	0xbdabb0ca	-0.08383329
6	0xbe4535d7	-0.1925882
7	0xbce9bec0	-0.02853334
8	0xbd007ca1	-0.031368855
9	0xbd7dc66d	-0.06195681
10	0xbe024028	-0.12719786
11	0xbdd99d90	-0.10625756
12	0x3cb2bb08	0.0218177
13	0xbd648117	-0.055787172
14	0x3dbe7959	0.09300489
15	0x3d3c7eb4	0.04601927
16	0x3d345cf2	0.044033952
17	0xbc97fd2b	-0.018553337
18	0xbd51be93	-0.051207136
19	0xbd97bd48	-0.074091494
20	0x3e36f8a9	0.17868294
21	0x3d7dd9a4	0.061975136
22	0x3d2b8342	0.041873224
23	0x3caf7d4a	0.021422047
24	0xbde855e6	-0.11344509
25	0xbdf60d7e	-0.12014292
26	0xbe018df4	-0.12651807
27	0xbe3fb7dd	-0.18722482
28	0xbd50ed82	-0.051007755
29	0xbd6f0534	-0.05835457
30	0x3ccf86b4	0.025332786
31	0xbd0b87d8	-0.034065098
32	0x3b7d18fc	0.0038619628
33	0xbd8dbb6c	-0.069205135
34	0xbe0488ea	-0.12942854
35	0xbd6b6a75	-0.057474572
36	0xbc80ef9c	-0.015739255
37	0xbd1078c3	-0.035271417
38	0x3e4f8267	0.20264588
39	0xbd7fa009	-0.06240848
40	0xbd40952b	-0.047017258
41	0xbe293a37	-0.16526113
42	0x3cc7a11d	0.024368817
43	0xbda80f52	-0.08206047
44	0x3e1b4d19	0.15166129
45	0xbce478e0	-0.027889669
46	0x3d01234c	0.031527802
47	0xbb8a45eb	-0.0042197607

z_loc.weight f4 [20, 48]
0	0xbe9306c7	-0.28716108
1	0x3e46a9f0	0.19400764
2	0x3e468b45	0.19389065
3	0xbe53ea62	-0.20694879
4	0xbe0871fb	-0.1332473
5	0xbdada02e	-0.084778175
6	0x3ecfb916	0.40570897
7	0x3bf0d46a	0.0073495405
8	0x3e0e90fa	0.13922492
9	0xbecb165a	-0.3966549
10	0x3e4b6cc5	0.19865711
11	0x3ec475a9	0.38371018
12	0xbdf21ec4	-0.11822274
13	0x3dbdab53	0.09261193
14	0xbeb6dc45	-0.35714927
15	0x3e95ba41	0.29243663
16	0x3d4cb614	0.04997833
17	0x3d928d84	0.07155898
18	0xbd1f2bd4	-0.038860157
19	0xbe754190	-0.23950791
20	0xbe3a186c	-0.18173379
21	0xbec010f8	-0.37512946
22	0x3e8ebc53	0.27878055
23	0xbe78ff11	-0.2431605
24	0x3e187216	0.1488727
25	0xbe1669fc	-0.14688867
26	0xb99e1e94	-0.0003015889
27	0x3ec8d90d	0.39228097
28	0xbdf390de	-0.118928656
29	0x3e0d4d8a	0.1379911
30	0x3d41441e	0.047184102
31	0x3e9ec9eb	0.31013426
32	0x3e81f8d4	0.25385153
33	0xbbae418a	-0.0053178715
34	0x3d20e967	0.03928509
35	0x3e7d9cc1	0.24766828
36	0xbe501a14	-0.20322448
37	0xbbe75dff	-0.0070607658
38	0xbe441db3	-0.19151954
39	0xbe857161	-0.26063064
40	0x3e0054ee	0.12532398
41	0xbbff5a77	-0.0077927667
42	0xbe973ebb	-0.29540047
43	0xbdf5b1d8	-0.11996812
44	0xbe4ff3b5	-0.2030781
45	0xbc63bda9	-0.013900199
46	0x3ed98155	0.42481485
47	0x3d55696d	0.052102495
48	0x3d508b04	0.050913826
49	0xbe9179b5	-0.28413168
50	0xbec0b80f	-0.37640426
51	0x3e3d6209	0.18494429
52	0x3e519c38	0.20469749
53	0x3e61b419	0.22041358
54	0xbe6ea8e0	-0.23306608
55	0x3ea1352b	0.31485876
56	0x3da1fe31	0.07909811
57	0x3e86ea5e	0.26350683
58	0x3d4cb272	0.049974866
59	0xbd84090e	-0.064470395
60	0x3ead103b	0.33801445
61	0xbe5f90d7	-0.21832596
62	0x3dbca26c	0.09210667
63	0xbe4998fc	-0.19687265
64	0xbebd7126	-0.37000388
65	0x3cbc1261	0.022957982
66	0x3ea0cb2e	0.31405014
67	0x3df364d1	0.118844636
68	0x3e564417	0.20924412
69	0x3e301463	0.17195277
70	0xbdc59a44	-0.096485645
71	0x3e07d0f1	0.13263299
72	0xbeb806c4	-0.35942662
73	0xbd917ae3	-0.07103517
74	0x3e896dd9	0.2684162
75	0xbea00394	-0.3125273
76	0x3b39c6c4	0.0028347233
77	0xbeac4e42	-0.33653456
78	0xbe09f278	-0.134714
79	0x3d809514	0.062784344
80	0xbddc4156	-0.10754649
81	0x3e8f8414	0.28030455
82	0x3e0ed97c	0.13950151
83	0xbe5bd145	-0.21466549
84	0x3e5f06d8	0.21779954
85	0x3e656e3b	0.22405331
86	0x3e7adbdb	0.2449793
87	0x3e90633e	0.28200716
88	0xbeaeba33	-0.34126434
89	0xbeab71d8	-0.33485293
90	0x3d98cc16	0.07460801
91	0xbd9df2ae	-0.07712303
92	0xbe44282c	-0.1915595
93	0x3e490237	0.19629751
94	0xbe25aa8b	-0.16178338
95	0xbe886c30	-0.2664504
96	0x3e19dbf0	0.15025306
97	0xbabb4a17	-0.0014289048
98	0xbe3fdbb8	-0.1873616
99	0x3e603720	0.21896029
100	0x3d33fd51	0.043942753
101	0xbc388a1f	-0.011263399
102	0xbe90fe3d	-0.28318968
103	0xbd343228	-0.043993145
104	0xbd4c3ba4	-0.049861565
105	0x3d935c5b	0.0719535
106	0xbd687bc1	-0.056758646
107	0xbe7d2018	-0.24719274
108	0x3ddd670b	0.108106695
109	0x3d86c9e0	0.06581473
110	0x3e13bada	0.14426747
111	0xbd5c038b	-0.053714316
112	0xbc8b09a2	-0.016972367
113	0xbdb5ced4	-0.0887734
114	0x3da1da17	0.079029255
115	0xbd08aa09	-0.033365283
116	0x3d403a74	0.046930745
117	0x3e5e2f8b	0.21697824
118	0xbd78f445	-0.06077983
119	0x3e586f53	0.21136217
120	0x3df11750	0.11772025
121	0x3d1e6395	0.038669188
122	0xbe63d348	-0.22248566
123	0xbe3018b1	-0.17196919
124	0x3e79a3fa	0.24378958
125	0xbe5785bc	-0.2104711
126	0xbd66567c	-0.05623482
127	0xbe5e5bbe	-0.21714684
128	0xbe8e7609	-0.2782443
129	0xbd77e261	-0.060518626
130	0xbe088227	-0.13330899
131	0xbe2eee4a	-0.17083088
132	0xbca0d92a	-0.019634802
133	0xbe013330	-0.12617183
134	0xbd3ed689	-0.046591315
135	0xb9cfb7ce	-0.00039619062
136	0x3d40f78c	0.04711108
137	0x3cfda0b9	0.030960428
138	0x3dd0e88c	0.10200605
139	0x3dc175f5	0.09446327
140	0x3e283e6b	0.1643006
141	0xbdcb1bd6	-0.09917419
142	0xbe448104	-0.1918984
143	0xbdb22ec9	-0.0870033
144	0xbd883d01	-0.066522606
145	0xbdead5a6	-0.114665315
146	0xbde42023	-0.11138942
147	0x3ddedd4d	0.108820535
148	0x3e80daab	0.2516683
149	0x3e8ca99a	0.27473146
150	0xbd7be537	-0.061497893
151	0x3de7bb80	0.1131506
152	0x3e5bbb48	0.21458161
153	0xbdc53263	-0.09628751
154	0xbc7b9e1e	-0.015357522
155	0x3d28f3c6	0.041248105
156	0x3ce2b885	0.027675876
157	0xbe42027a	-0.18946257
158	0x3dba4dc3	0.09096863
159	0xbe2a08c1	-0.16604902
160	0xbe6902af	-0.2275493
161	0x3e10f085	0.14154251
162	0x3e7e8db0	0.24858737
163	0x3e180910	0.14847207
164	0x3d450b06	0.048106216
165	0x3caedd56	0.021345776
166	0xbe15c042	-0.14624122
167	0x3d888590	0.066661
168	0xbeb932b6	-0.36171502
169	0xbe166546	-0.1468707
170	0x3ea0553c	0.3131503
171	0xbd811393	-0.063025616
172	0xbe5c18ba	-0.21493807
173	0xbdd88207	-0.10571676
174	0xbe473256	-0.19452795
175	0x3dc6a4ee	0.096994266
176	0xbe104bcb	-0.14091413
177	0x3e3193fd	0.1734161
178	0x3e289f86	0.16467103
179	0x3e16ac32	0.14714125
180	0x3e9f5c2c	0.3112501
181	0x3e8f8c38	0.28036666
182	0x3dada564	0.084788114
183	0xbc33b37e	-0.010968087
184	0xbd9e963a	-0.07743497
185	0xbe8184e5	-0.25296703
186	0x3ca119fd	0.019665712
187	0xbdb1d496	-0.08683126
188	0xbea5a308	-0.32350945
189	0x3ea6d7c2	0.32586485
190	0x3d0ff29f	0.03514349
191	0xbd75b508	-0.059987098
192	0x3e01a29d	0.12659688
193	0xbf04639c	-0.5171449
194	0xbe9ae7bd	-0.30254927
195	0x3dcfd7e3	0.10148599
196	0x3eedea22	0.46467692
197	0x3f06ba2d	0.5262783
198	0xbd8094a0	-0.06278348
199	0x3eee8d6c	0.4659227
200	0x3e3133ad	0.17304869
201	0x3e393f56	0.18090567
202	0x3e094358	0.13404596
203	0xbe2316df	-0.15926693
204	0x3ec778a2	0.38959223
205	0xbef6cbe7	-0.4820244
206	0x3e86e8bf	0.26349446
207	0xbea4535f	-0.32094857
208	0xbef7a40d	-0.48367348
209	0x3eb7967f	0.35857007
210	0x3eafee9f	0.3436174
211	0x3cbb14e3	0.022837108
212	0x3e998bbc	0.2998942
213	0xbce63046	-0.02809919
214	0xbecbab61	-0.3977919
215	0xbc6b4914	-0.014360685
216	0xbee78558	-0.4521892
217	0xbea4ec27	-0.3221142
218	0x3f0c4e2b	0.54806775
219	0xbe40a03c	-0.18811125
220	0xbe0c07a5	-0.13674791
221	0xbeae8131	-0.3408294
222	0xbf0863a9	-0.5327707
223	0x3c9ddbf3	0.019269919
224	0x3b9f076d	0.00485318
225	0x3ece7fc7	0.4033186
226	0x3eacff93	0.33788738
227	0xbd76dea2	-0.060270913
228	0x3ee7704c	0.45202863
229	0x3f022e4f	0.5085191
230	0x3f055b88	0.5209279
231	0x3ebca918	0.36847758
232	0xbecf27e3	-0.4046012
233	0xbf005fe4	-0.5014632
234	0x3d94a373	0.07257738
235	0xbeb49341	-0.35268596
236	0xbe6325f3	-0.22182445
237	0x3eda8880	0.42682266
238	0xbdc50934	-0.09620896
239	0xbe260b4e	-0.1621525
240	0x3e0feed7	0.14055954
241	0xbe6a92c4	-0.22907549
242	0xbe48a333	-0.19593506
243	0x3d001fc7	0.031280305
244	0x3e5fb08e	0.21844694
245	0x3e0b9e4c	0.13634604
246	0x3d408c5d	0.04700886
247	0x3d86d146	0.065828845
248	0xbc2f4833	-0.010698366
249	0x3e53bfee	0.20678684
250	0xbd4d75c6	-0.050161146
251	0xbdbc055e	-0.09180711
252	0x3e962cbb	0.29331002
253	0xbe00e105	-0.12585838
254	0x3dffbda2	0.124873415
255	0xbd9d2b9a	-0.07674332

z_loc.bias f4 [20]
0	0xbcf4ccbb	-0.02988278
1	0x3d8f2021	0.0698855
2	0xbbf9a22b	-0.007618209
3	0xbcafc400	-0.021455765
4	0x3d23e4e6	0.040013216
5	0xbe1db4b5	-0.15400966
6	0xbd72cfe4	-0.05928029
7	0xbcb92059	-0.022598432
8	0xbc4fd9a5	-0.012686168
9	0xbcaa8e87	-0.020819915
10	0xbbfc1c29	-0.0076937866
11	0xbdeb4e46	-0.11489539
12	0x3cbda708	0.023150936
13	0x3cad35ce	0.02114382
14	0x3d82001b	0.06347676
15	0xbe4cc5ab	-0.1999728
16	0x3df54e34	0.11977807
17	0xbe35388f	-0.17697357
18	0x3e3faf2c	0.18719167
19	0xbdeda78b	-0.11604222
