task1/T1_to_T2_Deterministic_source_only_classifier.pt (torch, 5535 bytes, 4 tensors)

fc1.weight f4 [40, 20]
0	0x3d492313	0.049105715
1	0x3e862dda	0.26206857
2	0x3f00bec8	0.5029111
3	0x3e3e164e	0.18563196
4	0x3e530213	0.2060626
5	0xbee265a9	-0.44218186
6	0xbe361631	-0.17781903
7	0xbdba7769	-0.09104807
8	0xbe3a9846	-0.1822215
9	0x3eeb6e79	0.4598272
10	0xbe31dcbd	-0.17369361
11	0xbd5657f8	-0.052329987
12	0xbe14c10e	-0.1452677
13	0xbe054ca2	-0.13017514
14	0x3da58544	0.08082059
15	0xbecedbb0	-0.40401983
16	0xbd7694c9	-0.060200486
17	0xbe4d695a	-0.2005972
18	0x3d65fc47	0.056148794
19	0x3e6832c5	0.22675617
20	0x3d070f81	0.03297377
21	0xbeeb8794	-0.46001875
22	0xbde0d754	-0.109785706
23	0xbe59a952	-0.21255997
24	0xbe171fde	-0.1475825
25	0x3ddffecb	0.1093727
26	0x3ea2772d	0.3173155
27	0xbd0bffc9	-0.034179483
28	0xbd9ba993	-0.07600703
29	0xbe2a4ff2	-0.16632059
30	0x3d15efdf	0.036605712
31	0xbe744396	-0.23853907
32	0x3e1da47a	0.15394774
33	0x3e190b0c	0.1494562
34	0xbe148b17	-0.14506184
35	0x3ed6b5e6	0.41935652
36	0x3e590849	0.21194567
37	0x3ead2cc2	0.3382321
38	0xbc8158a9	-0.015789347
39	0xbd94db07	-0.07268339
40	0x3e03cf8a	0.12872139
41	0xbca61532	-0.020273779
42	0xbe3a7ecb	-0.1821243
43	0xbdc5435d	-0.09631989
44	0x3bdd03e1	0.006744847
45	0xbddd7ea1	-0.10815168
46	0x3e5c577e	0.2151775
47	0x3ecf57ef	0.40496776
48	0x3e32fc44	0.17479044
49	0xbd97a502	-0.074045196
50	0x3dc7703b	0.09738203
51	0xbd31e42c	-0.043430492
52	0x3e3a52f8	0.18195713
53	0x3eb653b2	0.3561073
54	0x3edbb308	0.42910028
55	0xbc363c47	-0.01112277
56	0xbda478bd	-0.080308415
57	0xbe2c08c6	-0.16800222
58	0x3ec23e3d	0.3793811
59	0x3db8ed9c	0.090296954
60	0xbe68281b	-0.22671549
61	0x3d2134e7	0.039357092
62	0x3e0a0136	0.13477024
63	0x3bc2d653	0.0059459596
64	0xbdf76ece	-0.12081681
65	0x3e7d88a6	0.24759158
66	0x3dff6de8	0.12472135
67	0xbeb45db9	-0.35227755
68	0xbe9278e1	-0.28607848
69	0x3de99cc3	0.11406853
70	0xbe86d3aa	-0.26333362
71	0xbcde15e9	-0.027110057
72	0x3e6e0e96	0.23247752
73	0xbe8c8a1b	-0.27449116
74	0xbd5b5ca8	-0.05355516
75	0x3e259d9a	0.16173401
76	0x3e110589	0.14162268
77	0xbe22928a	-0.15876213
78	0xbe8f6c62	-0.28012377
79	0x3e2dfafb	0.16990273
80	0x3b271979	0.002549736
81	0x3de0cc6e	0.10976492
82	0xbea342c3	-0.31886873
83	0xbe82a56a	-0.25516826
84	0xbe69ccac	-0.22831982
85	0x3d1c53d7	0.038165893
86	0x3ca33d47	0.01992668
87	0x3e311bf9	0.17295827
88	0xbd5b8121	-0.053589944
89	0xbeabba22	-0.33540446
90	0xbc81dc99	-0.01585226
91	0xbea56a8a	-0.32307845
92	0x3e60429b	0.21900408
93	0xbd8c2a38	-0.0684399
94	0x3e56aaba	0.20963565
95	0x3e84f3bc	0.25967205
96	0xbb506be6	-0.0031802594
97	0x3df1972e	0.11796413
98	0xbe2cf822	-0.1689153
99	0x3e00739c	0.12544101
100	0x3e863bfb	0.26217636
101	0xbeec8122	-0.4619227
102	0xbee02715	-0.43779817
103	0xbe3a6184	-0.18201262
104	0xbc6bdf61	-0.014396519
105	0x3ee91f4f	0.455317
106	0x3e85b358	0.2611339
107	0x3b5c928b	0.0033656682
108	0xbb462bba	-0.0030238465
109	0xbdc2cbbb	-0.09511515
110	0x3e85fe54	0.261706
111	0xbecf85a8	-0.4053166
112	0x3d131983	0.035913
113	0xbe136ff7	-0.1439818
114	0xbe3495fd	-0.17635341
115	0x3e8f401c	0.279786
116	0x3ea9c6e7	0.33159563
117	0x3df82754	0.12116876
118	0xbe809f19	-0.25121382
119	0xbc8f926e	-0.017525878
120	0xbe392adb	-0.18082754
121	0x3e635169	0.22199024
122	0x3eab6832	0.33477932
123	0x3eb548a7	0.35406992
124	0x3e4b8032	0.19873121
125	0xbf0aa686	-0.54160345
126	0xbe5470a2	-0.20746091
127	0xbdea43c0	-0.114387035
128	0xbdbc7bc4	-0.09203294
129	0x3e12ea78	0.14347255
130	0xbd153cd5	-0.036434967
131	0x3e971e0d	0.29515114
132	0x3e049a77	0.12949549
133	0x3cf7f49d	0.030268008
134	0xbaaebabc	-0.0013330798
135	0xbea565b3	-0.32304153
136	0x3e0954ea	0.13411298
137	0xbe624f5d	-0.22100587
138	0xbe4a667d	-0.19765659
139	0xbdbe9990	-0.093066335
140	0x3e4bf958	0.19919336
141	0x3d16a7ed	0.03678124
142	0xbe19fcaa	-0.1503779
143	0xbe0b380f	-0.13595603
144	0xbd18823a	-0.03723357
145	0xbe621170	-0.22076964
146	0x3cc901ba	0.024536956
147	0x3e483d6d	0.19554682
148	0x3ec9e764	0.3943435
149	0xbe50f371	-0.20405366
150	0x3db138b0	0.086533904
151	0x3e419b2a	0.18906847
152	0xbe01c75b	-0.12673704
153	0x3e2d21db	0.16907446
154	0x3ee8c9af	0.45466372
155	0x3dd543b0	0.10413301
156	0xbe03b2f7	-0.12861238
157	0xbdd1d26c	-0.10245213
158	0x3e7ee381	0.24891473
159	0xbe47ea6e	-0.19523022
160	0x3d0b3177	0.03398272
161	0x3dd69b93	0.10478892
162	0xbd8b9901	-0.068162926
163	0xbdad886a	-0.084732845
164	0x3d550b84	0.052012935
165	0xbdd98220	-0.106205225
166	0x3e355d68	0.17711413
167	0x3e56177d	0.20907398
168	0x3dff54f1	0.12467373
169	0x3c459a9c	0.0120607875
170	0x3e9f67d2	0.31133896
171	0xbe42eb2d	-0.19035025
172	0xbd57a71a	-0.052649595
173	0x3ecbce15	0.39805666
174	0x3d23ea71	0.040018503
175	0x3c716bca	0.014735172
176	0x3cf373ec	0.029718362
177	0x3d176510	0.036961615
178	0x3ebe851d	0.37210932
179	0xbdc95424	-0.09830502
180	0x3e7095a3	0.23494582
181	0xbef7f34a	-0.48427802
182	0xbeb6693d	-0.35627165
183	0xbe8a0a0c	-0.2696079
184	0x3d177adc	0.036982402
185	0x3e8a1a77	0.26973316
186	0x3e5926b9	0.21206178
187	0x3b64766d	0.0034860626
188	0x3d345bfe	0.044033043
189	0xbe464d5d	-0.19365449
190	0xbe2ef7b5	-0.1708668
191	0xbe612103	-0.21985249
192	0x3eb677a2	0.35638148
193	0x3d9309b0	0.07179582
194	0x3ddad1d1	0.106845506
195	0x3ea572d0	0.32314157
196	0x3e9e326f	0.30897853
197	0x3e0a9735	0.13534243
198	0xbdbe38de	-0.0928819
199	0xbe52588d	-0.20541592
200	0x3e1fd376	0.1560801
201	0xbe09f24e	-0.13471338
202	0xbd8a3495	-0.067483105
203	0xbdc7f0be	-0.09762715
204	0x3e8e1aec	0.27754915
205	0x3d601d63	0.054715525
206	0x3dc97c9e	0.09838222
207	0xbe82eedd	-0.25572863
208	0xbe18a094	-0.14905006
209	0x3e50d5dd	0.20394082
210	0xbd3e2734	-0.046424106
211	0xbe181689	-0.14852346
212	0xbe0a401b	-0.13501017
213	0xbe2a71e6	-0.16645011
214	0xbdfae5eb	-0.122508846
215	0xbdcc4954	-0.09974924
216	0x3d2b758f	0.04186016
217	0x3deb983a	0.11503644
218	0x3d346550	0.04404193
219	0xbd351676	-0.044210874
220	0x3e2a399c	0.16623539
221	0xbce4670b	-0.027881166
222	0xbea6aaea	-0.32552272
223	0xbde72b51	-0.11287559
224	0xbebd0666	-0.36918944
225	0x3c9d30c8	0.0191883
226	0x3d69be0c	0.05706601
227	0x3e63e699	0.22255935
228	0xbe566243	-0.20935921
229	0xbb29cfeb	-0.0025911282
230	0x3e15a50e	0.14613745
231	0xbd7780ea	-0.060425676
232	0x3e760141	0.24023916
233	0x3e259fde	0.16174266
234	0xbcf1687c	-0.029468767
235	0x3dfa87b0	0.122329116
236	0x3e27d04a	0.1638805
237	0x3e05aa7c	0.13053316
238	0xbe8aea0e	-0.27131695
239	0xbd73a501	-0.05948353
240	0x3e413f6b	0.18871848
241	0x3da95e7f	0.08269977
242	0x3e5275d1	0.20552756
243	0x3e01c7e5	0.1267391
244	0x3e48b1bb	0.19599049
245	0x3e33c1c3	0.17554383
246	0x3e6bee8b	0.23040216
247	0xbcb6d60f	-0.022318868
248	0x3ea8e936	0.32990426
249	0xbdcde261	-0.10052944
250	0x3e42c78b	0.19021432
251	0xbcf74476	-0.030184012
252	0xbc0be674	-0.008538831
253	0x3e524629	0.20534576
254	0x3e49e1f3	0.19715099
255	0xbd65acec	-0.056073114

fc1.bias f4 [40]
0	0xbe079491	-0.13240267
1	0x3e0e786b	0.13913123
2	0x3d85dd50	0.06536353
3	0xbdd8365d	-0.10557244
4	0xbe020595	-0.12697442
5	0x3e0509f9	0.12992086
6	0x3e9f0848	0.31061006
7	0x3e78416c	0.24243706
8	0x3d8e4b8a	0.06948002
9	0x3e7d78bf	0.24753092
10	0x3df45790	0.11930764
11	0x3e0bd0a5	0.1365381
12	0x3de2bb0f	0.11070835
13	0xbe61d43c	-0.22053617
14	0xbe14e43d	-0.14540191
15	0xbe369dae	-0.17833588
16	0xbe0e37fd	-0.13888545
17	0xbcbe93cd	-0.023263836
18	0xbc78aa9e	-0.015177397
19	0xbe55c760	-0.20876837
20	0x3eb0b880	0.34515762
21	0xbd75f135	-0.060044486
22	0xbe4be65d	-0.19912095
23	0x3d31209e	0.043243997
24	0x3e5e7cde	0.2172732
25	0x3db5c5b9	0.08875603
26	0x3ca9f198	0.020745084
27	0x3dad8631	0.084728606
28	0x3d770dc5	0.060315866
29	0x3d679a0f	0.056543406
30	0x3e3f5517	0.18684803
31	0x3dd9a2f5	0.10626785
32	0x3e85c53e	0.26127046
33	0xbe122fde	-0.14276072
34	0x3dc42215	0.09576813
35	0x3e31cee9	0.17364086
36	0xbe1f798f	-0.15573715
37	0x3eaf99b4	0.34296954
38	0x3e5621d3	0.2091134
39	0xbdba9884	-0.09111121

fc2.weight f4 [4, 40]
0	0x3ebdb273	0.37050208
1	0xbeed8059	-0.46386984
2	0xbe197be4	-0.14988667
3	0xbcb74631	-0.022372337
4	0xbe8ca5ad	-0.2747015
5	0xbef77043	-0.48327836
6	0x3e610a61	0.21976615
7	0xbe9382b8	-0.28810668
8	0x3ccd4387	0.025056614
9	0xbea92e3c	-0.33043087
10	0xbdd9c47c	-0.106331795
11	0xbeb13b48	-0.3461554
12	0xbd579f0f	-0.052641924
13	0xbeb0ca4d	-0.34529343
14	0xbea107e1	-0.31451324
15	0x3bc4bb6d	0.006003788
16	0xbdfecd23	-0.124414705
17	0x3e9cd041	0.30627635
18	0x3ec15c3b	0.3776568
19	0x3e903d31	0.28171685
20	0xbe7aef00	-0.24505234
21	0x3e9d4d7a	0.30723172
22	0xbe4ce946	-0.20010862
23	0x3eaf5d05	0.34250656
24	0xbd83c94b	-0.06434878
25	0x3e55bbf3	0.20872478
26	0x3d9b8bee	0.07595049
27	0xbc8d7393	-0.017267024
28	0xbebc5858	-0.3678615
29	0x3dab7b14	0.08373085
30	0x3d860535	0.06543962
31	0xbef9f3f4	-0.48818934
32	0xbeefe1e5	-0.4685203
33	0xbe6e8fb4	-0.23297006
34	0xbe9378de	-0.28803152
35	0x3ee380a3	0.4443408
36	0xbdb8eb40	-0.090292454
37	0x3e6b4539	0.22975625
38	0xbe133ece	-0.14379427
39	0xbe8def87	-0.27721807
40	0xbe0f51ef	-0.13996099
41	0x3d3eda2f	0.046594795
42	0xbe171ec1	-0.14757825
43	0x3cdc2bed	0.026876414
44	0xbebeac3b	-0.37240776
45	0xbc8ac6ad	-0.01694044
46	0x3e21f74b	0.15816991
47	0xbe0d71cb	-0.1381294
48	0xbe746a08	-0.23868573
49	0x3d8a1019	0.06741352
50	0x3e22cff4	0.1589964
51	0xbec11cc5	-0.37717262
52	0xbbf67a9c	-0.0075219404
53	0xbea52a24	-0.32258713
54	0x3c389224	0.011265311
55	0xbca31b2c	-0.019910417
56	0xbe013506	-0.12617883
57	0xbea648e7	-0.32477495
58	0xbe25e647	-0.16201125
59	0xbe7376d8	-0.23775804
60	0x3ebce7ba	0.36895543
61	0xbea6bcd3	-0.32565936
62	0xbe84add0	-0.25913858
63	0xbe7decbe	-0.24797341
64	0xbe319d69	-0.17345203
65	0x3e0e1b8d	0.13877697
66	0x3da46c22	0.08028437
67	0xb9a06ca5	-0.00030598525
68	0x3cdb8863	0.026798433
69	0x3d8a207c	0.06744477
70	0x3d6a85aa	0.05725638
71	0xbd45dea5	-0.048308033
72	0x3d678435	0.056522567
73	0xbeca5c9e	-0.39523786
74	0x3d803000	0.06259155
75	0xbe6bb0a8	-0.23016608
76	0x3d4bf9f5	0.049798924
77	0x3e22de22	0.1590505
78	0x3d782009	0.060577426
79	0xbda92065	-0.08258132
80	0xbe0e74ce	-0.13911745
81	0x3e180589	0.14845861
82	0x3db75d44	0.08953336
83	0x3c143615	0.009046097
84	0x3e3205e6	0.17385063
85	0x3db95c2b	0.09050783
86	0xbe185d0a	-0.14879242
87	0xbdec7c87	-0.11547189
88	0x3dbfbb00	0.09361839
89	0x3e12a618	0.14321172
90	0x3d8e917d	0.069613434
91	0x3e391a25	0.1807638
92	0xbe4bfb25	-0.19920023
93	0x3dacb9b0	0.084338546
94	0x3dcf8ad5	0.10133902
95	0x3dff4137	0.124636106
96	0x3d835125	0.064119615
97	0xbe55684c	-0.20840567
98	0xbd9aefdc	-0.07565281
99	0xbe5629e0	-0.20914412
100	0xbe85fe41	-0.26170543
101	0xbd929b3d	-0.071585156
102	0xbe3255cc	-0.17415541
103	0xbe6dd942	-0.23227409
104	0xbe78d764	-0.24300915
105	0xbe2b50c4	-0.16730028
106	0x3d324f9f	0.043532964
107	0x3db8564b	0.09000834
108	0x3dfc7912	0.1232778
109	0x3c80a496	0.01570348
110	0x3c9553af	0.01822838
111	0x3d0b8ce7	0.03406992
112	0x3df9ee4c	0.12203655
113	0x3da7f56d	0.08201108
114	0x3e0d92d7	0.13825546
115	0xbe2e7157	-0.17035423
116	0xbdb2a869	-0.08723528
117	0xbe10641d	-0.1410069
118	0xbcd43a92	-0.025906835
119	0x3d56786c	0.052360937
120	0xbe95ec7d	-0.2928199
121	0x3e1a9006	0.15094003
122	0x3e60a454	0.21937686
123	0xbf07e80a	-0.5308844
124	0x3e3022d2	0.17200783
125	0x3db45677	0.08805554
126	0xbec7fc58	-0.3905971
127	0x3e078071	0.1323259
128	0x3e758f80	0.23980522
129	0x3e13fda7	0.1445223
130	0xbdabf898	-0.08397025
131	0x3e448b6f	0.19193815
132	0x3e73ab07	0.2379571
133	0x3dab88bc	0.083756894
134	0x3d98b598	0.07456511
135	0xbe4a08e4	-0.19729954
136	0x3e1d33d6	0.15351805
137	0xbd8b0c29	-0.06789429
138	0xbe891dd3	-0.26780567
139	0xbeafe80c	-0.34356725
140	0xbc42db14	-0.011893053
141	0xbe12d1c9	-0.14337839
142	0x3e3c485f	0.18386982
143	0xbdf59504	-0.11991313
144	0x3eae396d	0.34028187
145	0xbef8191a	-0.4845665
146	0xbf274d12	-0.65351975
147	0xbccfc786	-0.025363695
148	0x3df9b8fa	0.121934846
149	0xbf15e2fd	-0.5854948
150	0xbf1682d7	-0.58793396
151	0x3d115ee7	0.035490897
152	0x3dfa60ab	0.12225469
153	0x3da28b3b	0.07936712
154	0x3e00e710	0.12588143
155	0xbcb565ff	-0.022143362
156	0xbe1f14bb	-0.15535252
157	0xbefb3b61	-0.4906874
158	0xbe84ec2a	-0.2596143
159	0x3e7524f5	0.23939879

fc2.bias f4 [4]
0	0xbe1f8fec	-0.15582246
1	0x3eb37eff	0.35057828
2	0xbe893f5a	-0.26806146
3	0xbe5fa317	-0.21839558
