task1/T1_to_T2_Deterministic_mcd_classifier.pt (torch, 5535 bytes, 4 tensors)

fc1.weight f4 [40, 20]
00000000: 2938 82be 7a47 413e 8e94 bd3e 1ee0 963d
00000010: dae1 613e d779 d53a 86c7 733e 1b56 01bd
00000020: 4edd bbbd 8f38 bcbd 2003 243d 60af 393e
00000030: 9b60 b7be d04a 03bc ea44 3f3e 7678 4cbe
00000040: 0dba fcbd 0d59 17be bfbc 013c 5d12 ba3d
00000050: 79e2 e73d 2136 4a3e cda8 1e3b 9cca 033e
00000060: 9ae9 483e e0a1 b1bc 49f1 303e 94d4 a6bc
00000070: cfbb 18be e05e debd 11f9 873e cd21 82be
00000080: 84b0 f0bd 2d7c 4b3c 6ad3 b5bd 6ffe 68be
00000090: 384f 28bd 1c20 26be 4d53 d9bd eb29 44be
000000a0: 9aed 1b3e 39d7 c73d 6720 1d3e 4be9 19be
000000b0: 2ef9 2bbd 12b9 dbbc 2787 313e 6fc3 873e
000000c0: 5800 2f3e b327 353e a5ce 25bd bcf5 0dbe
000000d0: eaaf ea3d 85f0 303d 28dd 9a3e cf60 793d
000000e0: 19fb 3c3d 9308 f3bd 2842 5ebd 9ec0 503e
000000f0: 97b2 ea3d b7a2 103e c032 bdbd 4423 003d
00000100: 7cb1 853e 26e3 9a3c 24ae 03be f997 91bd
00000110: 5068 23bd 364e bbbc 17e0 ec3d a688 873d
00000120: ffae 5f3e 2b76 bbbd 9860 0bbe 5ce7 f03c
00000130: 9f9b e9bc a1ee d63d 8866 503e 9822 9fbe
00000140: 92d0 85be cabd aa3d f211 9abd 1d88 543d
00000150: 69eb a53d fd9c 3e3e f92d efbd a435 583c
00000160: e4de 7dbe 83cd 01bd 47a0 863d e360 fa3d
00000170: ec78 6a3d dcfd f63d 6a9f 123e 8748 a1bd
00000180: c874 c6bd 2b1d 68be f304 10be 7649 2a3e
00000190: 7772 07bd edd1 44be ddaa 4ebd aa5d 763e
000001a0: 7960 5ebe 4944 ae3d 750f 13bd 03f1 2fbe
000001b0: 6248 5f3e 3e21 223e da90 363d 0946 c23d
000001c0: 60f2 313d f4ae 22be cba1 62be f876 50bd
000001d0: 91e1 693d cb47 91bd db22 4abe 388d 4cbe
000001e0: fc48 1a3c cc88 94bd ae8e 86bd f1f5 01be
000001f0: ab96 2b3e a596 90bc 3afc 753d a3f1 8ebd
00000200: f172 3d3e b1c7 fdbc e272 bbbd ac3b bcbc
00000210: b471 a53d 5bec 93bd 415d ef3d 0393 51be
00000220: 3ef3 103e 6846 97bc c2df 9c3d ec84 3c3e
00000230: 3e12 c0bc 5f18 0dbe 15d3 4abe 1766 7fbc
00000240: c793 81bd acb0 fc3d 9a39 6bbe 7ce0 34be
00000250: 3e8c 723e a4a3 6dbe 9583 bc3d e28b 923c
00000260: 6798 f83d a97f 88bc 5554 de3d f3bf 84bc
00000270: 3277 823d b6e0 453e bd6d 0cbe 9316 2d3e
00000280: 16a7 98be 7184 3fbd d511 0c3e 27e5 c2bd
00000290: 7763 b6bd 486e 19be 723e 05bd 42e5 06be
000002a0: bc58 ea3b 33d3 5d3d 2881 443e 2840 3fbe
000002b0: b36d 13bd fe51 563e 7e9b 293e 63f6 44be
000002c0: 0444 b6bd a18c aebd be5a 723d 33c8 313d
000002d0: 3429 593e a807 b5bd b4b9 8dbe 1a4a 80be
000002e0: 4155 43be 4485 6ebe 6e43 f33d 0de7 4f3e
000002f0: eb1e 323a 7d86 d1bd 12a5 b93c d64e 673e
00000300: eb40 ea3d 463b d2bd e35a 14be 92a2 243e
00000310: 78f6 c3bc a2f9 303e 776f 51be 4ecc 14be
00000320: 86c3 f2bd 379a 38ba 2082 30be 9771 f5bc
00000330: 8a8b 3abe 24de ee3d b5d5 4d3e dbd9 863e
00000340: b728 6f3e 0673 fbbd 3b04 2c3e 75e4 11be
00000350: dcb9 b5bd dd75 ca3c 646d 623e 132e 29be
00000360: b309 9ebc 810b 39be 3344 913d d615 2d3e
00000370: e7d3 1cbd 14f7 a6bc a439 62be b303 4cbe
00000380: 0aa8 b9bd 73a8 093e 67dc 04be 2665 41bd
00000390: 8f2a 853e ad13 3e3e 8efb 8fbc f3f7 2abe
000003a0: 3e4b dc3d 1e1d c13d 8e17 8cbd 717d 9cbd
000003b0: e7dc f33b 4308 bc3d 8e58 fbbd 00bb 55bc
000003c0: c37d 623d 5dc6 073e 8b77 6f3e b26b e7bc
000003d0: 6b70 3a3c 220d c0bc 1883 23be df09 87be
000003e0: e172 78be c799 55bd 78fa 40bd 7dd3 20bd
000003f0: fc2e 8f3c dbdb 89bd beac b43d 8fd3 54be
-0.25433472 0.18874922 0.370274 0.07366966 0.22058812 0.0016286921 0.23806581 -0.031576257
-0.0917307 -0.09190475 0.040042043 0.18133307 -0.35815892 -0.008013442 0.18678632 -0.19967827
-0.12340174 -0.14780064 0.007918536 0.09085534 0.11322493 0.19747211 0.00242095 0.12870258
0.19620362 -0.021683633 0.17279543 -0.020365037 -0.14915393 -0.1085794 0.2655721 -0.25416413
-0.11752418 0.0124197425 -0.08878215 -0.22753309 -0.041091174 -0.16223186 -0.106115915 -0.19156615
0.15227357 0.09757847 0.15344392 -0.150304 -0.041985683 -0.026821647 0.17336713 0.26516291
0.17089975 0.17690925 -0.040480275 -0.13863271 0.11459334 0.043198127 0.30246854 0.06088334
0.046137903 -0.1186687 -0.05426231 0.20385978 0.114598446 0.14124571 -0.092381954 0.031283632
0.26111972 0.018907141 -0.12859398 -0.071090646 -0.039894402 -0.022864442 0.11566179 0.066178605
0.218441 -0.09153398 -0.13611066 0.029407196 -0.028516589 0.104947336 0.20351613 -0.3108108
-0.2613569 0.08336981 -0.07522954 0.05188762 0.081015415 0.18614574 -0.116786905 0.013196383
-0.24792057 -0.031690132 0.06573539 0.12225511 0.057244226 0.120601386 0.14318624 -0.078751616
-0.09690243 -0.22667377 -0.14064388 0.16629586 -0.033068147 -0.19220705 -0.050455917 0.24059168
-0.21716489 0.08509118 -0.035903413 -0.17181782 0.21804956 0.15832993 0.044571735 0.094860144
0.043444037 -0.15887052 -0.22132032 -0.050894707 0.057099883 -0.070937715 -0.19739859 -0.19975746
0.009416815 -0.072526544 -0.06570183 -0.12691475 0.16756694 -0.017649958 0.060054995 -0.06979682
0.18500878 -0.03097901 -0.091527715 -0.022977673 0.08078328 -0.072228156 0.11687709 -0.20466237
0.1415529 -0.01846619 0.07659866 0.1841008 -0.023446199 -0.13778828 -0.19807084 -0.015588305
-0.063270144 0.12338385 -0.22971192 -0.17663759 0.2368631 -0.23206955 0.09204785 0.017888967
0.121384434 -0.016662436 0.10855929 -0.01620481 0.06370391 0.19324002 -0.13713737 0.16903143
-0.29814976 -0.046757165 0.13678677 -0.095163636 -0.0890569 -0.14983475 -0.032530256 -0.13173392
0.0071516912 0.054156493 0.19189894 -0.18676817 -0.03599329 0.20929715 0.16563222 -0.19234614
-0.08899692 -0.085229166 0.05916857 0.043403815 0.21207124 -0.08839351 -0.27680743 -0.25056535
-0.1907549 -0.23293024 0.118780956 0.20302983 0.0006794768 -0.1023073 0.02266172 0.22588667
0.11438163 -0.10265212 -0.14487796 0.1607764 -0.023921236 0.17282727 -0.20452677 -0.14531061
-0.118536994 -0.0007042023 -0.17237139 -0.02996139 -0.18217292 0.11663464 0.20101054 0.26338086
0.23355375 -0.12277798 0.16798489 -0.14247306 -0.088733405 0.024714405 0.22112042 -0.16521482
-0.019291734 -0.18070795 0.07093086 0.16902861 -0.038288023 -0.020381488 -0.220923 -0.19923286
-0.09065254 0.13443165 -0.12974702 -0.047215603 0.26009032 0.18562193 -0.017576005 -0.16696148
0.10756539 0.09429382 -0.0684043 -0.076411135 0.007442105 0.09181263 -0.1227275 -0.013045073
0.055295717 0.13259263 0.23385446 -0.028249595 0.011379342 -0.023443762 -0.15967977 -0.2637472
-0.24262573 -0.052148607 -0.047113866 -0.03926419 0.017478459 -0.06731387 0.088220105 -0.20783828

fc1.bias f4 [40]
00000000: 38a6 023e f417 30be 2b56 0cbe d1d8 7cbd
00000010: 2d28 863d 4695 493e e6d0 32be 80ac d83d
00000020: dd6b 533e 40f8 1fbe 7414 5c3e 1b59 683e
00000030: a576 883d 007c 4b3e 0ebb 20ba b480 cdbc
00000040: f5c1 433e 6210 38be 522a 63be a3db 383d
00000050: 725f 92bd 04e4 4dbe 0286 90bd 8dea a83c
00000060: 681c 723d e257 48be 9b32 14be 2989 23be
00000070: 12c3 c63c aa79 81bd bf78 6c3e 7375 4cbd
00000080: d6a6 fc3c c38e cd3d cfac 1a3e d9f3 d33d
00000090: 6c96 15bd af65 64be 990b e1bd a24f babc
0.1275872 -0.17196637 -0.13704745 -0.06173021 0.06550632 0.1968585 -0.17462501 0.10579777
0.20646615 -0.15622044 0.21492177 0.22690241 0.06663255 0.19871521 -0.0006131389 -0.025085784
0.19116957 -0.17975 -0.22184113 0.045131337 -0.07147111 -0.20106512 -0.0705681 0.020619655
0.05910912 -0.19564775 -0.1447243 -0.15970291 0.024262939 -0.06322034 0.23092936 -0.049916696
0.030841272 0.10036995 0.15104984 0.103492446 -0.036520407 -0.22304414 -0.1098854 -0.02274305

fc2.weight f4 [4, 40]
00000000: 0d2b 4bbe 2942 42be e324 223e d5d3 8ebe
00000010: e702 25be 1c20 f53c c337 02be c6ae a5bd
00000020: 1ba9 883d f0e1 a23d 791f 1e3e 4a04 3bbc
00000030: cf1a 3ebe 46fa ca3d f8c1 553e 7516 0abe
00000040: f8d6 80be d462 033e eb72 c7bd 5e4b 703e
00000050: 72ea ee3d 150d c53d baa7 13be ca87 263d
00000060: 5d93 08bd 1406 bfbd 1ac0 1ebd e04c 243e
00000070: 59df d73d 0088 013e 1f0a 82be ebe9 e93d
00000080: ca0b d2bd f23c 8cbd f72e a6be 47aa b9bc
00000090: 13fc 633e eaa0 303e 5da2 adbe 59a2 92be
000000a0: 02b6 8cbd 40ba 28be 44ab 413d dedb ad3d
000000b0: 096f ffbd fa5e f53d 3bf2 1b3d 8798 ec3d
000000c0: 0c05 70be 000d ac3d 519b cebd 07aa 373d
000000d0: 6d7a 3abe c0c7 d6bd f0ce 8cbd c61e 9cbe
000000e0: de33 183b 7e0b 50bd e579 a0bd 9cb5 3cbe
000000f0: 205a 063e e38b 9abc 5ea7 87bc 462c 43be
00000100: 524b 8b3d ca59 a2bd e23f 8a3c ce24 023e
00000110: 914c fd3d 85a9 ed3d 8f0c bb3d 0b67 20bd
00000120: 3ef9 93bd 813d 20be 08b3 f03c 4242 1ebd
00000130: b47d b4bd c7b1 04be 26e8 9d3d 1b08 3b3d
00000140: 891d 343d 925e 5cbd 35a3 48bc 867f f53d
00000150: 5c11 2cbe e4eb 9c3d 720b a5bc df84 d8bb
00000160: a723 00be db0c 9a3c 1dbd 213d 6ad9 a23d
00000170: f7f9 043e 5dc8 e0bd d536 8c3d 1b96 2cbe
00000180: 1759 103e f6c9 5a3a d7e2 34be 2b17 92bd
00000190: dccd dc3d 59c1 17be e7ea 04be 62a9 19be
000001a0: 042e 183c 229d 3d3d 1931 d6bd b69f c5bc
000001b0: c051 c53d e291 be3c 498b f93d 94f9 56be
000001c0: 14d1 b4bd 0575 003e 68ba 803d bd12 063c
000001d0: 69dc 1cbe 2ad2 3abe 57c5 e13d 133a 6c3d
000001e0: f935 0a3e 126f 4cbd 124b 14bd 3a6e f03d
000001f0: e835 9a3d c1ba cebe 2270 023d 313f c1be
00000200: 126b 553d da85 44be a933 1c3d d3d6 b3be
00000210: 8fde 1e3e 4654 95bc d237 29be 4ef9 403e
00000220: 98e8 153e f293 e0bd 9939 cc3c c789 8dbd
00000230: eb17 abbe 51f6 943d 836c 1a3e 29c4 1dbe
00000240: f0bf d8be abd7 e73c 66d8 f73d 376f 13be
00000250: 5f34 d9be a714 ebbc 8f17 f63d 1fe9 05be
00000260: c1bf c33d c98c 103e aefc 773d e123 433e
00000270: 82c5 f6bd 6c2a 1cbe efb6 cb3d 43d1 3a3d
-0.19840641 -0.1897055 0.15834384 -0.2789599 -0.16114388 0.029922538 -0.12716584 -0.08089976
0.06672879 0.079532504 0.15441693 -0.011414597 -0.18564914 0.09911017 0.20874774 -0.13485129
-0.25164008 0.12830669 -0.09738716 0.2346625 0.11665811 0.09621636 -0.14419451 0.040656842
-0.03334366 -0.09327331 -0.03875742 0.1604495 0.10540647 0.12649536 -0.25398347 0.114215694
-0.10256155 -0.06847562 -0.32457706 -0.022664202 0.22264127 0.17248884 -0.33912936 -0.28639486
-0.06870653 -0.16477299 0.047282472 0.08489202 -0.1247235 0.11981006 0.038072806 0.1155253
-0.23439425 0.08400917 -0.10088218 0.044839885 -0.18210764 -0.10487318 -0.06875408 -0.30492228
0.0023224275 -0.05079221 -0.078357495 -0.18428653 0.13120317 -0.018865531 -0.0165593 -0.19059858
0.068014756 -0.07927282 0.016876165 0.12709352 0.123681195 0.11604599 0.09133255 -0.03916077
-0.072252735 -0.15648462 0.029382244 -0.038637407 -0.088130385 -0.12958442 0.077102944 0.045662027
0.04397348 -0.053801127 -0.012245943 0.11987214 -0.16803497 0.0766218 -0.02014706 -0.0066076363
-0.125136 0.018804958 0.039486993 0.07951625 0.12985979 -0.10975716 0.06846396 -0.16854136
0.14096485 0.00083461346 -0.17664658 -0.07133325 0.10781452 -0.1481985 -0.12980233 -0.1500602
0.009288315 0.04629243 -0.104585834 -0.024124008 0.09634733 0.023262922 0.1218477 -0.20993644
-0.08828941 0.1254464 0.06285554 0.0081831785 -0.15318455 -0.18244234 0.11023968 0.05767257
0.13497151 -0.049910612 -0.036204405 0.11739774 0.07529813 -0.40376857 0.03184522 -0.37743524
0.052104063 -0.19191685 0.038135204 -0.35124835 0.15514587 -0.018228661 -0.165252 0.18845102
0.14639509 -0.10965718 0.024929808 -0.069110446 -0.33416685 0.072735436 0.15080456 -0.1540686
-0.42333937 0.02830108 0.121018216 -0.14397894 -0.42422768 -0.028696371 0.12016212 -0.1307721
0.095580585 0.14116205 0.06054371 0.19056655 -0.120493904 -0.15250558 0.09947001 0.045609724

fc2.bias f4 [4]
00000000: 0cd2 a03d 4c8a 223e e3d0 7aba 4178 0bbe
0.07852563 0.15873069 -0.000956787 -0.13620092
