task1/T1_to_T2_Gaussian_mcd_encoder.pt (torch, 46735 bytes, 8 tensors)

fc1.weight f4 [48, 140]
000000 b3 03 29 3d 82 69 8e bc 02 b6 15 bd 78 4a 8a bd
       0.041263293 -0.017384294 -0.03655053 -0.06752485
000010 14 12 d7 3c a1 4f e3 bd ff 15 3d bd 63 1d 92 bd
       0.026253738 -0.110991724 -0.046163555 -0.07134511
000020 77 c2 9e bd 71 2a 8d bd 36 5a b9 bd 93 91 5c ba
       -0.07751935 -0.06892861 -0.090504095 -0.0008414026
000030 ea 05 62 bc 2a 10 d3 bc 0b d6 88 bd 5c db ac bc
       -0.013795355 -0.025764544 -0.066814505 -0.021100692
000040 39 ea 75 bd fc 2f 0c be 11 85 4e bb c3 97 ed bd
       -0.060037825 -0.1369018 -0.003151242 -0.11601212
000050 67 f9 61 3d a3 cb 2d be db 2e 8a 3d 80 1d 15 be
       0.05516949 -0.16972212 0.06747218 -0.14562035
000060 dc 87 ad 3d 62 13 d8 bd b7 5d 23 bd 4c 4b 14 be
       0.08473179 -0.10550572 -0.039884295 -0.14481848
000070 c6 20 9c 3d 15 a4 6e be f8 6c 85 bd 37 26 53 be
       0.076234385 -0.2330478 -0.06514925 -0.20620047
000080 34 30 8e 3d ae 8b 34 be ef a3 7e bd 21 52 60 be
       0.06942788 -0.17631409 -0.062168058 -0.2190633
000090 c7 ff 55 3d ef d1 a9 bd e6 bd bd 3d 41 cf 19 bd
       0.05224588 -0.08291995 0.09264736 -0.03755117
0000a0 b0 cb aa 3d ae 41 b5 bd 68 9d d8 3d c0 9b 6f bd
       0.083396316 -0.08850418 0.10576898 -0.058498144
0000b0 4f 74 19 bd 02 40 0e be 87 d6 f5 3b c0 63 ba bd
       -0.037464436 -0.13891605 0.0075023803 -0.09101057
0000c0 19 d6 a1 3d 2b 06 70 bd 51 fc 08 3c 25 70 0b bd
       0.07902164 -0.058599632 0.008360938 -0.034042496
0000d0 de 6d 58 ba fa b0 19 be e6 a7 46 3d 8e 68 87 bd
       -0.00082561176 -0.15008917 0.048499964 -0.06611739
0000e0 d2 e2 35 bd 8d 56 67 bd e7 6b 82 bb f2 56 3f bd
       -0.044405766 -0.056479026 -0.003980148 -0.046713777
0000f0 29 15 2f 3d 92 4d b3 bd f1 cd 8e bd 66 de e2 3d
       0.04274479 -0.0875503 -0.06972874 0.110775754
000100 1f 87 83 3d d1 9b ea bc 0a ef ac 3c 7d 17 fa bd
       0.06422257 -0.028638752 0.021110076 -0.12211511
000110 b0 77 a0 3d 0b bb 4a bd 10 b8 b3 3d 6f a4 51 3c
       0.078353286 -0.049494784 0.087753415 0.012795552
000120 50 35 ad 3d 6c f7 e7 bd 48 a7 f4 bc fc 1a 5f bd
       0.08457434 -0.11326489 -0.029864922 -0.054469094
000130 5a 56 93 3d b7 be 2a be 30 e0 31 3d 13 76 a3 bd
       0.07194205 -0.16674314 0.043426692 -0.07981505
000140 4c 26 17 bd 1b 5d f0 bd b0 cc 26 bd 2c d0 13 be
       -0.036901757 -0.117365085 -0.04072255 -0.1443488
000150 8f 9d c9 3d 3b 14 0e be 80 3a b8 3d 6f 2d 36 bd
       0.09844505 -0.13874905 0.08995533 -0.044476923
000160 16 4c 1e 3d b7 14 bc bd cd f0 db 3d d8 d3 a5 bd
       0.03864678 -0.091836385 0.107392885 -0.080970466
000170 6f 16 0f bc e2 95 6e 3c 39 bb 0b 3d db e2 f7 bc
       -0.008733376 0.014562102 0.034114096 -0.03025954
000180 a4 e5 19 bd 50 6c 3c bd d7 c6 2c bc 52 e7 32 be
       -0.037572518 -0.046001732 -0.010545454 -0.17471054
000190 9a b1 db bd 7e ee 1f bd 47 ed 3a be e9 f2 6b bd
       -0.10727234 -0.039045803 -0.18254577 -0.057604704
0001a0 b8 fe 49 be 3c 70 01 3e 76 32 86 be 53 9a de 3d
       -0.19726074 0.1264047 -0.26210374 0.10869279
0001b0 89 7b 89 be 8f 0b a5 3d 65 7b 26 be 75 e0 ae 3d
       -0.26852062 0.08058845 -0.16258009 0.085389055
0001c0 ea da 37 3d dd 21 64 3c 09 c5 87 bd 1c 0e c0 3d
       0.044886507 0.013924089 -0.06629378 0.09377691
0001d0 c0 4c 09 bd 00 86 d8 3d d0 96 9b bd c6 e0 d1 3d
       -0.03352046 0.105724335 -0.075971246 0.1024795
0001e0 d8 11 45 3d 0e 91 ca bc 1c 5d 2c bd 92 5c 90 ba
       0.04811272 -0.02472737 -0.042080984 -0.0011013916
0001f0 82 df 0c 3d 96 35 b5 bc 74 dc 52 3d 04 92 d8 3c
       0.03439284 -0.022120278 0.05147977 0.026436813
000200 c5 b4 22 3d 80 a7 ee bc 73 57 05 3d 20 74 4f bd
       0.039723177 -0.029132605 0.0325541 -0.050647855
000210 5c 85 40 bd 6f a0 23 3d 1d 94 9f bd ca 2f 8f bd
       -0.04700218 0.039947923 -0.07791922 -0.06991537
000220 e5 d3 de bd 4a 89 82 3d c0 f1 3a 3d bc 66 00 bc
       -0.108802594 0.06373842 0.045640707 -0.007836994
000230 e4 c8 cb 3c 7a f8 72 bd 48 08 f8 bd c7 9f 47 3d
       0.024876066 -0.059318997 -0.121109545 0.04873636
000240 cb 0b 8f bd ad 24 51 3c 08 06 cc bd b2 3f 17 3d
       -0.06984671 0.012765092 -0.09962088 0.03692598
000250 0e ee 3a be 12 aa 11 3e 6d 13 c4 bd a5 64 fb 3d
       -0.18254873 0.14225033 -0.09574018 0.12275056
000260 79 cb 29 3d c7 76 ec 3d 1c 4c cb bd 45 d3 56 3c
       0.041453812 0.115460925 -0.09926626 0.013111894
000270 c6 8c e9 3c b7 91 99 3d 9e 66 aa bc 5d d1 3b bd
       0.028509509 0.07498496 -0.020800885 -0.04585396
000280 5a ec 4a bd 60 cc a9 3c 4d 5a cf 3d 24 18 0f be
       -0.04954181 0.020727336 0.101246454 -0.13974053
000290 00 4d 83 3c 8c 0a 6f bd c1 9b e9 3c a3 ae c7 bd
       0.016027927 -0.058359668 0.028516652 -0.09750106
0002a0 90 14 a0 3d d0 0f 9d bc 22 45 5f 3d 3a e0 cc bd
       0.07816422 -0.019172579 0.05450929 -0.10003705
0002b0 a1 db 40 bd 15 75 f0 bd 93 ca a2 3d b2 16 62 be
       -0.047084454 -0.117410816 0.07948794 -0.2207897
0002c0 8f f6 fd 3c 67 d3 27 be 9c 10 a0 3d 9a 6a 96 bd
       0.031001357 -0.16389237 0.07815668 -0.073445514
0002d0 03 63 93 3d d6 af 1c be 31 59 94 3d 1b 25 b7 bd
       0.07196619 -0.15301451 0.072435744 -0.08942624
0002e0 9a 94 ba 3c 31 32 b7 bd 91 b5 e4 3d 7c 34 79 be
       0.022775937 -0.0894512 0.111674435 -0.24336427
0002f0 ab 21 e7 3d b4 1b 4b be 16 b6 c4 3d fb af 57 be
       0.112857185 -0.19834787 0.09605043 -0.21063225
000300 14 4c 81 3d 38 f6 93 be 5b 9f 21 bd 54 32 88 be
       0.06313339 -0.28898787 -0.039458614 -0.26600897
000310 bc 56 98 3d 52 06 f5 bc a5 b6 ec ba 39 25 02 3e
       0.07438418 -0.02991024 -0.0018059803 0.12709512
000320 3d 96 9e bc d5 03 d2 3e 30 aa 1b bd 95 62 0c 3e
       -0.019358749 0.4101855 -0.0380041 0.13709481
000330 d4 63 32 bd 45 1f 23 be 85 53 8a bd b9 22 32 bd
       -0.043552235 -0.15929897 -0.06754211 -0.043490145
000340 17 09 45 bd d1 fb 7c 3d ac 0b a7 bb 54 74 09 3c
       -0.048104372 0.06176359 -0.005097827 0.008389551
000350 12 bd 68 3d 0b b2 82 bd 5a 04 65 bd 4a e3 47 bd
       0.056820937 -0.06381615 -0.055912353 -0.048800744
000360 9c 11 ec bd 76 7f 89 bd 3c 07 81 bd 16 07 8b bd
       -0.11526796 -0.06713764 -0.06300208 -0.06788461
000370 5f c6 57 bd 99 c3 03 bd 99 e4 ba bd 62 75 ac 3b
       -0.052679416 -0.03216896 -0.09125633 0.0052630166
000380 5c eb cd bc f4 9d 7f 3c 25 b9 c6 3c 7d 4f 11 bd
       -0.025136642 0.015601624 0.024258206 -0.035476197
000390 52 bb 50 bd f9 1f 8b ba 35 bc 68 bd 88 45 1f 3d
       -0.050959893 -0.0010614387 -0.056820113 0.03888467
0003a0 df 4e 23 bc af 04 74 3c fb db 30 3c 76 9d 0c 3e
       -0.009967535 0.014893695 0.010794635 0.13731942
0003b0 7b 7b 24 bd 05 60 91 3d 3e fb 1b bb e6 0d 4a 3e
       -0.040156823 0.070983924 -0.0023800875 0.19731864
0003c0 5c b1 dc bd cc 5c 39 3e ce 1e 61 bb 94 3a b9 3d
       -0.10776016 0.18101805 -0.0034350636 0.09044376
0003d0 87 80 0b bc fd a7 a1 3d 14 ac 7a bc a9 71 ca bd
       -0.00851453 0.07893369 -0.015299816 -0.0988496
0003e0 38 6f 76 be c0 27 a5 bd 5a 20 90 be 5d 60 eb 3d
       -0.24065864 -0.08064222 -0.28149682 0.11492989
0003f0 44 17 b5 3d 14 0a 5e bd bc 06 d6 3e aa 8d 33 be
       0.08842328 -0.05420883 0.41802013 -0.1753451

fc1.bias f4 [48]
000000 b5 e0 87 bd 4e 57 85 bd cb bc 4f 3c 5d 76 29 3d
       -0.06634656 -0.06510793 0.012679289 0.041372646
000010 84 25 97 3d f4 77 96 3d ad 79 a7 3d 46 5e 9a bd
       0.073802024 0.07347098 0.08177505 -0.075375125
000020 88 7e 87 3d 60 2d 11 bb a0 6b 1d 3c 6f 8e 0e 3d
       0.06615931 -0.002215229 0.009608179 0.034803804
000030 66 b1 8c bd 8a 7c db 3c 6c 72 41 3d 32 2b 24 bd
       -0.068697736 0.026792783 0.04722826 -0.040080257
000040 27 df 42 3b 6b e1 48 3b c8 3b 89 3d 9c 0c dd 3c
       0.002973506 0.0030651938 0.067008555 0.026983552
000050 ab 61 4e bd af b9 24 bb 10 74 d3 3c b5 c8 f0 3c
       -0.050386112 -0.002513509 0.025812179 0.02939258
000060 88 79 a4 3c ea 13 84 3d e5 e3 22 bb ae 29 71 bc
       0.020077482 0.06449111 -0.0024855074 -0.01471941
000070 3c 76 aa 3d 9f d4 86 3d 5a 07 8b 3d c4 1e ad 3d
       0.08323333 0.06583523 0.067885116 0.08453134
000080 1a 67 b8 3c d1 6b 0f 3d b5 73 c4 3d ac 01 9d 3c
       0.0225101 0.03501493 0.09592382 0.019165836
000090 80 67 0f 3c f2 1e a6 bc 46 09 e4 39 fc ad b1 3d
       0.008752704 -0.020278428 0.00043494458 0.08675763
0000a0 22 48 f1 3c ff 87 9c 3d de 34 74 3d df 1c 5b bd
       0.02945334 0.07643127 0.05962073 -0.05349433
0000b0 02 dc 2f 3d 48 71 1a bc d8 15 4a bd 95 c9 82 3d
       0.042934425 -0.009426422 -0.049337238 0.06386105

fc2.weight f4 [48, 48]
000000 4a 4b 9c 3d 6b f3 fb 3d 44 30 51 3b 70 dd 95 3d
       0.07631548 0.12302288 0.0031919638 0.073176265
000010 02 d9 0b 3e e0 ab 7d bc 5d 86 fc 3d 30 04 88 bd
       0.13657 -0.015482873 0.12330315 -0.06641424
000020 66 ce c2 bd a8 0f 00 be 7d 5c 53 3d 44 4a 5d 3e
       -0.09512024 -0.12505972 0.051601876 0.21610361
000030 d8 df 5e bd 3a 63 1b be 10 5b 2d 3d f2 82 b5 3d
       -0.054412693 -0.1517457 0.042323172 0.088628665
000040 57 e2 bd 3c fa 17 98 3d 40 ed 9f bb f4 5a 01 3e
       0.023179216 0.07426448 -0.0048805773 0.12632352
000050 96 5e 98 3d 25 c6 2c 3e 9c 28 00 3d a7 c4 86 bd
       0.07439916 0.16872461 0.031288728 -0.06580477
000060 31 e0 28 bd 06 3e d7 3d 27 2c e0 3d b1 14 43 be
       -0.04122943 0.10509877 0.109459214 -0.19050862
000070 4c 0c 33 3e b2 b1 0e 3e 52 5a 22 bd c9 bf 45 3e
       0.1748516 0.13934973 -0.039636917 0.19311441
000080 db fc 0f 3e 57 ca 87 bd f3 57 13 bd d7 b8 c6 bd
       0.140613 -0.0663039 -0.035972547 -0.09703224
000090 28 3f 81 3c 12 1d 7f bd 65 87 40 3d 2e 99 36 bd
       0.015777186 -0.062283583 0.047004122 -0.044579677
0000a0 29 9b 20 3c 08 91 cf bc 5e 0f 8a 3d 7d 68 ef be
       0.009802618 -0.025337711 0.06741212 -0.46759406
0000b0 1a f3 a9 bc db fa 85 be 0c ee ca 3d c4 68 f7 bd
       -0.020745803 -0.2616795 0.09908685 -0.12080529
0000c0 c7 9d 2a be b9 02 88 be c6 8c 46 3e c0 aa a9 bd
       -0.1666175 -0.26564577 0.19389638 -0.08284521
0000d0 c4 2b c5 3d ce 51 98 bd 44 ca 3f be 8b c9 6f 3d
       0.09627488 -0.07437478 -0.18729502 0.058541816
0000e0 8a 7b 37 bd e0 a8 82 3b 3b 4b 5f bd f4 32 54 3d
       -0.04479555 0.0039874166 -0.054515105 0.051806405
0000f0 d7 4f b9 bc ae f6 05 3e d8 cb ab bd 88 a4 de bd
       -0.022621078 0.13082382 -0.083884895 -0.108712256
000100 33 9f 3e 3d 96 2a 1c bd 30 07 0e 3e a6 e9 b0 3d
       0.046538543 -0.03812655 0.1386993 0.08638315
000110 67 de b3 3b 52 17 e5 bd 4e a2 ad 3d 8b 86 2d 3d
       0.005489159 -0.111860886 0.08478223 0.04236464
000120 53 7d a0 3e e3 50 56 bd f6 d5 0e be 9c ea 18 3e
       0.31345615 -0.052323233 -0.13948807 0.14933246
000130 11 b3 40 be 4a c1 17 be 92 b6 78 bd b3 86 8a bd
       -0.18818308 -0.14819828 -0.060720988 -0.06763973
000140 f0 26 2a be c9 36 65 be 88 79 da bd 9e cc 91 3d
       -0.16616416 -0.2238418 -0.106677115 0.07119106
000150 fc e8 b6 bc cf de 0c 3e 49 f9 81 3d db b2 ca be
       -0.022327892 0.1375687 0.063463755 -0.3958958
000160 d6 d8 24 3e 3b 17 55 be a1 7d 90 3d 57 73 93 3e
       0.16098341 -0.20809643 0.07055212 0.28798935
000170 a4 9f b6 39 ca fb 89 3e cc 03 3e bd 9d 50 ca bd
       0.00034832687 0.26949912 -0.04639034 -0.09878657
000180 3f c6 25 3e b2 b5 b3 be f6 c3 f4 3d 69 ac ae 3e
       0.16188906 -0.3509956 0.11951439 0.34115914
000190 b4 2d e8 bc 04 bc ec 3d 9c a8 60 be 1d 9d 12 3e
       -0.028342105 0.11559299 -0.2193932 0.14317746
0001a0 7e 86 85 3d 62 8f 06 3e ca 53 da bd 10 01 17 3e
       0.06519793 0.13140634 -0.10660513 0.14746499
0001b0 81 b3 ed bd 69 10 40 3d cf 4a b9 bd f0 0e 0e 3d
       -0.11606503 0.04689065 -0.09047472 0.034682214
0001c0 4b 00 c1 bd eb 31 92 3e 10 d0 44 bc c8 75 b1 bd
       -0.09423884 0.2855371 -0.012012497 -0.08665043
0001d0 8e 53 8f 3e 5e bf 9d 3e c8 71 0c 3e 93 14 5f 3e
       0.27993435 0.30810064 0.13715279 0.21785192
0001e0 79 ca aa 3b 0c 47 26 3e 5f a2 7a 3e 72 43 3d bd
       0.005212125 0.1623804 0.24476002 -0.0462069
0001f0 ca 81 bd be d1 ea 20 3e 41 8b 2c 3e 7c 90 28 3e
       -0.37013084 0.15714575 0.16849996 0.16461366
000200 28 f8 97 3e 30 99 74 3e 85 aa 82 3e 30 a9 61 bc
       0.29681516 0.23886561 0.2552072 -0.013773248
000210 40 ed b5 bc 57 92 db bd 5b 4b 88 3e 12 fe ae be
       -0.022207856 -0.107212715 0.26619992 -0.34178215
000220 b6 96 79 bd 21 a1 25 3e 20 f0 a7 be d5 8c cd 3e
       -0.060934745 0.16174747 -0.32800388 0.4014651
000230 50 7b 3d 3d b7 2f 66 3d 5a 57 0f bd 49 f7 d2 bd
       0.046260178 0.05619785 -0.034995414 -0.10301072
000240 f8 4e 49 be 6a 3f d6 bd e5 eb 18 be 7a df 22 be
       -0.1965903 -0.10461314 -0.14933737 -0.15905562
000250 40 b6 13 3b 34 5c b0 bd c0 b8 cd 3c 3e 69 af 3d
       0.002253905 -0.08611336 0.02511251 0.08564995
000260 c8 ba bd 3d 5b 34 07 be b7 75 f7 bd d3 ad 86 be
       0.09264141 -0.13203566 -0.12082999 -0.26304492
000270 44 cc a8 bd 6e 16 3e 3e 80 7d ed 3a 0c 21 b6 3d
       -0.082420856 0.18563244 0.0018119067 0.08893022
000280 44 f9 d8 3c 3f 88 76 be 3e a7 fa bd 40 35 07 bd
       0.026486047 -0.24075411 -0.1223893 -0.033009768
000290 11 d2 87 be b5 5d 66 be bd 9a dd 3d 0b 8f 77 be
       -0.26527455 -0.22496684 0.108205296 -0.2417566
0002a0 ad be 04 3e b0 24 ae be d1 1e a0 be 45 ec 3a bd
       0.12963362 -0.34012365 -0.3127351 -0.04563548
0002b0 63 3c dc bd 73 00 4c be de 82 a8 be b0 88 f0 bd
       -0.10753705 -0.19922046 -0.32912344 -0.11744821
0002c0 30 a8 d0 bd 2a 91 3f be 40 ce ae bd 62 7a ce bd
       -0.10188329 -0.1870772 -0.08535433 -0.100819364
0002d0 e0 a0 7e bc 5f 5d f0 3d a2 76 ab be 2d c1 54 3e
       -0.015541285 0.11736559 -0.33488947 0.20776816
0002e0 51 4e 13 3d 5a 2a b3 bd 59 41 0f bd 23 b8 83 be
       0.03596336 -0.08748312 -0.03497443 -0.25726423
0002f0 72 de 07 3d 92 bb e9 3d d8 fc 00 be 7e 9b 98 3d
       0.033171125 0.11412729 -0.12596452 0.07451533
000300 de 2a a9 3d c2 26 63 bd 64 90 86 bb 5d 88 fb 3c
       0.082601294 -0.055456884 -0.004106568 0.030704672
000310 a0 8f 87 3b a0 a6 82 3b 36 84 2e 3d 33 b5 d5 3b
       0.0041369945 0.0039871484 0.042606555 0.006521845
000320 f6 0e 07 3e d8 ea f5 3d 90 59 54 bd 15 a4 05 3e
       0.13189301 0.120076835 -0.051843226 0.13050874
000330 52 ae a8 bd 58 22 07 3b 54 3b 03 3d 36 9c be 3d
       -0.08236374 0.0020619836 0.032039 0.093071386
000340 04 10 79 3e 9e c0 8c bd 18 72 e1 bc 75 2f ac bd
       0.24322516 -0.06872676 -0.027520224 -0.08407489
000350 6f 29 15 3c 28 ec 14 3e 2b 0f 77 3d 9e 85 97 bd
       0.009104117 0.14543211 0.0603172 -0.07398532
000360 ec 32 f4 3d ab ba 52 3d 4b 46 5a bc fc da 4c bc
       0.11923775 0.05144755 -0.013322423 -0.012503382
000370 21 f6 4e 3e 0b f3 3e 3e 61 c5 91 bc 8d 2f 2a bd
       0.20211078 0.18647401 -0.017794313 -0.041549254
000380 08 f3 26 3e cb 32 17 3e 62 a6 9d 3d a8 fd e5 3d
       0.16303647 0.1476547 0.07697751 0.11230022
000390 aa cd 9a bd 36 ef 4a 3d ba b6 f9 3d 32 a0 b3 3d
       -0.075587586 0.049544536 0.121930555 0.08770789
0003a0 50 92 f8 bd 03 6f 5c bd e0 4c e7 3d 5c c8 fb be
       -0.12137282 -0.053816807 0.112939596 -0.491763
0003b0 ab 62 2f 3d 1c d8 8b 3d 6a 19 40 bd 84 66 6f bd
       0.042818706 0.06828329 -0.046899237 -0.058447376
0003c0 3a 0b 52 3e e7 a4 e6 3d 2b 44 3e 3e d8 38 c1 3d
       0.20512095 0.112619214 0.18580692 0.0943467
0003d0 b0 96 29 bc f4 e9 31 3d 4e b3 44 3d 81 85 c6 bd
       -0.010350868 0.043436006 0.04802256 -0.096934326
0003e0 f8 d8 ea bd c8 a9 8b 3c 34 a7 1d bc 11 22 2d 3e
       -0.11467165 0.017048731 -0.009622384 0.16907527
0003f0 0a 8a ca bd 95 7b 0e be 7d cf 85 bd 82 96 e2 bd
       -0.0988961 -0.1391433 -0.06533716 -0.11063863

fc2.bias f4 [48]
000000 a0 56 19 be 2a 15 da 3d 52 d2 e4 bd 32 5e 1c 3e
       -0.14974451 0.10648568 -0.11172928 0.15270308
000010 b7 28 e1 3d 7b 95 0a bd 08 3c 1f be 89 ed fe bd
       0.10994094 -0.033833962 -0.15550244 -0.1244765
000020 66 f7 63 3d 60 da 2d be 51 9b 20 3a 31 9b ed 3d
       0.05565586 -0.16977835 0.00061266596 0.11601866
000030 17 3b d9 bd 00 39 2f bd f0 96 5e bd c2 57 d7 3d
       -0.106069736 -0.04277897 -0.054343164 0.10514785
000040 09 45 22 bd 1b c0 0c be 82 9e 2f bd 02 ae e2 bc
       -0.03961662 -0.13745157 -0.042875774 -0.027670864
000050 c8 e4 8e bb b1 78 81 3c 73 fa 83 bc 99 24 aa 3d
       -0.004360769 0.01580462 -0.016110634 0.08307762
000060 c1 67 8b 3b 9f 2b bf bd 8d 27 76 3c 7e 26 c9 3d
       0.004254312 -0.09334492 0.015024078 0.09821795
000070 42 23 ff 3d b3 d6 95 bd 94 7e 61 3c 95 56 40 be
       0.12457897 -0.07316341 0.013763089 -0.18783028
000080 df 79 87 3d 10 e9 fb 3d 2e ac 3f be f8 0e 04 3e
       0.06615042 0.123003125 -0.18718025 0.12896335
000090 32 f3 06 be 35 aa 7d bd dc 52 91 3d 26 41 3b be
       -0.13178709 -0.0619299 0.07095882 -0.18286571
0000a0 3e 54 b9 3c fc d2 3e 3e e3 f4 a8 3d 16 f4 97 bc
       0.022623178 0.18635172 0.082498334 -0.018549006
0000b0 1d c1 8d 3d 86 38 8d 3d e5 11 0d be db 25 79 3d
       0.06921599 0.068955466 -0.13776357 0.060827117

z_loc.weight f4 [20, 48]
000000 73 3d a8 3e 4e dd 04 be 5d 97 c1 be 0d 0b 14 be
       0.32859382 -0.12975046 -0.37810794 -0.1445734
000010 20 e8 5f 3e df 66 cf 3c 01 99 ff 3d 1a 54 3d be
       0.21865892 0.025317607 0.12480355 -0.18489113
000020 05 ab e8 bd 4b ac be 3e f7 8a 7f be 08 27 05 bf
       -0.113607444 0.37240824 -0.24955355 -0.5201268
000030 a5 bc ca 3b 2d 81 85 bd 48 f3 aa be c6 64 23 be
       0.006187039 -0.06518779 -0.33388734 -0.15956411
000040 08 63 72 3e 46 71 27 3e a0 be d3 bd aa 1a 0e 3e
       0.2367059 0.16351804 -0.10339093 0.13877359
000050 04 92 20 bd c8 dd 91 bd cf 2a ed 3d f1 16 1e bc
       -0.03920175 -0.071223795 0.11580431 -0.009649024
000060 ca 63 49 3e 52 ba ab be 82 5b 0e be ad 48 79 3e
       0.19666973 -0.3354059 -0.13902095 0.2434413
000070 33 dc f4 be f5 e0 67 be 71 ac 0f 3e b4 1f 24 bd
       -0.4782425 -0.22644408 0.14030625 -0.040069297
000080 ee e8 b4 3e 20 4c ab bb 6e c2 67 be 92 f4 b4 3d
       0.3533396 -0.0052275807 -0.22632763 0.088357106
000090 e3 56 c0 3e 5e e7 9d bd eb 19 a9 3d 89 d2 65 3e
       0.3756629 -0.077101454 0.082568966 0.22443594
0000a0 94 44 de 3e bd e8 95 3e e3 87 98 be 2c 02 55 bc
       0.43411696 0.29279128 -0.29791173 -0.013001006
0000b0 08 88 fe be 72 1a 2f 3d 94 60 14 be d8 5d cc 3e
       -0.4971316 0.04274983 -0.14489967 0.39915347
0000c0 af 96 c1 3d a4 16 0f 3d b2 75 f2 bd 2c 69 4c 3e
       0.09452569 0.0349337 -0.11838855 0.19961995
0000d0 cb 9d 24 bc ef c8 77 bd 45 02 2c 3e 7c 79 12 3e
       -0.010047386 -0.06049436 0.16797741 0.14304155
0000e0 39 95 02 3e ec 88 1a bd 59 74 a1 3c 72 0a 60 bd
       0.12752236 -0.037728235 0.0197088 -0.05469746
0000f0 8c 8f 29 bd a6 e0 de bc 71 6a d5 3c bc c3 19 bc
       -0.041396663 -0.02720673 0.026051732 -0.009385046
000100 1d dd 8c bc 1d ab 8d 3d 73 f2 a4 3b 38 65 36 be
       -0.017195279 0.06917403 0.005033785 -0.1781205
000110 20 fe f1 bc df 18 8c bc 1b 4c 94 3e a3 fd 65 3e
       -0.029540122 -0.017101703 0.28964314 0.22460036
000120 75 a4 a0 3e 3c 2a 2f be 58 82 77 3d 5e 56 cb bd
       0.3137547 -0.17105955 0.06042704 -0.099285826
000130 f2 49 f5 bd 3d 00 0e 3d 32 5e 40 be 09 23 98 bc
       -0.119769946 0.034668196 -0.18785933 -0.018571394
000140 89 e7 6d 3d 55 de 32 3e e0 64 8b bd 44 6a 94 be
       0.058082137 0.17467625 -0.0680635 -0.28987324
000150 51 1e 11 3e 8d 5e 6b 3e 0b 80 2f be 9f 9f 24 3c
       0.14171721 0.22985287 -0.17138688 0.010047822
000160 f5 6b 35 3e c4 88 0f bd a9 57 17 be a1 75 2b be
       0.17716964 -0.03504254 -0.14779533 -0.1674409
000170 4c 03 a1 3d cc 3d 2d be 26 1a b4 bd f2 58 d0 3d
       0.07861957 -0.16918105 -0.0879405 0.10173215
000180 e8 4f fe 3d ad 35 82 be 56 36 92 3d c8 9c bf 3d
       0.12417585 -0.25431576 0.0713927 0.093560755
000190 79 6d 1c be 72 d9 6e 3e 2a ef aa be eb c2 bc bb
       -0.15276136 0.23325136 -0.33385593 -0.0057605407
0001a0 29 2c bf bc ac 86 6f 3e d6 bf be be 62 50 ed bb
       -0.023336487 0.23391217 -0.37255734 -0.0072422484
0001b0 45 06 c0 3e 94 6a c4 3e a1 63 9d bd b9 22 9b be
       0.37504783 0.38362563 -0.07685018 -0.3029993
0001c0 70 6c 86 3e f7 1c 98 3e ca c9 18 be d9 c1 9c 3e
       0.26254606 0.29709598 -0.14920726 0.30616644
0001d0 d9 20 6c 3d 14 d5 80 be b2 df 46 be 12 34 ec 3c
       0.057648513 -0.25162566 -0.1942127 0.028833423
0001e0 f8 54 99 3e 83 d5 86 be c7 e4 cf be 28 4b 55 3e
       0.2994764 -0.26334772 -0.4060423 0.20829451
0001f0 c9 72 e6 3d b9 aa 32 be f7 52 c7 3e f9 7a 89 3c
       0.11252362 -0.17447938 0.38930485 0.01678227
000200 32 6f 1f be 0c d1 9d bd aa 35 8e bd 16 0a 46 3e
       -0.15569761 -0.07705888 -0.06943829 0.19339785
000210 a5 41 71 3c 60 81 c6 bd 35 24 99 3e f9 74 02 bf
       0.0147251235 -0.09692645 0.29910436 -0.50959736
000220 54 2a 6d be 5d 43 0e 3d 3c 1d b0 be 0c c3 45 3e
       -0.23160678 0.03473221 -0.34397304 0.19312686
000230 41 4c 56 be fe d8 df 3e 15 b6 0f 3e 69 de 29 3e
       -0.20927526 0.4372024 0.14034303 0.16588749
000240 58 0d ed 3c 70 4b a9 3e a3 e3 15 3e 70 25 65 3d
       0.028937027 0.33065367 0.14637618 0.055943906
000250 6c b1 6b bd a0 d5 49 bd 14 80 f4 3e d7 d0 2a 3d
       -0.05754225 -0.049275994 0.47753966 0.04170307
000260 4f 5c 84 3d fb 38 20 bd 92 98 82 3e 95 f4 4f bc
       0.06462919 -0.03911684 0.25507027 -0.01269259
000270 cc e4 93 be bc 58 05 be 61 85 6c bd d1 eb 2c 3e
       -0.28885496 -0.1302213 -0.057744388 0.16886832
000280 e2 9d e6 bd 75 d4 9b be ba cc eb 3d bc 2a 1e be
       -0.112605825 -0.3043553 0.11513658 -0.1544599
000290 6a 6c 40 3d 5d b2 19 3e 69 f7 47 3e 3e 8a f0 3d
       0.04697839 0.15009446 0.19527973 0.117451176
0002a0 e4 0a d5 be a7 9b 4b 3e ec a5 28 3e 2b de f7 bd
       -0.4160987 0.19883595 0.16469544 -0.12102922
0002b0 f4 e3 94 3d 00 86 0b 3e d7 dc 68 be d0 71 42 3e
       0.07270041 0.13625336 -0.22740494 0.18988729
0002c0 07 61 2a bd d6 dc ac 3d ed ac 26 3d 70 77 cc bc
       -0.04159644 0.084405586 0.04069226 -0.024959296
0002d0 de a6 4f be a7 79 76 3e fb d4 1b be 9b e8 90 3e
       -0.20278499 0.24069844 -0.15217964 0.28302464
0002e0 75 f6 08 3e 38 1a 68 be 50 66 40 3e f6 87 a2 3d
       0.13375266 -0.22666252 0.18789029 0.07936089
0002f0 71 b9 07 3d f8 8a e4 be 5f c3 d9 3d 2f ae 0c be
       0.033135835 -0.44637275 0.10632967 -0.13738321
000300 a1 ad 24 be 63 a5 22 bd 31 38 92 3e df a4 dc bc
       -0.16081859 -0.039708506 0.28558496 -0.026934085
000310 03 94 b0 bd 8e f8 3b 3d 49 dd c3 bd 94 b7 a6 bd
       -0.08621981 0.045891337 -0.09563691 -0.081404835
000320 65 df 4d 3c dc a0 5a bd be bb 2e 3e 50 91 af 3e
       0.012565468 -0.053376064 0.17063805 0.34290552
000330 43 cb 0e 3e c6 bc b2 3d 96 97 a1 3e 6b 99 3d bd
       0.13944726 0.08727412 0.31560963 -0.04628889
000340 a2 ad 34 be 18 23 16 bd 16 27 3d be 57 3e e4 3d
       -0.1764436 -0.03665456 -0.18471941 0.11144703
000350 11 87 13 3e 92 f2 23 be 6f 18 5a be 6a 16 21 3d
       0.14406992 -0.16010502 -0.21298383 0.039328016
000360 25 c4 c1 3d 11 e1 77 3d 41 87 1c 3d 72 ec 5d be
       0.0946124 0.060517374 0.038214926 -0.21672228
000370 55 3b 98 3e 94 53 e4 bc 62 e7 a6 3c 1e 45 c8 3d
       0.29732767 -0.027871884 0.020374004 0.09778808
000380 ed fc 46 be 6a da 29 3c 74 c0 2f 3e 29 47 2f 3e
       -0.19432421 0.010367015 0.17163259 0.17116989
000390 ee 78 90 be f1 67 48 be db b9 84 bd a6 6b 59 be
       -0.28217262 -0.195709 -0.064807616 -0.21232471
0003a0 b5 58 cb be 3a 7d 11 bd 57 f6 50 bc 7e a5 42 3e
       -0.39716116 -0.035519816 -0.0127540445 0.19008443
0003b0 bd 79 e0 3e d5 5e ea 3d d1 d5 58 3e e3 bb 87 be
       0.4384288 0.11443869 0.21175314 -0.26510534
0003c0 e7 ec fc bd fa 2c 73 bd 0f bb e0 bd ae 2a 7b 3e
       -0.12349873 -0.059369065 -0.109731786 0.24528
0003d0 ab 16 9b bd 6a e2 02 be bc 96 33 be fa db 48 bd
       -0.07572683 -0.12781683 -0.1753797 -0.04903791
0003e0 08 61 1a 3d c8 2a cb bc e3 4f 95 bd c3 d7 eb bd
       0.037690192 -0.024800673 -0.07290628 -0.11515763
0003f0 79 03 f4 bd c1 d8 83 bd 11 14 b3 bc c9 19 b5 bd
       -0.11914725 -0.06437827 -0.021860154 -0.08842809

z_loc.bias f4 [20]
000000 a6 b0 23 3d d5 72 c2 bd 31 c4 a4 3d 24 fe 45 be
       0.039963387 -0.09494559 0.08045233 -0.19335228
000010 c9 33 33 3e 7e 8e 34 bd d5 0f 27 3e 0c f3 21 3d
       0.17500223 -0.044081204 0.16314633 0.03953843
000020 55 8d c0 3d af fc 94 3d 37 25 0e be da c0 d6 3d
       0.09401957 0.07274758 -0.13881384 0.10486002
000030 92 9e 82 3e c3 3c 9f bb bc ae 17 3a fa 0d de 3d
       0.25511605 -0.0048595383 0.00057862303 0.108425096
000040 05 13 f4 bd 4b 2f 8b bd d3 ad 1f be c9 21 3d 3e
       -0.1191769 -0.0679613 -0.15593652 0.1846992

z_logit_scale.weight f4 [20, 48]
000000 f1 da 26 3b 6a e3 d6 bc 19 b8 ae bb 80 d6 36 bd
       0.002546009 -0.026231486 -0.0053320047 -0.044638157
000010 f1 0c c5 3d c5 55 30 3e a3 30 f5 bb 91 ed 38 3c
       0.09621609 0.17220218 -0.0074826046 0.011287109
000020 ba 8c 3c be 6b 5a 02 3e 78 2d 92 bd 48 e9 f0 bd
       -0.18413058 0.12729804 -0.07137579 -0.11763245
000030 85 c9 b2 3c f8 92 56 bd 4e b2 01 be 2d ed c3 bd
       0.021824608 -0.052386254 -0.12665674 -0.09566722
000040 76 51 96 3c 74 09 f2 3c e5 8c 92 bd a5 97 18 3e
       0.01834939 0.029545523 -0.0715578 0.14901598
000050 65 b8 8b 3d 70 5e c5 3d 04 ba 4a 3d 1f 54 7d bc
       0.0682228 0.09637153 0.049493805 -0.015461951
000060 53 9d 1d be 8b fa c2 bd 11 53 73 bd d1 b2 c0 3c
       -0.15392046 -0.095204435 -0.05940539 0.023522766
000070 14 e5 4a bd 52 eb 70 be 59 e2 08 3e 23 fa 6c bd
       -0.049534872 -0.23527268 0.13367595 -0.057855736
000080 b1 df ba bd 2b 1e d3 bd ca 9f 55 3d e0 37 b9 3d
       -0.09124697 -0.103084885 0.05215434 0.090438604
000090 c1 08 55 3e 52 91 ae 3d 6c a2 52 3e 24 9a 2c 3e
       0.2080412 0.085238114 0.20569772 0.16855675
0000a0 8d bd 7b bd dc 0f cb 3d d7 ce c5 3d 88 92 a3 3d
       -0.061460067 0.09915134 0.09658592 0.07986933
0000b0 d9 72 49 be ed 4e 81 bd 52 12 ef 3d 9f 35 2b be
       -0.19672717 -0.06313882 0.11673416 -0.16719674
0000c0 60 3a 0b be 7e 76 03 3c f8 9b d9 bd 50 dd 8e bd
       -0.13596487 0.008023856 -0.10625452 -0.06975806
0000d0 4f 96 9c bd ea 38 0d 3e c8 94 bb 3d d2 5a d1 bd
       -0.076458566 0.13791242 0.09159237 -0.10222401
0000e0 63 44 1e bd bc 7a 23 3c 7a 4c e3 bc 3a ba 2e 3d
       -0.038639437 0.009977993 -0.027746428 0.04265807
0000f0 e7 ea a0 bd a6 32 a8 bd 05 0c d7 3d 21 66 9e 3c
       -0.07857304 -0.082127854 0.105003394 0.019335808
000100 da 5a 4f 3d 8d 0b b4 3c a5 3c 58 bd be b5 fc 3d
       0.050623752 0.021978164 -0.05279221 0.12339352
000110 44 71 82 3d 07 d4 08 3e ef 94 a7 3d 56 1e 85 3d
       0.0636926 0.13362132 0.08182704 0.06499927
000120 46 8e 24 be 79 43 7d 3d 42 85 0c 3e be 06 ab 3d
       -0.16069898 0.061831925 0.13722709 0.08350895
000130 2a cc 0a be 73 c9 18 be f0 d2 95 3c 84 f8 69 3d
       -0.13554445 -0.14920597 0.01828906 0.05712177
000140 2b 2f 91 3c 8b af 10 be b7 b8 9c bd 1d 4e 9e 3d
       0.017722687 -0.14129464 -0.07652419 0.07729743
000150 13 f8 92 3d 05 a5 bb bc b4 69 0b 3e 5f 37 19 3e
       0.07176223 -0.022905836 0.13614541 0.14962529
000160 ac 13 50 3b cb 83 ec bd 58 27 fe 3c c8 b1 5c 3d
       0.0031750007 -0.11548575 0.03102462 0.053880483
000170 cf bd dd bd de b9 5f bc 45 1c 29 3d 10 3b 76 bd
       -0.10827219 -0.013655154 0.041286726 -0.06011492
000180 97 f0 04 3e db 28 49 bd 5b f9 6c 3d 82 ff 0d 3c
       0.12982403 -0.04911123 0.05785499 0.008666875
000190 4e 80 d7 3a 01 50 88 3d 26 35 30 3e 3e 51 19 3e
       0.0016441436 0.066558845 0.17207775 0.14972398
0001a0 5f eb 93 bc 44 8d 79 3b be 70 84 bb 06 f3 9a 3d
       -0.01805657 0.0038078586 -0.00404176 0.07565884
0001b0 c4 ba 17 be 36 c2 cf bd 02 9b 16 3e f4 54 e6 3c
       -0.14817339 -0.10144465 0.14707568 0.02811668
0001c0 f7 35 03 bd 7d ed 47 3d 0d 0b 73 bc 6b bd 81 3d
       -0.032033887 0.04881047 -0.014834178 0.06334957
0001d0 cc b3 b3 3d 22 5e bf bd 3d de 9c 3d f9 e5 7a bd
       0.08774528 -0.09344126 0.07659576 -0.061254475
0001e0 f0 40 65 be c5 fa 50 bc b7 28 cd bd a4 59 ef bc
       -0.22388053 -0.012755101 -0.10017531 -0.029217549
0001f0 b6 52 04 3e df 45 06 bd e7 7b 01 bd f7 af 6b 3d
       0.12922177 -0.032781478 -0.031612303 0.05754086
000200 e0 b6 73 3d 2f ed c5 bd af e3 c4 bd cb 2e f7 3c
       0.059500575 -0.0966438 -0.0961374 0.03017368
000210 57 dc cc 3b 5f f8 80 bd ed c5 87 3d 44 5e a0 3e
       0.0062518525 -0.06297373 0.06629548 0.3132192
000220 2e b3 09 3e 6c fe f5 3c db c8 e7 3d 62 ca 54 3e
       0.13447258 0.030028544 0.11317607 0.20780328
000230 f1 3f 8d bd 2e 8c cf b8 91 7b c8 bd 6f 67 46 bd
       -0.068969615 -9.89664e-05 -0.097891934 -0.048438486
000240 06 c1 78 bd 19 ae 12 be 56 44 dc bd f8 37 c8 bd
       -0.060730956 -0.14324225 -0.107552215 -0.097763
000250 d8 c7 e3 3d de d3 1b 3e 41 1f 08 3e b8 72 47 bd
       0.111221015 0.1521754 0.13293172 -0.04869339
000260 61 69 f0 b9 44 bd c3 bc b2 0c 40 bd 09 c2 f3 3c
       -0.0004585488 -0.02389396 -0.046887107 0.02975561
000270 8e 5d 84 bd 5a f1 bf bd 6a 83 30 3b a0 94 3d 3c
       -0.06463157 -0.09372206 0.0026933798 0.0115710795
000280 8b ec 6b 3c ec e0 10 3e 72 87 90 3c 2c 9f 02 3d
       0.014399658 0.14148301 0.01764271 0.03189008
000290 8e 02 47 bd be 6d 84 bc 5a c5 a8 3c 28 30 42 be
       -0.04858642 -0.01616561 0.020601917 -0.18963683
0002a0 50 c1 4e be 2f 07 31 3e 91 03 d6 bd da d3 d2 3d
       -0.2019093 0.17287897 -0.10449899 0.10294314
0002b0 4e 3c 29 be 6c 04 96 bd 4f a9 51 bb b9 a7 2b 3e
       -0.1652691 -0.07325062 -0.0031991785 0.167632
0002c0 1a 16 88 bd de 97 fa bc 63 5a e4 bd d4 8a 6a 3d
       -0.066448405 -0.030589994 -0.111500524 0.057261303
0002d0 42 17 d3 bd b4 28 17 be 27 5a 2b 3c e5 45 be 3d
       -0.103071705 -0.14761621 0.010458506 0.09290675
0002e0 a8 37 f9 bd 3c 5f 60 bd 8d f2 a9 bc ab da 53 3d
       -0.12168819 -0.054778323 -0.02074554 0.05172221
0002f0 53 fc 91 bc 5a 15 0d be 2f 15 1e 3d cc 5f 03 bd
       -0.017820513 -0.13777676 0.03859442 -0.03207378
000300 87 85 5b 3d 9f f3 d8 bc 88 bb 26 bd 15 cb bd bd
       0.05359414 -0.026483355 -0.040706187 -0.092672504
000310 cb 06 c8 3d dc cf 81 bb 35 b0 14 be b6 97 09 be
       0.09766921 -0.0039615463 -0.14520343 -0.1343678
000320 a9 0a a6 bd 00 e2 1c 3d 61 f1 1f 3d e0 45 26 3d
       -0.08107502 0.038301468 0.039048556 0.04059398
000330 a0 2c b8 3d 19 39 c6 bd 9e 5a d3 3d fb 53 86 bd
       0.089928865 -0.09678859 0.10320018 -0.06558987
000340 7d 9c 40 3b 3d a9 1b 3d 60 be e4 bd d9 5b 21 3a
       0.002939015 0.038003195 -0.11169124 0.0006155349
000350 3d 12 e3 3d 1c c8 0c 3d 72 7c b6 bc ad c3 15 be
       0.11087463 0.034370527 -0.022276137 -0.14625426
000360 1d 52 5b be fd d1 3c bc ed ad b4 bd 5d fb 9b 3d
       -0.21418042 -0.0115246745 -0.08822236 0.07616303
000370 eb 00 81 bd 07 c9 e7 bd 4e b7 76 bd 97 e3 a7 bd
       -0.06299003 -0.1131764 -0.060233407 -0.08197706
000380 e8 b0 1b 3d cb 0b 19 3d 50 3d a3 3b 9c 4f 47 3e
       0.038010508 0.037364762 0.0049816743 0.19463962
000390 72 6c c5 3d 68 8e e7 3d 24 cc b8 3d 5d 13 25 3d
       0.09639825 0.11306459 0.09023312 0.04030167
0003a0 ee a7 03 3e fc cc 3a bd 63 70 c6 3d b7 ff 06 3e
       0.12857029 -0.045605645 0.09689405 0.13183485
0003b0 93 81 76 bd 7b c1 8b 3d 87 db 00 3e e0 49 91 bd
       -0.060182165 0.06824013 0.12583743 -0.07094169
0003c0 63 a2 03 3e a4 11 d6 bc b8 46 eb 3d de 1b e1 bd
       0.12854914 -0.026131459 0.11488098 -0.10991643
0003d0 51 0d 5d 3d 27 ff 7f 3c 22 40 cf 3c 4e 50 6c 3d
       0.053967778 0.015624798 0.025299136 0.057693772
0003e0 5c d2 e8 3c df bc b5 3d 0f ac da 3d 67 a7 5c bd
       0.02842062 0.08873915 0.10677349 -0.053870585
0003f0 07 86 d0 bd ef 3d f7 bd 47 93 63 bd fa a9 2a be
       -0.10181814 -0.1207236 -0.055560376 -0.16666403

z_logit_scale.bias f4 [20]
000000 fc 17 52 bd fd 40 f6 3d 50 e0 cd bd 34 21 39 3d
       -0.051292405 0.12024114 -0.1005255 0.04519768
000010 78 8b b7 3d 78 1e 32 3d 87 b5 0a bc ce 1c 08 3d
       0.089621484 0.04348609 -0.008466131 0.033230595
000020 f5 31 12 3d 25 cf 73 bc 33 3f e2 3d 7f 09 03 be
       0.035692174 -0.01488093 0.110472105 -0.12796591
000030 35 7e 07 3c c8 5d 28 3e 0c e4 ed bb 47 5e 4f bd
       0.008269836 0.16442025 -0.0072598513 -0.05062702
000040 a5 b6 bd bd 7d 69 81 bd 1a f7 f1 3c d5 c1 d4 bc
       -0.09263352 -0.063189484 0.029536773 -0.025971333
