task2/T2b_to_F_Deterministic_source_only_classifier.pt (torch, 5087 bytes, 3 tensors)

fc1.weight f4 [40, 20]
-0.07044198 0.10179668 0.028502824 -0.18173076 0.0582667 -0.13803823 -0.03807534 0.17717382
-0.13299428 0.12440162 0.061730485 0.30219233 -0.0035773918 -0.16378392 0.035606608 -0.17151758
-0.14999978 0.12912723 0.07154469 0.064950444 0.23161283 -0.13133976 -0.13688901 0.2713068
0.081812724 -0.030863762 0.04027187 -0.096633 0.27853942 0.06738842 -0.31776863 0.027863666
-0.23600863 0.14022115 0.04879055 0.35585362 0.12818208 0.08908441 -0.021594064 0.32785386
0.23293117 0.11445868 -0.064237244 -0.012918957 0.09641816 -0.030262759 -0.09709749 0.12929317
0.07242809 -0.1684031 -0.20183761 0.0840445 -0.26247263 0.09525208 -0.014178627 0.11730202
0.13256925 -0.02555485 -0.17890072 0.22691882 -0.08660531 0.0532419 -0.28305477 0.042267065
-0.11121764 -0.19970691 -0.23457718 0.17320848 -0.26807323 0.24337293 0.08904222 0.1302172
0.35414824 -0.04749478 0.18444884 0.050927334 -0.054822043 0.3014096 0.2544132 0.23087172
-0.12987612 0.23123585 0.05732777 0.13328366 -0.11416987 -0.27792653 -0.13876645 0.08758852
0.020899655 0.25730002 0.23009355 0.020803358 0.1570168 0.059122365 0.26492363 -0.16578712
-0.2320272 0.026423333 0.11096215 0.12154971 0.012250113 0.17432338 -0.07077187 0.12399088
0.03583955 0.13465174 0.08542656 -0.012555486 0.03325815 -0.15188259 -0.0830356 -0.025482392
0.08820357 0.025613816 0.17269948 -0.017939134 0.08584477 0.077801675 0.083547086 -0.15673949
0.26525804 -0.11876023 0.038080014 0.07760606 0.14893778 0.13719855 0.2912133 -0.15299587
0.13731562 0.065471075 -0.16662359 -0.030327639 -0.17905775 0.123319395 -0.12444743 0.035955455
0.30846205 -0.1452483 0.06585283 -0.020763753 0.08223231 -0.13613065 -0.06554942 0.0522554
0.06629239 0.22129628 -0.013943989 -0.012814358 0.27744958 -0.25308412 -0.32684872 -0.2860905
-0.053995963 0.010734012 0.104410864 0.18184833 -0.041307673 -0.28689253 -0.12409613 0.30614376
0.25510925 -0.21413875 -0.14080119 0.054095972 0.16652192 -0.16475017 0.0056385268 0.0986236
0.03410832 0.03459673 0.05238295 0.024538279 -0.24279855 0.33675286 -0.22196767 -0.055904508
-0.04909436 -0.25230807 -0.00934355 0.19830923 -0.0709688 0.17134254 -0.25765008 0.20415886
-0.11572348 0.110111676 0.22882222 -0.078821674 -0.120602824 0.01988752 -0.29953802 -0.07763203
-0.20164989 -0.044603106 -0.12947898 0.19904055 0.0960829 -0.22915854 -0.10451719 0.23530987
-0.18386607 0.2694066 -0.2449558 -0.21212828 -0.29576206 -0.08124652 -0.19223973 0.15623803
-0.1820662 0.086608574 0.2566918 0.21955873 0.20691442 0.05140552 -0.06618849 -0.28263187
-0.20032887 0.28109387 0.123490825 -0.06451238 0.27586362 -0.19007072 -0.22541004 0.102068566
0.2669807 0.15582238 0.078704305 -0.18178223 0.13941374 -0.15618862 -0.28361577 -0.031067858
-0.12918688 -0.018981144 -0.08064824 0.3172632 0.28286737 -0.3167381 -0.13137129 -0.051113836
0.2429939 0.1252894 0.08048849 0.101772346 -0.09569393 0.07184533 0.04734025 -0.21543537
0.2854139 0.15753314 -0.18473983 -0.2270796 -0.30384406 0.13680647 0.16823316 0.26306382
00000000: e343 90bd c77a d03d c17e e93c a117 3abe
00000010: 10a9 6e3d e559 0dbe e3f4 1bbd 0e6d 353e
00000020: a72f 08be 47c6 fe3d 1bd9 7c3d f4b8 9a3e
00000030: ad72 6abb f9b6 27be 3cd8 113d 4ea2 2fbe
00000040: 8b99 19be ee39 043e 0686 923d bd04 853d
00000050: ea2b 6d3e ee7d 06be a22c 0cbe bae8 8a3e
00000060: 6e8d a73d 00d6 fcbc 1ef4 243d 86e7 c5bd
00000070: b89c 8e3e f102 8a3d 92b2 a2be 5842 e43c
00000080: 3fac 71be 2296 0f3e 9ad8 473d 7232 b63e
00000090: 2a42 033e e371 b63d 09e6 b0bc 76dc a73e
000000a0: 8285 6e3e 5069 ea3d d18e 83bd 08aa 53bc
000000b0: e276 c53d 9be9 f7bc 0ddb c6bd 6e65 043e
000000c0: 2e55 943d dd71 2cbe 85ae 4ebe 861f ac3d
000000d0: d062 86be 8613 c33d 794d 68bc 0b3c f03d
000000e0: 3cc0 073e 6858 d1bc c031 37be 685d 683e
000000f0: 205e b1bd 2e14 5a3d 8eec 90be 3b20 2d3d
00000100: 13c6 e3bd f87f 4cbe 0035 70be 905d 313e
00000110: e540 89be c136 793e c45b b63d a857 053e
00000120: eb52 b53e e389 42bd 28e0 3c3e 2e99 503d
00000130: 148d 60bd 5c52 9a3e 7242 823e a369 6c3e
00000140: 3ffe 04be 17c9 6c3e 86d0 6a3d 837b 083e
00000150: e5d1 e9bd 634c 8ebe cb18 0ebe 9c61 b33d
00000160: c135 ab3c d4bc 833e a59d 6b3e ce6b aa3c
00000170: 03c9 203e 4b2a 723d 12a4 873e 19c4 29be
00000180: 8a98 6dbe bf75 d83c 2040 e33d 0eef f83d
00000190: b3b4 483c d481 323e d8f0 90bd eeee fd3d
000001a0: 7ecc 123d 25e2 093e 1ff4 ae3d 86b5 4dbc
000001b0: b339 083d 1c87 1bbe 920e aabd 73c0 d0bc
000001c0: 13a4 b43d 11d4 d13c 22d8 303e 17f5 92bc
000001d0: 62cf af3d 7c56 9f3d bc1a ab3d 5180 20be
000001e0: e7cf 873e 9038 f3bd caf9 1b3d edef 9e3d
000001f0: 2583 183e c77d 0c3e e919 953e f3aa 1cbe
00000200: 779c 0c3e b315 863d 609f 2abe ab71 f8bc
00000210: ea5a 37be e18e fc3d 4bde febd 0746 133d
00000220: bdee 9d3e f8bb 14be d9dd 863d bf18 aabc
00000230: 6a69 a83d d565 0bbe c63e 86bd c209 563d
00000240: 4ec4 873d 7e9b 623e 5475 64bc 50f3 51bc
00000250: df0d 8e3e 3e94 81be b758 a7be 747a 92be
00000260: df2a 5dbd b6dd 2f3c 5dd5 d53d 7336 3a3e
00000270: 3c32 29bd 94e3 92be 1d26 febd e0be 9c3e
00000280: ae9d 823e 3047 5bbe 302e 10be bd93 5d3d
00000290: b984 2a3e 45b4 28be 64c3 b83b 2cfb c93d
000002a0: 2ab5 0b3d 4db5 0d3d 818f 563d 8004 c93c
000002b0: 2fa0 78be df6a ac3e 7e4b 63be 20fc 64bd
000002c0: 2b17 49bd 862e 81be b015 19bc 9311 4b3e
000002d0: 1758 91bd 6b74 2f3e b6ea 83be 050f 513e
000002e0: 6f00 edbd 3b82 e13d 5f50 6a3e 426d a1bd
000002f0: 9dfe f6bd 27eb a23c 0c5d 99be 8bfd 9ebd
00000300: 4f7d 4ebe bfb1 36bd 2396 04be 49d1 4b3e
00000310: 1dc7 c43d 89a8 6abe 1c0d d6bd 12f5 703e
00000320: 6347 3cbe a9ef 893e b1d5 7abe 2838 59be
00000330: 206e 97be 9364 a6bd 7eda 44be ddfc 1f3e
00000340: 906f 3abe d65f b13d 1c6d 833e 01d4 603e
00000350: 60e1 533e 988e 523d d58d 87bd 20b5 90be
00000360: 0323 4dbe 89eb 8f3e c2e8 fc3d 111f 84bd
00000370: ff3d 8d3e e6a1 42be e4d1 66be 5309 d13d
00000380: b2b1 883e e78f 1f3e b92f a13d 1f25 3abe
00000390: 7ac2 0e3e e9ef 1fbe 1636 91be 0582 febc
000003a0: 9149 04be 587e 9bbc e82a a5bd 5270 a23e
000003b0: fed3 903e 7f2b a2be 3286 06be be5c 51bd
000003c0: 65d3 783e dd4b 003e 26d7 a43d 056e d03d
000003d0: 2efb c3bd a523 933d dae7 413d 179b 5cbe
000003e0: c521 923e 5e50 213e 702c 3dbe 8e87 68be
000003f0: 7391 9bbe ff16 0c3e 5045 2c3e 4db0 863e

fc1.bias f4 [40]
0.092058055 0.029730879 -0.014368673 -0.058955453 0.09154346 -0.19962247 0.053777482 0.08677094
0.20224926 0.013839662 0.2561305 -0.004999903 0.13004808 0.10737582 0.16068715 0.14603235
0.2302586 -0.08071224 -0.010519652 0.070514485 0.14539021 0.08525343 0.21624643 0.030904787
0.09703819 0.18868504 0.014040366 -0.014817592 -0.06958979 -0.07461787 0.11980183 -0.17630027
0.07210731 -0.09058862 -0.17123723 -0.068898916 0.09911143 0.294076 0.15576552 -0.0066319215
00000000: ef88 bc3d 2c8e f33c 956a 6bbc 467b 71bd
00000010: 237b bb3d d569 4cbe c745 5c3d f6b4 b13d
00000020: 6e1a 4f3e c0bf 623c 8923 833e 3ad6 a3bb
00000030: 532b 053e dbe7 db3d 2c8b 243e 8189 153e
00000040: e9c8 6b3e 754c a5bd 9e5a 2cbc e669 903d
00000050: 2ce1 143e 5a99 ae3d b46f 5d3e 092c fd3c
00000060: f5bb c63d a736 413e 9009 663c 7cc5 72bc
00000070: 1885 8ebd 41d1 98bd a95a f53d 0f88 34be
00000080: ffac 933d 8786 b9bd d058 2fbe e01a 8dbd
00000090: effa ca3d 2191 963e ff80 1f3e 9750 d9bb

fc2.weight f4 [1, 40]
-0.21793517 0.1388941 0.1998345 -0.1379371 -0.21672662 -0.030992564 0.18859677 0.18368666
0.13302915 0.2454285 -0.1536142 0.13817434 0.13011873 -0.21099553 0.184844 0.15622956
-0.24152142 -0.26283187 -0.189168 0.23374179 0.14002949 0.12984103 0.21237962 -0.1925437
-0.1773554 0.24112244 0.2504823 -0.20220053 0.2108193 0.20627633 0.15880024 -0.017508311
-0.1916704 -0.16769603 0.11140268 -0.050695952 -0.1703638 0.23479593 -0.2308762 -0.23244014
00000000: 662a 5fbe 413a 0e3e 6aa1 4c3e 623f 0dbe
00000010: 95ed 5dbe 1ee4 fdbc 831f 413e 5b18 3c3e
00000020: cb38 083e 9c51 7b3e 0a4d 1dbe 937d 0d3e
00000030: d83d 053e 360f 58be bf47 3d3e a4fa 1f3e
00000040: 6451 77be e691 86be 42b5 41be 025a 6f3e
00000050: e463 0f3e 0cf5 043e 0b7a 593e 2d2a 45be
00000060: a79c 35be cde8 763e 373f 803e a80d 4fbe
00000070: 04e1 573e 1a3a 533e 889c 223e 976d 8fbc
00000080: 3f45 44be 82b8 2bbe 1727 e43d 8fa6 4fbd
00000090: d973 2ebe 586e 703e d06a 6cbe ca04 6ebe
