task2/T2b_to_F_Deterministic_adda_encoder.pt (torch, 42327 bytes, 6 tensors)

fc1.weight f4 [48, 140]
00000000: e63c 9e3d 4833 013d 3cd0 37bd aabb 183d
00000010: 32c4 47bd 1490 a23d d01a cbbc 7bbb 50bd
00000020: 0ac5 cb3d 8b67 de3c a1d5 d0bc 83ed bc3d
00000030: 00ad da3d bc0a 4b3d 42d3 b5ba 4311 7c3d
00000040: b5fa be3d 3657 923d 53c0 5bbd 1ead 193e
00000050: 2887 aa3d 2a83 253e 9a3e d5bc acb4 313e
00000060: bde7 773d 725a b43d 9d69 803d 2e7a 253e
00000070: de81 88bd e27b 193e 62fe 40bc 0f80 4bbb
00000080: 5429 acbd d263 ec3d 0a91 99bc 53ff 823d
00000090: eb84 a5bd 18a2 a13d 37b6 8b3d f4d5 203e
000000a0: cbfa 9c3c 1af1 1c3e 8dbd b4bc 36fb a23d
000000b0: 800b 613d 334b cb3d c26a 6ebd 52eb 103e
000000c0: 627d 523d 7774 a33c 1cc6 733d dd64 053e
000000d0: a718 9cbd 6850 9c3d 1947 79bd 1b13 f93d
000000e0: f04d 25bd 7b7b 8e3d 66ca 83bd 22bb 9e3d
000000f0: d8cd b8bd a041 88bd da6f 893c 5a70 0ebe
00000100: 201c 5ebd 1cb1 e7bc 89f1 7d3d e0c3 293d
00000110: e41e 91bc 066c 9d3c 3012 98bd d692 393d
00000120: 266e 733d 056d 923d 36f0 38bd 1768 753d
00000130: 77ef ad3c 5371 473c 4dda 1dbd 8f02 f93d
00000140: 2981 8a3d d821 c73c 7f5f 28bd 9d0e af3d
00000150: ebef 4b3d a963 e63c ebd1 81bd 8edf 1f3d
00000160: cabf 21bd e38f 023e ebe3 733d 9990 f33d
00000170: 29be 493d e8ba d13d 4b74 933c 0ae6 003e
00000180: 1189 d1bc 376b f93d ef1f 663c b4b3 103e
00000190: 75db 983c 35a6 b23d 2638 bb3d c652 da3d
000001a0: 48e5 263e 8e49 ce3c 2bd1 bf3d a5b8 ac3c
000001b0: a72a 463e 6852 2bbd 6c54 143e 7fc8 b4bc
000001c0: 9e38 fb3d f633 e7bd 0947 84bc e2d5 e83c
000001d0: e444 6c3d 66a6 2dbe f65c 933c 882f 07be
000001e0: 60b3 913d 62e6 273d 9891 013c 05a8 6c3c
000001f0: dbf9 11bd 2c6a 94bd 6029 2dbb 3dda 3b3d
00000200: db11 0fbb ee60 943c c787 91bd 530a e4bc
00000210: c801 503d 5550 393d 577c e03c 01b5 e7bc
00000220: 930d 13bd 7b21 863c 40af 1d3d 8c51 103d
00000230: 6e28 933d 4099 623b 58ed 6a3c f891 8f3c
00000240: 90ad 31bc 632d 00bd 2a1a 863d 2073 6ebb
00000250: 406e febb 88a9 993c b864 3b3d 9c74 913d
00000260: 4895 2e3d 2e99 9d3d d814 b4bc 7098 e13b
00000270: e051 793d 54dc 453d 0d58 03bd 889e 343d
00000280: 45cb 05bd 54a8 7a3d f02e 69bc 600d 77bb
00000290: b16a 54bd 70ce 463d b6c8 893d 0068 793d
000002a0: 5842 b4bc c43c 973d ddf0 85bd 980d 95bc
000002b0: 566e a2bd 86b3 95bd e075 193d e089 7abd
000002c0: 0d71 49bd 68d3 84bd 14d8 82bd 987a a33c
000002d0: d4e6 8f3d 2c94 a43d c8ef f93c d752 90bd
000002e0: 00e4 bd38 302f 10bc 30eb 96bb b8cd efbc
000002f0: d09a 9a3c 052a 12bd a0af 4a3b 2299 853d
00000300: 2c34 bc3c b064 963c a019 39bb 00cf d13a
00000310: a791 8cbd d8e5 7e3c e809 d63c 9c31 753d
00000320: 1468 9ebd f8f8 713d 5c61 283d dec5 65bd
00000330: ca96 96bd d6ab cebc 48b5 2e3d 30cc b03b
00000340: 9e04 96bd 044a ed3c 080e 943d d302 a9bd
00000350: 038f 88bd 2641 033d c2d6 83bd 5771 40bd
00000360: 2cb0 973c 3cbc 093d 1d1a 7fbd 6032 c33c
00000370: a037 623c 74be 963d 0f9f abbd d009 10bc
00000380: 3f99 0dbd 8ec9 d1bc 1cda 8a3d 80a4 c33b
00000390: 1c08 37bd d489 6b3d 623b a63d 50df 51bc
000003a0: 2872 a43d dc8b 33bd 4495 7b3d c018 45bb
000003b0: c0fd 263c eaa1 80bd 02fe 8abd 7cb6 9fbc
000003c0: f8f3 ff3c 5c47 5c3d 58e3 993c bf1c 51bd
000003d0: 0215 043d 9497 cb3c d09f 2e3d 2280 47bd
000003e0: 34a7 d2bc b45f 013d 9703 59bd 4810 063c
000003f0: 2c8b ed3c 7c70 a2bc c0c4 863d 1e59 07bd
0.07726459 0.031543046 -0.044876322 0.037288345 -0.04877109 0.07937637 -0.024793059 -0.050960045
0.099496916 0.027148983 -0.025492491 0.09224989 0.106775284 0.049570784 -0.0013872164 0.0615399
0.09325162 0.071455404 -0.05365021 0.15007445 0.0832656 0.16163316 -0.026030827 0.17354077
0.060523737 0.088063136 0.06270144 0.16159889 -0.06665395 0.14988664 -0.0117794 -0.003105167
-0.0840632 0.11542477 -0.018745918 0.063963555 -0.08081993 0.07892245 0.06821864 0.15706617
0.019162556 0.15326348 -0.022063041 0.07958071 0.054942608 0.099264525 -0.05820728 0.14152268
0.051389106 0.019952996 0.059515104 0.13026758 -0.076218896 0.07632524 -0.06085882 0.12161847
-0.04035753 0.06957146 -0.06435089 0.077505365 -0.090236366 -0.06653142 0.016776968 -0.13910046
-0.05422604 -0.028282695 0.061997924 0.041446567 -0.017714925 0.019216549 -0.07425344 0.04530605
0.059431218 0.071497 -0.045150958 0.05991372 0.02123235 0.012173015 -0.038538266 0.12158691
0.067629166 0.02430813 -0.041106697 0.08547709 0.04978935 0.028123694 -0.06338867 0.039031558
-0.039489545 0.12750201 0.05954353 0.11892814 0.049253616 0.10240728 0.017999789 0.12587753
-0.025578054 0.12178653 0.0140456995 0.14131051 0.018659333 0.08723108 0.09141569 0.10660319
0.16298401 0.025181558 0.093660675 0.02108414 0.19352208 -0.041826636 0.1448533 -0.02206826
0.12266658 -0.11289208 -0.016147153 0.0284223 0.057682887 -0.16958007 0.017988663 -0.13201725
0.07114291 0.040991195 0.007908247 0.014444356 -0.03563867 -0.07246813 -0.0026422366 0.045862425
-0.002183071 0.018112626 -0.071059756 -0.027836954 0.05078295 0.045242626 0.02740304 -0.028284552
-0.035901617 0.016373387 0.03849721 0.03523402 0.07185446 0.0034576207 0.014338814 0.017525658
-0.010844603 -0.031293284 0.06547959 -0.0036384538 -0.0077646077 0.018757597 0.04575035 0.071023196
0.042622834 0.07695232 -0.021982595 0.006884627 0.060869098 0.048305824 -0.032066394 0.0440965
-0.032664556 0.061195686 -0.014232382 -0.003769718 -0.05185956 0.048536718 0.06727736 0.060890198
-0.022004291 0.07384637 -0.06540082 -0.018194959 -0.07931201 -0.07309632 0.03746593 -0.061166644
-0.04918008 -0.06485635 -0.0638887 0.019955918 0.07026449 0.08036074 0.030509844 -0.070470504
9.0546906e-05 -0.008800313 -0.0046056733 -0.029272899 0.018872648 -0.035684604 0.0030927435 0.065233484
0.022974096 0.018358558 -0.0028244033 0.0016007125 -0.068637185 0.015557729 0.02612777 0.059861764
-0.07734695 0.059075326 0.041108474 -0.056096904 -0.073529795 -0.025228422 0.042653352 0.005395435
-0.073250994 0.028965957 0.07229239 -0.08252492 -0.06667902 0.032044552 -0.06437446 -0.04698309
0.018516622 0.03362678 -0.062280763 0.023827732 0.013807207 0.07360545 -0.083799474 -0.008791402
-0.034569975 -0.025608804 0.06779882 0.0059705377 -0.044685468 0.05750449 0.08116795 -0.0128095895
0.08029586 -0.043834552 0.061421648 -0.0030074567 0.010192335 -0.06280883 -0.067867294 -0.019496195
0.031244263 0.05377899 0.018785164 -0.051052805 0.032246597 0.024852552 0.042632878 -0.04870618
-0.025714494 0.03158541 -0.05298194 0.008182593 0.028997026 -0.019829027 0.06580496 -0.033043973

fc1.bias f4 [48]
00000000: a1cd d23c 7c4e 423d 2151 4dbd 2b30 0a3c
00000010: aec7 1fbd a6b6 be3b 768d ae3d b52c 9fbc
00000020: 47b6 91bd f51c 83bd c066 c4bc e934 603d
00000030: d04d a93d 3b5f 36bd ed9a 73bb 5736 a4bb
00000040: 1d54 523d cf6a 16bd 770a d4bb ddf9 203d
00000050: ae2c 86bc 3892 b4bd 24e7 c13c 4f4e acbd
00000060: 75d8 02bd 55aa b7bc c70e 753d 763e 90bd
00000070: 9f67 703d fb3d b13d fcd5 4f3d 88d1 303d
00000080: d636 943c d506 7fbd 768a 67bd 347c 103d
00000090: 257a 353c 6b7d 8a3d a778 9fbd dea0 08bd
000000a0: 16e8 833d dd78 303d d724 88bc 7fbe 053d
000000b0: ff11 78bd e8b7 0abc 87a9 27bd 23d3 173d
0.025732817 0.04743813 -0.0501262 0.008434336 -0.03900879 0.0058201132 0.08523075 -0.019430498
-0.07114845 -0.064020075 -0.023974776 0.05473796 0.08266795 -0.044524413 -0.00371712 -0.0050113606
0.051349748 -0.036722954 -0.006470974 0.03930079 -0.016378727 -0.088169515 0.023669787 -0.08413374
-0.03194471 -0.022420088 0.059828546 -0.070431635 0.05869257 0.086544 0.05074118 0.043168575
0.018092554 -0.062262375 -0.05652853 0.0352747 0.011076485 0.06762203 -0.077866845 -0.03335654
0.06440751 0.043084014 -0.01661913 0.032652374 -0.060564037 -0.008466698 -0.04093316 0.03706659

fc2.weight f4 [48, 48]
00000000: 9bd2 6abe 0016 b5ba f492 843c 67b4 f1bd
00000010: 74a3 703d 68ad 4e3e d63d 483e 1a31 edbd
00000020: cc35 ad3d 3cae 03be 1616 d33d a4fa 963d
00000030: 83ba f2bd ad57 bc3c 7128 81bd 6851 29bd
00000040: 28b9 66bd 0872 e0bc e33b 203e e106 5f3e
00000050: 7463 71be 3f70 26be a0df bfbc 3a4a ba3d
00000060: 2e58 0b3e 8ca8 beba 3ada 14be 2bb5 2bbe
00000070: 6410 d73d 09c7 543b e0a3 f23b 7a94 2b3e
00000080: 7b10 803d 069f eebd 5083 283c 08cb 793d
00000090: f764 4abc bcdc f1bc e068 e23b cb86 99bd
000000a0: 920b 3e3e aeda 9dbd 25ba 26bc 38bb 4b3e
000000b0: 6cdb ad3d 2003 22bd ed93 873d 2229 6abe
000000c0: 3de0 05bc eee6 3dbd 5a5a 5c3d ee36 d73c
000000d0: f6c7 bf3d f27a 34be ab15 20be 8f7d ebbc
000000e0: 52b3 c8bd ac6c 243d 34ad 673d e859 a83d
000000f0: 0142 0ebe 0f2c 90bc 78fd 0fbe 7242 843e
00000100: 2c2c 36bd 25b1 67be 8e98 22bd 7010 5abe
00000110: bd03 363c 537c 273e 37a9 d4bd 2c1b 5fbd
00000120: 5bae 81be 88fd d23d 9e8b 763e d0da bc3c
00000130: 3228 acbd 847d 27bd 58e7 fd3d dac9 2b3d
00000140: cb53 f9bd 9471 ce3d 0071 813b 1875 123e
00000150: d10e 383c 9e82 563c a03f f63d 1013 e53d
00000160: 0c03 7abd 2133 76bd 292e 5a3c ada3 9cbc
00000170: e41b 733d 0fa9 aebc b3c8 05be 4f0d 0b3e
00000180: a86b d03d 3070 3abc 8b50 0abe 9b2b 313e
00000190: 2000 353c a408 0ebd ed22 f43c a602 5e3d
000001a0: ca27 0cbe a877 3a3d 2632 d53d 167b d13c
000001b0: cdf6 e5bd 07c9 26be c455 8cbd ff13 f63c
000001c0: 1535 69bd 73bf ba3d a9ea d5bd 5f18 15be
000001d0: e56a 643e bdd6 4c3e aedc a1bd 80ad 073e
000001e0: 861a 44be 9c76 e43d 8387 563e 8208 0f3e
000001f0: 04ef 983d 183f 9a3d a8f8 123d 64a6 16be
00000200: d7ed 13be 00e8 bb3c fe42 d9bd 4010 77bb
00000210: 914f a13c 5354 42be 987f d93d 7ed4 0bbd
00000220: d3fb ac3c e689 b53d 4e94 fdbd d26e 1ebe
00000230: 0016 a9bc 33f8 8a3d a192 ecbd 5553 5c3d
00000240: 53bf 573e 70ae 3abd 21e5 363d 1c2c 803e
00000250: 68fb 95bd be86 a2bb a885 6dbd 10c4 e93d
00000260: c653 04bd a871 a3bd efc1 96bd b4ba 24be
00000270: bd27 fdbd e8a6 27be 3f4e d5bc 667f 843e
00000280: e5a9 af3c a94a 77bd 36b5 8ebd bee2 00be
00000290: cc1a 733e 6427 6c3d b451 563d 6ca4 953d
000002a0: 6bbf 87be bb9e de3d e2fa 3b3e 4b8a e13d
000002b0: c9fa 9c3c 0526 9ebc e402 853d f35a edbd
000002c0: 89e7 1d3d d890 923d ec2c 473d 98a7 bdbd
000002d0: 0b52 803d 6891 c3bd c02a 54bd 8647 cf3d
000002e0: 96ba 4cbd b7b6 b9bc 7412 dd3d 64fb bcbd
000002f0: 7e12 2ebe 2aa4 b1bc bb79 0c3e 7357 6b3e
00000300: cdfa 473e c64c 05be 0afe 9abc dcd7 c63c
00000310: 89c0 93bd 5a13 363d 76a4 0cbe 9ae9 c7bd
00000320: 74aa 04be 3806 863c 0814 ff3d f574 4a3c
00000330: 98f7 f5bc b6ea 21be 8984 e13b 6c2e ac3c
00000340: 37e0 f6bd 4467 4cbe 369c 51bd eaea 56be
00000350: 267c 503e bfe2 f83d c0b8 fcbc 1816 c73d
00000360: 120d 21bc 7a29 41bb dd6a 463e 9874 303e
00000370: 0aea 3cbe 7d36 6fbd f4a9 a03d 651c e3bd
00000380: a174 8fbc ea42 0d3e 441f 913d f074 76bc
00000390: 0289 ab3d 9ef9 24be acbc c8bd 1aa8 9c3d
000003a0: 3ded 05be 15ec cabc 20f0 b6ba 7be0 9fbd
000003b0: b030 0bbc 4f30 cc3d 5fa0 d33d dfa9 dcbb
000003c0: 0091 063e a068 debc 2ef5 e73d 2f50 453e
000003d0: ea6f c6bd 8112 223d 18cb 85bd 97a4 d33d
000003e0: 4bfb 0dbe 5c76 843d 9079 82bd 1998 96bd
000003f0: c027 df3c 521c 81bb 5f5d a43d 8d21 b23d
-0.22931902 -0.0013815761 0.016183354 -0.11801987 0.05874963 0.20183337 0.19554839 -0.11581631
0.084575266 -0.12859434 0.10306947 0.07372025 -0.118519805 0.022991026 -0.06306542 -0.0413374
-0.056328923 -0.027398124 0.15647845 0.21779968 -0.23573095 -0.16253756 -0.023422062 0.09096189
0.13607857 -0.001454608 -0.14536372 -0.16768329 0.10501173 0.0032467267 0.0074047893 0.16755858
0.062531434 -0.11651425 0.010285214 0.06098464 -0.012353173 -0.0295242 0.0069094747 -0.07496413
0.18559101 -0.077077255 -0.010176216 0.19895637 0.08489117 -0.03955376 0.066200115 -0.22867253
-0.008171138 -0.04636281 0.053797103 0.02627131 0.093643114 -0.17625025 -0.15633266 -0.028746394
-0.09799828 0.0401427 0.056561664 0.08220273 -0.13892366 -0.017599134 -0.14061534 0.25831944
-0.04447572 -0.22626169 -0.03969627 -0.21295333 0.01110929 0.1635602 -0.10383838 -0.054469272
-0.25328335 0.103022635 0.24076697 0.023053557 -0.08406104 -0.040891185 0.12397641 0.041940548
-0.12174185 0.10080257 0.003950238 0.1430248 0.011234001 0.013092665 0.12023854 0.111852765
-0.061038062 -0.060107354 0.0133166695 -0.019121015 0.05935277 -0.021320848 -0.13064842 0.13579296
0.10176784 -0.011379287 -0.13507287 0.1730179 0.011047393 -0.03467621 0.02980181 0.054201744
-0.13687053 0.04552427 0.10409956 0.025571387 -0.11228714 -0.16287623 -0.06852296 0.030038832
-0.05693539 0.09118547 -0.104451485 -0.14560078 0.22306402 0.20003791 -0.079034194 0.13249779
-0.19150743 0.111554354 0.20950131 0.13968089 0.074674636 0.075315654 0.03588167 -0.1471191
-0.14446197 0.022937775 -0.10608481 -0.0037698895 0.01969126 -0.1897748 0.1062004 -0.034138195
0.021116173 0.08864193 -0.123818025 -0.15471962 -0.020640373 0.067856215 -0.11551405 0.05379041
0.21069078 -0.045576513 0.044652108 0.25033653 -0.073233426 -0.00495991 -0.057988793 0.11414349
-0.032306455 -0.079806626 -0.07361209 -0.16086847 -0.12361095 -0.16372263 -0.026038287 0.25878447
0.021443317 -0.060373936 -0.06968157 -0.12586495 0.23740691 0.057654753 0.052324012 0.073067516
-0.26513228 0.10870119 0.18357423 0.110127054 0.019162552 -0.019305239 0.06494692 -0.11589613
0.038550887 0.07156533 0.048626825 -0.092604816 0.062656485 -0.095492184 -0.051798582 0.10121064
-0.04998263 -0.022670133 0.10794535 -0.092276365 -0.16999242 -0.021684725 0.13718311 0.22982578
0.19529267 -0.13017568 -0.018919963 0.024272852 -0.072144575 0.04445205 -0.13734612 -0.09761353
-0.12955648 0.016360387 0.124549925 0.012356986 -0.030025288 -0.15812191 0.0068822545 0.02101823
-0.12054484 -0.19961268 -0.051174365 -0.2098805 0.20359859 0.121526234 -0.030849814 0.09721011
-0.009829776 -0.0029474185 0.19376703 0.17231977 -0.18448654 -0.058401573 0.07844916 -0.110894
-0.017511668 0.13795057 0.070860416 -0.0150425285 0.083757415 -0.16110846 -0.09801611 0.0764925
-0.1307878 -0.024770776 -0.0013957061 -0.07806488 -0.008495495 0.09970152 0.10333323 -0.0067341174
0.1314125 -0.027149498 0.11326061 0.19268869 -0.09689315 0.039568428 -0.06532878 0.103341274
-0.13865392 0.06467888 -0.063708425 -0.07353229 0.027240634 -0.0039401436 0.080256216 0.086978056

fc2.bias f4 [48]
00000000: 3a5e c1bc 0660 3dbd 61a8 cdbd 7421 4b3d
00000010: 0451 cdbd dc01 cdbd 4462 3abd 57b8 e43d
00000020: b15a 74bd 9108 0dbe 284b f5bd 74cd 0f3e
00000030: d796 39bd bfeb d4bd b1f0 3fbb 63d3 dcbd
00000040: 2212 bb3d 16ea 5cbd 9958 1a3d 4963 9d3d
00000050: 407d 84bd f017 d73c f1d7 03be b288 e33d
00000060: 2d23 44bd 676d 923d f2b9 223c ad48 e2bd
00000070: 3930 9a3d 5e23 b93c 0e03 243e c0d8 1c3e
00000080: 2a87 0f3e 759f a2bb e031 283e d1ce 583d
00000090: a774 6cbd 0a87 f93d d54c 023e facb 133d
000000a0: e8a4 21be bf8c 1bbd 13ac acbc 00fc 9e3d
000000b0: f7e5 f13d 6579 babd f8bd 543d 7f9c 85bd
-0.023604501 -0.046234153 -0.10041881 0.04959245 -0.10025218 -0.1001012 -0.04550387 0.111679725
-0.059656803 -0.13772799 -0.119772255 0.14043218 -0.045309868 -0.103965275 -0.002928775 -0.10782506
0.09134318 -0.05393418 0.03768215 0.07684953 -0.06469202 0.026256531 -0.12875344 0.11110057
-0.04788511 0.07149773 0.009932028 -0.11049018 0.07528729 0.022599872 0.1601679 0.15317059
0.14016405 -0.0049628564 0.16425276 0.05293161 -0.057728436 0.1218396 0.12724622 0.0360832
-0.15785563 -0.037976023 -0.021078145 0.07762909 0.118114404 -0.091051854 0.05193898 -0.0652399

z_loc.weight f4 [20, 48]
00000000: 0ce3 45be 5d1c 8c3d 4212 e93d 2f55 4f3e
00000010: e657 a23d 2785 073e 037e 47be 0750 29be
00000020: cdf8 8cbe 18ce 153d 91d7 0e3e 3fc5 213b
00000030: bb40 62be 04d5 f13d 6003 5f3e c6ee c33d
00000040: 5a02 f5bd 58dc 223e e5fd 53be f824 21be
00000050: a5b6 863e bf83 e3bd 022f 093e 4c76 6ebe
00000060: 4e65 2e3e 79c5 213e d5a9 b7bd 5c25 a4bd
00000070: 8e02 a8bb 0c65 0ebe 0788 513e 911f af3d
00000080: abf0 d7bc 34ae 0dbe 07b7 103d 1156 6ebe
00000090: b81f 8fbe 0c19 383d 3083 45be 1f91 91bb
000000a0: 1769 d73d a368 303e 4a53 2ebe 5d3b ebbc
000000b0: e83e 7d3e 7a0b 903d 4320 853e 310d 853e
000000c0: 4f62 4e3e 7b78 b3bd c42d 88bd 3fcf 81be
000000d0: 5ec7 38be b4bc 3fbe b40e bb3d d41d 00bd
000000e0: 80e9 1a3e 9db9 703d 8bec ed3b ccc6 373e
000000f0: 9caf 7f3e 9648 ba39 4237 73be d0ac 55bc
00000100: 855d 193e 1f38 3cbe 469b 7a3d 25b2 e63c
00000110: 088c 5bbc e7ab 243d 2092 32be 0a21 863d
00000120: 31f7 35be b89e aebd 63bd 35bd 8931 273e
00000130: b305 35bd 6b73 e83d 4db8 2fbd c122 fbbd
00000140: 10e1 1a3e d47e fc3d 53bb d5bc 1284 a83d
00000150: f2d5 563e 0a90 d33d 2d17 043c d898 5ebd
00000160: 188d 21be aac0 93bd aa23 523d 4f4c 593e
00000170: 303c acbd 4548 02be e0cc 7b3b 878c 0dbe
00000180: 9385 a73d 24d9 a23d e2cd 463e 06a7 ca3c
00000190: 93e9 013e 6abe bb3d ebfa 95bd 7078 bebd
000001a0: ca75 c03c cb8f 993d 9629 253e f10d 9d3d
000001b0: d78a 46bd 38cb 943d 0075 f33c 2eac ce3d
000001c0: 711a be3d e741 dd3d cd83 d93c 1a8f 523d
000001d0: 2e5d b5bd 97bc 84bd 064f b73c 6f8e 16be
000001e0: 74e0 513d 60fb 56bd 9982 2abe d877 bebc
000001f0: c94f b7bd c611 01be b0fc d03d 9ab0 1abd
00000200: 3bcc cf3b 5e00 6f3c 9f84 23be 7b78 31be
00000210: 9bd1 e73d 49a5 35be ce82 1abe ef72 3d3c
00000220: 46a8 e13c f542 813d 8ded 52bd 40c2 0a3d
00000230: b06f 823c 9f86 a43d c2a8 51bd 9ab9 0d3c
00000240: cd6b 2fbe 7ae4 633e f3e0 4e3d b675 7b3d
00000250: 8f94 fd3b 334d 073e 8d19 79be 59d9 5a3d
00000260: 98bb 47be a15c 0e3d 4248 4a3e 9e5f edbd
00000270: 0b00 3ebe 9141 2d3e cba0 1e3e 7b2a 373e
00000280: d6eb 1ebe 5d71 ab3c faf8 22be f378 a4bc
00000290: f23f 1a3e f92b b3bd 45a1 613d a8f3 52be
000002a0: cfd7 673e ae87 513e ff5d ecbd 6e85 1bbe
000002b0: 76f3 3a3e f454 02be bb93 0a3e d183 213e
000002c0: 2f1a 4abd 823d 7fbe f9e4 06be cfc0 50be
000002d0: 1ec0 b9bd 5485 a1bc a057 8cbd df0c c039
000002e0: 7ce7 523e aa49 403e 43b0 a8ba c850 8b3c
000002f0: 90db f23d f449 093d 4338 7e3e 3056 883c
00000300: f26b 84bc 9fb9 6a3e f7a4 933d e4c6 d43d
00000310: 3479 1b3e fbe9 523e 7366 3bbe 4e4e ba3c
00000320: 06bd 15be 4fb3 083e ad86 733d 4207 31be
00000330: 8f8b 54be b2b4 5d3e c9e7 863e 42f9 723d
00000340: ac8e 033d c428 233e aa8c 6bbc 4bda 10be
00000350: 9ccb bb3d 6d91 80be 3678 193e d302 4fbe
00000360: 5e6b 593e 4e84 1a3e c6f3 64be 72c1 fcbb
00000370: 3801 1f3d 4e8c 11be b3f3 1bbb 2160 74bd
00000380: 0ae4 27bd cba7 1fbe a197 3bbe 78b5 a9bd
00000390: 1a8e b3bd 262a 24bd c9de 9cbd 747e 20be
000003a0: 9d58 c8bc 0a32 df3d e2ac 123d da6b 34be
000003b0: 23de 6a3e be2c 5ebd 4e48 783e 175f 793e
000003c0: 2d72 f63b 58a4 133e b418 213e 173d c53d
000003d0: 6823 4f3e 5a3b 153e 15e9 2bbe 73d0 52be
000003e0: 91c3 90bd bed5 173e 2db1 2e3e 0634 1dbe
000003f0: a63c 24be 6f16 f43c a1f1 5f3e f7e9 e13b
-0.19324893 0.06841347 0.113804355 0.20247339 0.079269215 0.13234387 -0.19481663 -0.16534434
-0.2753357 0.0365735 0.1394942 0.0024684218 -0.22095005 0.11808208 0.21778631 0.09567027
-0.11963339 0.15904367 -0.20702322 -0.15736759 0.26311222 -0.11109113 0.13396838 -0.23287314
0.17030832 0.15797986 -0.0896794 -0.08014938 -0.0051272577 -0.13905734 0.20462047 0.08550943
-0.026359877 -0.13835984 0.0353308 -0.23275019 -0.27953887 0.04494576 -0.19288325 -0.0044423486
0.10518091 0.17227416 -0.1702396 -0.02871483 0.24731028 0.07033439 0.26001176 0.25986627
0.20154689 -0.08763214 -0.06649354 -0.2535343 -0.18044803 -0.18724328 0.09133664 -0.031278446
0.15128136 0.058770765 0.007260864 0.17946929 0.24969333 0.00035530765 -0.23751548 -0.01304169
0.14977081 -0.18380783 0.061183237 0.028161118 -0.013400085 0.040203 -0.17438555 0.065492705
-0.17770077 -0.08526367 -0.044370066 0.1632749 -0.04419489 0.11350139 -0.042900372 -0.12262488
0.15124917 0.12328878 -0.0260903 0.082283154 0.20980051 0.10330208 0.008062166 -0.054344982
-0.15776479 -0.07214482 0.051303543 0.21220516 -0.08409917 -0.12722881 0.0038421676 -0.13823138
0.08179774 0.079515725 0.19414476 0.024737846 0.12686758 0.09167178 -0.073232494 -0.093003154
0.023493666 0.074981295 0.16129145 0.07668675 -0.04847225 0.072653234 0.029718876 0.100914344
0.09282387 0.108035855 0.026552105 0.051406004 -0.08855663 -0.06481283 0.022376548 -0.14702772
0.051239446 -0.052485824 -0.16651382 -0.023250505 -0.08950765 -0.12604436 0.10204446 -0.037766077
0.006341485 0.01458749 -0.1596856 -0.17331116 0.11319276 -0.17738833 -0.1508896 0.011563047
0.02754606 0.06311599 -0.051496077 0.033876657 0.015922397 0.080334894 -0.05118633 0.008650208
-0.17130966 0.22255126 0.050507497 0.061391555 0.007738657 0.13213043 -0.24326153 0.053429935
-0.19505155 0.034756307 0.19754127 -0.11590503 -0.18554704 0.16919543 0.15491025 0.17887299
-0.15519652 0.02092808 -0.1591529 -0.020077204 0.15063456 -0.087486215 0.05508544 -0.2060076
0.22640918 0.20461914 -0.11541366 -0.15187618 0.18256935 -0.1272772 0.13532917 0.1577294
-0.049341377 -0.24925807 -0.13173284 -0.2038605 -0.090698466 -0.019716896 -0.06852651 0.00036630683
0.20596117 0.187781 -0.0012869913 0.017006293 0.118582845 0.033517793 0.2482615 0.01664266
-0.016164754 0.22922371 0.07209199 0.10389498 0.15182954 0.20597069 -0.183008 0.022742417
-0.14622888 0.13349651 0.05945461 -0.17287925 -0.20756362 0.21650961 0.26348713 0.059319742
0.032118484 0.1593352 -0.014376799 -0.14145772 0.09169695 -0.2511095 0.14987263 -0.20215921
0.21232364 0.15089533 -0.22358617 -0.00771349 0.03881952 -0.14213678 -0.002379638 -0.05966199
-0.04098896 -0.15591352 -0.1831956 -0.082865655 -0.08767338 -0.04007926 -0.076596804 -0.15673238
-0.024456317 0.10898216 0.035809405 -0.17619267 0.22936301 -0.05424189 0.24246332 0.2435268
0.007520935 0.14418161 0.1573208 0.096307926 0.2022835 0.14573422 -0.16788132 -0.2058733
-0.07068551 0.1482763 0.17059775 -0.15351877 -0.1603876 0.029795853 0.21869518 0.006894346

z_loc.bias f4 [20]
00000000: c3cc 49bd c680 883d 0ad2 f1bd 8efb 62bd
00000010: 4d17 33bd c12e 07be b91d c9bd 0cd4 393c
00000020: d9ba bcbd 2348 3c3e e4f4 f33c 5437 d53d
00000030: da09 a5bd c319 4b3c f735 073e ca30 18bd
00000040: 6114 e73d aa11 153d c3d2 103d bc0c 393e
-0.04926754 0.066651866 -0.1180764 -0.055415682 -0.043723393 -0.13201429 -0.09820122 0.01134206
-0.09215326 0.18386893 0.029779859 0.104109436 -0.0805852 0.012396279 0.1320418 -0.037155904
0.11283184 0.0363938 0.035357248 0.18071264
