task2/T2b_to_F_Gaussian_adda_encoder.pt (torch, 46735 bytes, 8 tensors)

fc1.weight f4 [48, 140]
00000000: ea95 a2bd 60d3 49bd 36db f4bc 946e fe3c
00000010: 7ea7 9a3d a842 1a3d 62c5 023d 12e0 92bd
00000020: b8ff 5f3d fcf4 f73c 28a2 debc 2d19 26bd
00000030: 54d4 c43c 9aa4 3bbd dc86 0c3d 6a5f 843d
00000040: 166a 64bd aff0 57bd f5d0 0fbd 8531 94bd
00000050: 10ce 1ebc fc9c 573d 7290 013d da1c dfbc
00000060: 30e7 2bbc e789 16bd 2db9 8bbd 1ef8 bcbc
00000070: 4020 bf3b ce8d 2fbd 4dac 81bd 083d ca3c
00000080: e0f7 4b3c 8e5c d7bc c492 bd3c 28f8 9f3d
00000090: 8039 973b 1c43 6dbd ea0e a03d 241e 793d
000000a0: 7829 04bc 625e 1cbd 4a11 12bd 0cee 963d
000000b0: 80d6 343d 1005 32bd 800f 5d3b b002 8e3c
000000c0: a805 b73c 00ae 9cbb d52d 35bd e05e 2abb
000000d0: 2440 bfbc 346d e8bc 519b 2bbd f0da 27bd
000000e0: b21f 23bd 8468 083d dc55 92bd 9ca0 a4bd
000000f0: 580b 943d 708d f83c fc77 3f3d c401 173d
00000100: 960a 04bd 886a 59bd 52f9 6bbd 20c4 aebb
00000110: b0b7 ab3c ad22 a2bd 6ee6 84bd a0db 423d
00000120: 108c 313c 8855 643d c42b 9a3d 0c70 523d
00000130: 2823 93bc fa06 1abd 90ea c33c f4cc 8c3d
00000140: 27f1 a5bd 20db b93c 6b6e 85bd 449b 89bd
00000150: 7886 fa3c e817 303d 740a ed3c 6058 c93c
00000160: 9a25 d1bc 00f7 053b 73d7 98bd 22cf 61bd
00000170: 80a6 e23a 60b7 9ebc 9042 57bc 20ca 443d
00000180: c2f8 013d 50bc 92bc 64dd e3bc 2e78 7abd
00000190: e82c 323d 2259 73bd 14a8 d63c 38c1 7bbc
000001a0: 54c3 863d 3be0 5cbd a539 62bd a0d7 1f3c
000001b0: a0bf 223b a5e7 14bd 18df ac3d ce19 94bd
000001c0: d897 3b3d c086 283d 30bd 9fbc 5c45 f53c
000001d0: 909f 68bc 3e15 82bd 641a 653d 7231 b5bc
000001e0: 606e 4bbc 609a a93d 509d a73d 96d7 80bd
000001f0: 265f b5bc 8807 443d 208f 563d b2d5 7cbd
00000200: 1cce 7bbd 760f 113d 4a5f 6cbd 2c61 793d
00000210: 0379 84bd 05f8 4abd b6f7 063d 84e4 3d3d
00000220: ca69 f3bc e15a 48bd 3aa9 043d 2021 df3c
00000230: c889 b13c 19fd a1bd 0c02 68be 0a1a 08be
00000240: 67df 1cbe e238 493d dcb6 d1bd 8bf2 623d
00000250: 9ef0 de3c f9d5 213e 6a01 97bd a3a2 f93d
00000260: e422 8e3d 84dd 743d 1ac0 513d b52a dd3d
00000270: 0099 a73d 6c54 383d c6a7 d43c 44c1 343e
00000280: 5d6c 963d 36f6 953d 1f11 68bd e7e4 f03d
00000290: 5f41 0bbd bb97 2d3e f5dc 2dbd e4d3 ec3d
000002a0: b1a8 9bbd a9de be3d 8955 8a3d 2fb4 153e
000002b0: 70ab d13c 0d81 983d d60a 7d3d d793 be3d
000002c0: bda9 923d 2eb8 5d3c 8b58 44bd 80fb 8d3c
000002d0: a1c3 003c 7720 7e3d 2b4b 363c 11bd c5bb
000002e0: 9ac3 99bd 5855 023d fed2 44bd 74ea ed3c
000002f0: 0388 3a3d cb08 013e 35aa 4fbd 82c2 273e
00000300: be23 7bbd c27d 8a3d 6c19 40bc 38ee 213e
00000310: 1231 253d a2c7 c93c 89be 7cbd 150b 7a3d
00000320: 7cd5 ecbb 06c1 1ebc 7c14 d53a 1a4e fbbc
00000330: c4f5 84bc 1a36 873c 73a4 9abc 344e b23d
00000340: fbde b1bd 7cd9 003d 3aa4 953d bfa3 c3bd
00000350: eb99 983c 6f4b c13d cb39 033d f842 b03d
00000360: e2c5 31bd 43f7 de3d ceac b0bb a820 343e
00000370: e823 cabd 98a4 0d3e 11a4 91bd fd9e 553c
00000380: 04fb 643d acdc ea3d 8c5c 96bd 95a0 e93c
00000390: 7d8f 24bd af11 a23d 6380 05bd c78c 333d
000003a0: 456d 2dbc 2e9e c33d 0141 cabd cb9e b83c
000003b0: 0dfc 553d 0adc 2fbc 5eec 8a3d e80d 9f3d
000003c0: 5305 523d 9576 8f3d 5041 e53d dddb df3d
000003d0: f0f2 ee3b b54d e53d e8f6 3ebd 0d61 d53d
000003e0: a7d9 333e f29b 84bc 2ae7 eb3d e381 e1bc
000003f0: b140 093e 73f7 e7bd c5f4 9bbd 4e0e d0bd
-0.0793875 -0.04927385 -0.029889684 0.031058587 0.07551478 0.037661225 0.03192652 -0.07171644
0.05468723 0.030268185 -0.027176932 -0.040551353 0.024027027 -0.045811273 0.0343083 0.06463511
-0.055765234 -0.052719768 -0.035111386 -0.072360076 -0.009692684 0.052639946 0.031631894 -0.027235437
-0.010492131 -0.036752608 -0.06822429 -0.02306753 0.005832702 -0.042859845 -0.06331692 0.024687305
0.012449235 -0.02628925 0.023141272 0.07811004 0.004615009 -0.05792533 0.07815345 0.06081976
-0.008066528 -0.038175948 -0.03566102 0.073696226 0.044149876 -0.04346186 0.0033731163 0.017335266
0.022341564 -0.0047814846 -0.044233162 -0.0025996491 -0.023346014 -0.028372385 -0.04189617 -0.04098028
-0.03982515 0.0333028 -0.071452826 -0.08038446 0.07228726 0.03034088 0.046745285 0.03686692
-0.032236658 -0.05308011 -0.057610817 -0.0053334385 0.020961612 -0.0791677 -0.064892635 0.047572732
0.010836616 0.05574563 0.07527879 0.051376387 -0.0179611 -0.03760431 0.023915559 0.06875029
-0.08102637 0.022687495 -0.06515201 -0.06719068 0.030581698 0.04299155 0.028935649 0.024578273
-0.025530625 0.0020441413 -0.07462969 -0.055129178 0.0017292053 -0.01937455 -0.013138428 0.048044324
0.031731375 -0.01791206 -0.027815528 -0.06114977 0.043499857 -0.059411176 0.026203193 -0.015365891
0.06580225 -0.05392478 -0.055230755 0.009755999 0.0024833456 -0.036353726 0.08440989 -0.07231484
0.045799106 0.041144133 -0.019499391 0.0299403 -0.014198199 -0.06351708 0.05593337 -0.022118304
-0.012416452 0.08281398 0.08184302 -0.0629112 -0.022140097 0.047858745 0.05238259 -0.061727233
-0.061475858 0.035415135 -0.057708062 0.060883686 -0.06468394 -0.049552936 0.03295108 0.046360508
-0.02971353 -0.048914794 0.03238795 0.027237475 0.021672145 -0.07909603 -0.22657031 -0.13291183
-0.15319596 0.049126513 -0.10239956 0.05540709 0.027214345 0.1580428 -0.073733166 0.121892236
0.069402486 0.059781566 0.051208593 0.10799161 0.08183479 0.045002386 0.025958907 0.1765185
0.073448874 0.07322352 -0.056656953 0.1176241 -0.03399789 0.16952412 -0.04244705 0.115638524
-0.07600535 0.09319813 0.06754596 0.14619516 0.025594443 0.074464895 0.061777912 0.09305542
0.07161281 0.013532681 -0.047936004 0.017331839 0.007859142 0.06204268 0.01112632 -0.0060345014
-0.07508011 0.03181967 -0.04805278 0.02904246 0.045539867 0.1260101 -0.05069943 0.16382793
-0.061313383 0.06762268 -0.011724811 0.1581353 0.04033 0.024631325 -0.061705146 0.061045725
-0.0072275978 -0.009689575 0.0016256715 -0.03067689 -0.016230471 0.01650529 -0.018877244 0.08706322
-0.08685108 0.03145741 0.07306714 -0.095527165 0.018628081 0.09438216 0.032037538 0.08606523
-0.043401606 0.10887005 -0.0053916937 0.17590582 -0.0987013 0.13832319 -0.07111371 0.013038394
0.05590345 0.11467871 -0.07341871 0.028518954 -0.040175904 0.07913529 -0.032593142 0.043835428
-0.010585134 0.09551655 -0.0987568 0.022536656 0.052242327 -0.010733614 0.06783365 0.07766324
0.05127461 0.070050396 0.11194098 0.109306075 0.007292144 0.11196462 -0.046622187 0.104189016
0.17563497 -0.016187642 0.115187004 -0.027527755 0.13403584 -0.11326494 -0.076150455 -0.101589784

fc1.bias f4 [48]
00000000: 8063 7ebb f96b b83c d37a 343b 80c6 a33d
00000010: d195 9f3d f668 893d 375b 4d3c 7f1c 9fbd
00000020: 7c7f 2cbd 25ff 273c 1970 bdbc 281f 483d
00000030: 5037 0abc 9758 e03c ba72 a5bd 4091 8a3d
00000040: 8fbd 313d 0096 6839 0076 953d 534e 82bd
00000050: 9bf0 a53d e61d 863d 6caf 09bd 9928 3cbc
00000060: eeae a3bd 5161 c7bb 002c 2fbd f854 23bd
00000070: 09bd 30bc fc5f b53c 7c29 09bd 8177 f5bc
00000080: 64cc 64bd 0062 313a 36d5 98bc 1c63 763d
00000090: 4fd8 17bd c744 8e3d 6476 543d feef 44bd
000000a0: 08fc 93bd f7ba 9a3c d50a de3b 3f52 6b3d
000000b0: df52 5f3d b087 0dbd 960d af3d 3ed8 ccbc
-0.003881663 0.022512423 0.002753903 0.07996845 0.07792247 0.06709473 0.012533954 -0.07769107
-0.042113766 0.010253702 -0.023124741 0.048857838 -0.008436039 0.027385993 -0.08078523 0.067659855
0.043393668 0.00022181123 0.07297897 -0.063625954 0.081025325 0.065486714 -0.03361456 -0.011484289
-0.079923496 -0.006084599 -0.04276657 -0.039875954 -0.010787257 0.022140495 -0.03348683 -0.02996421
-0.055858985 0.00067666173 -0.018656354 0.06015311 -0.037071522 0.06946712 0.05187072 -0.048080437
-0.072258055 0.01888798 0.0067761936 0.057451483 0.05452239 -0.03455323 0.08547513 -0.025005456

fc2.weight f4 [48, 48]
00000000: 68ae 5e3d 35d2 303e 7f61 873e a028 94bc
00000010: c0bf 073d 840f d1bd 5928 723d bf6c 233d
00000020: 0b72 04bd c0ec 74bc 0d97 39bd b4b7 7a3d
00000030: 2664 90bd 3275 223d 4c9a f13d 2d3f 5c3d
00000040: c9e0 b23d ec6d 23bd 5ee6 053e 247a f7bc
00000050: 43a0 2b3d da4f 1dbd 401f 493d cae4 963e
00000060: e7c0 87bd 053d 14be ed7f 63bd 7039 ec3d
00000070: 2618 273e 8038 613b 5112 09be 1252 d93c
00000080: f436 88bd 8008 08bb 2529 483d 5c5f 39bd
00000090: 8c6c 93bd d1d0 ea3d 6f22 febd d1eb d23d
000000a0: 1305 92bd 80e3 abbd 3c2a ecbc ba25 993d
000000b0: ed3b 1ebe 5ebb ca3d 50c0 3fbe 60b7 18bd
000000c0: 507f 8d3d dbfd 7a3e 0bca 183e 5c80 f8bd
000000d0: ddc6 eebd 8e02 82bc 0ead 39be e6e5 7f38
000000e0: 1447 05be 5976 d33c e133 ba3a 5858 853c
000000f0: 0049 6e3c 575c 2bbe 844e e93c a80c 073e
00000100: f51f 85bd 2cbb 7dbd 70db 8d3c 2033 5e3c
00000110: b8ad 28be 5d76 403c ecbf d83d acd7 253e
00000120: 724c 7abd 620d 32be 4bb9 23be d260 0c3e
00000130: 7432 363e 62f7 963d 10e2 1d3d cade c73d
00000140: 5da2 3dbe 7888 cf3c 83a1 923e 90a4 0d3e
00000150: 9861 91bd e385 b7bd 7421 8a3d abf6 383d
00000160: 1805 083e bb08 03be 9b38 b6bd 072b 833d
00000170: f358 d7bd 360f e8bd cec8 6f3d cd36 81be
00000180: 7e5e 05be 6f26 50be ecb4 7abe 4b95 093d
00000190: 396f c4bd 5ce8 d33d c7b7 243e a226 11be
000001a0: 9cd4 2e3e 3167 c9bd b238 efbd 0caa a53d
000001b0: 486d a13d ba0e 473d b634 bf3d e6da bbbd
000001c0: 8378 14be 405d 5a3d 69b2 a5bd 9c0b 0fbe
000001d0: 46dc fb3c 44dd b23d dc02 0d3d a536 05be
000001e0: 20aa 013e 2d06 3d3e 4f8e 0f3e d80a 293d
000001f0: 456f 6cbb 200e 403d 170e 08bd bfe3 9c3d
00000200: d6aa 823d 3980 0fbe abe3 ffbd 6499 dc3d
00000210: a87c cfbc ea15 503d 88b0 8b3d 983f 8fbd
00000220: 4332 12be 7080 97bd 0d00 163e fbed fdbd
00000230: d550 bd3d 07da 91bd d23a 283e 3e99 4d3e
00000240: 28be 133e 1a81 66be e246 01be 1cc3 813e
00000250: bd66 8a3c 8b9f cf3d 265d a03d c108 f0bd
00000260: aa8f 3b3e fbae 543d 764e 44bd 507d 213d
00000270: b6d3 92bd db7e cd3d 9560 af3c 9c56 51be
00000280: 6f4e e6bd b036 aebc 989d 83bd db19 36bd
00000290: 67a4 a83d b7ef 27bc c429 e4bc c543 49be
000002a0: 5375 f8bd f624 8ebd 747d fa3c 7e0c 0c3e
000002b0: 2fb4 b1bc a641 0abd 266c 0f3e bd65 29bd
000002c0: f339 1a3e e6ea 57bd 7d15 24bd 4489 603d
000002d0: 60f2 b5bd 014f 84bd 3483 e0bd 6010 bd3d
000002e0: 3879 923c c227 58bd 6afa 773e 3a9f 063e
000002f0: 5ee4 7a3d 6a81 77bd 78e4 58bd bb59 0b3e
00000300: 86c5 0e3e 4817 9fbe 5079 6abe 4d0c 683d
00000310: 44d1 bc3d 972e c9bd 1f86 d5bc 4f14 b6bd
00000320: 6561 593e 45e4 09be 9abb 01be a79b 00be
00000330: 003f d4bd f17c 313d 440c 95bd b904 84be
00000340: c7c8 a23d 6877 a23c f84e 66bd ce23 693d
00000350: 512a 023e 2876 29bc 50e4 23bc ac56 97be
00000360: 1409 393d e913 303e e1a3 33bb e08d 1b3d
00000370: 30ee a5bd c01d 7dbc 1e7d 003e 2120 f93d
00000380: be8c 183e 9a84 843d 5fc3 97be 2cbd f73d
00000390: 9209 54bd 76fc febd e4ec dcbd 1bc9 e83c
000003a0: 807c fa3d 95c0 513d 3605 9c3d ffed 12be
000003b0: 9a64 ef3d 8094 09bb 8eee 473d 52ba fd3d
000003c0: c020 673c 6865 0c3e 078d 5e3e f447 87bd
000003d0: 88f8 3e3d ca34 c1bd 9f58 da3d 99ea 72bc
000003e0: 1734 e33d 9049 893d 9dc8 123e 2c66 213d
000003f0: 109f 30bc 5716 d4bd 021d 34bd fbba aa3d
0.054365546 0.17267688 0.2644157 -0.018085778 0.03314185 -0.102080375 0.05912051 0.03989863
-0.032335322 -0.014949024 -0.04531007 0.06121035 -0.07050352 0.039662547 0.11797008 0.053771187
0.087342806 -0.03989975 0.1307616 -0.030209608 0.041900884 -0.03840623 0.049102068 0.29471427
-0.0662859 -0.14476402 -0.05554192 0.11534393 0.16317806 0.0034365952 -0.13385893 0.026528392
-0.066511065 -0.002075702 0.048867363 -0.045256957 -0.07198438 0.1146561 -0.124089114 0.10298885
-0.07129874 -0.083930016 -0.028828733 0.07477899 -0.15452547 0.09899019 -0.18725705 -0.037284255
0.069090486 0.245109 0.14920823 -0.121338576 -0.11659024 -0.015870359 -0.18132421 6.1010847e-05
-0.13015395 0.025813268 0.0014206135 0.016277477 0.014543772 -0.16734444 0.028479822 0.13188422
-0.06500236 -0.06194608 0.01731655 0.013561994 -0.16472518 0.01174697 0.10583481 0.16195554
-0.06110806 -0.17387918 -0.15988652 0.13708809 0.17792684 0.07371403 0.038545668 0.097592905
-0.18518968 0.025333628 0.2863885 0.13832307 -0.07098693 -0.08961084 0.06744662 0.045157116
0.13283193 -0.12796299 -0.088975154 0.06404691 -0.105150126 -0.11331026 0.05854111 -0.25237122
-0.13024327 -0.20327161 -0.24483079 0.033589642 -0.095915265 0.103470534 0.1608573 -0.14174893
0.17073292 -0.09834135 -0.11680736 0.080890745 0.07882172 0.04859803 0.09336226 -0.09172611
-0.14499097 0.053311586 -0.0809067 -0.13969272 0.030744683 0.08733609 0.034426555 -0.13009126
0.12662554 0.18459387 0.1401913 0.041270107 -0.0036077064 0.04688847 -0.033216562 0.076606266
0.063802406 -0.14013757 -0.12494596 0.107714444 -0.025327995 0.05080215 0.0682078 -0.069945514
-0.14276986 -0.073975444 0.14648457 -0.12398907 0.09243933 -0.071216635 0.16428688 0.20077989
0.14428008 -0.22510186 -0.12624696 0.2534417 0.016894693 0.10137852 0.07830267 -0.1172042
0.18316522 0.051924687 -0.04792639 0.039426148 -0.07169287 0.100339614 0.021408359 -0.20443195
-0.11245429 -0.021266311 -0.06426543 -0.04445825 0.08234482 -0.010250024 -0.027851947 -0.19654758
-0.12131753 -0.069406435 0.030577399 0.1367664 -0.021692364 -0.033754013 0.14006099 -0.04135679
0.15061168 -0.05271425 -0.040059555 0.054818407 -0.0888412 -0.06460381 -0.10962525 0.09231639
0.017880067 -0.05277229 0.24216619 0.13146678 0.061252944 -0.060426153 -0.05295226 0.13608448
0.13942537 -0.3107245 -0.2289784 0.056652356 0.09219602 -0.098233394 -0.02606493 -0.08890592
0.2122856 -0.13465984 -0.1266922 -0.12559377 -0.10363579 0.043332044 -0.0727773 -0.25784853
0.079484515 0.019832328 -0.056227654 0.05691891 0.12711455 -0.010343112 -0.010003164 -0.29558313
0.045174673 0.17195095 -0.0027410912 0.0379771 -0.08102071 -0.0154489875 0.12547728 0.12164331
0.14897439 0.06470604 -0.29641244 0.120966285 -0.05176694 -0.12450497 -0.10787371 0.028416207
0.12230778 0.05120905 0.076181814 -0.14348601 0.1168911 -0.0020993054 0.048811488 0.123890534
0.014106929 0.13710558 0.21733485 -0.06605521 0.046623737 -0.09433897 0.106614344 -0.01482644
0.1109392 0.06703484 0.1433434 0.03940408 -0.010780111 -0.103558235 -0.043972977 0.08336445

fc2.bias f4 [48]
00000000: 2433 9fbc 4c85 2ebe 83b8 383d ed44 c43d
00000010: 3f4f 6c3d 9940 25bd e234 553e 6b39 e6bd
00000020: 7a30 133d f952 3a3d 2441 61bd 51f3 6d3d
00000030: 4651 30be 17f5 01be e6de 93bc f298 e0bc
00000040: 95fd a7bc 5fa3 bf3c ceab 4dbd 1e7a f4bc
00000050: 368d b23c 487c 04be 5884 06bd 736f bebd
00000060: 7c47 11be 92fb 19be 4355 813d 7c8a d2bc
00000070: 721a 0f3e 6e7b aa3d 5f71 2c3e 1d2d 6bbb
00000080: 546a d0bc 94be 3d3d c998 0ebe d23a 61bd
00000090: e0d8 063e e98f c23d 3ae7 00bd 6c1f 753d
000000a0: 9c25 95bd 7acf d33d d36a e2bd 0df3 043e
000000b0: da8d e0bd 3ad5 013e 8442 83ba 48ed 483d
-0.019433565 -0.17043036 0.04509784 0.09583459 0.057692762 -0.04034481 0.20820954 -0.1124142
0.035934903 0.045489285 -0.054993764 0.058093373 -0.17218503 -0.1269115 -0.018050622 -0.02741668
-0.02050666 0.023393331 -0.050212674 -0.029843386 0.02179585 -0.12938035 -0.032841057 -0.09298601
-0.14187425 -0.15037373 0.063150905 -0.0257008 0.13974932 0.083243236 0.16840123 -0.0035885044
-0.025441326 0.046324328 -0.1392547 -0.054987736 0.13168669 0.09500105 -0.031470515 0.05984442
-0.07282564 0.103423074 -0.11055531 0.12983342 -0.10964556 0.12678996 -0.001001433 0.049054414

z_loc.weight f4 [20, 48]
00000000: 9f91 0cbc 5209 693e abf4 80be a1e4 5fbe
00000010: 6be0 0dbe cef2 433e 7eda 35be 8223 78bd
00000020: 7916 0c3e 5a0d 923e 86d8 c6bd 3e2d 373e
00000030: b09b 943e daba f1bd 7e3c da3c 0485 80be
00000040: 370a b63b eb6a 87bd 1165 333d 17a3 86bd
00000050: 368f 60bd be49 fdbd e9a8 03be 96c4 113d
00000060: d31c c63d febc 223d 8523 aebd 3707 45be
00000070: bb9f 443e 8310 0f3e c71c a1bd a512 193e
00000080: eee7 50be 2213 6fbe b957 f53d 8bd5 e93d
00000090: 3bb1 cfbd 73b5 3bbe b9d6 803e f385 6ebe
000000a0: 29ed 9cbe 232a 33be 5f3d ed3d 3fba 65be
000000b0: 5d78 683d 7117 85be 2368 89bd 5625 683e
000000c0: b17b 15be dc6d 5bbc 33bf 9a3a ed4d 2f3d
000000d0: 81f9 9e3e 0b8f 39bd 2e2d 263e 509d 3c3e
000000e0: 0734 62be b02e 8ebe e4e1 793e 1fa7 d7bd
000000f0: 8b99 11be cbcb 073e d3ba 0b3e f47c 8b3e
00000100: ca55 27bd bf6d 343e 2207 75be 953f 853c
00000110: 4eb9 dcbc 6e5d 853e cfae 923d bf7f 08be
00000120: 4d19 b1bd 0032 77be 9deb 663e 7c85 4d3e
00000130: d9f4 fbbd d673 9fbe 3a87 1d3e cb0c 87be
00000140: 5946 37bb 4b2b 093e cec4 18be 2738 79be
00000150: 389e 783d 8cab bb3d 4524 f0bc 6684 183d
00000160: 3052 813e 244a 483d 0604 94bd b02a 5c3e
00000170: 3313 1bbd 9e7b 013d 9c3d 943e 8f17 4bbe
00000180: 3fa5 233d f076 06be a1bc 973d f861 923d
00000190: 12d0 4f3e c2af 32bc e807 153b e630 533e
000001a0: 4146 15be b750 afbd 5ee1 433d 5bfa 82be
000001b0: 0d3a 37be 2139 2ebe 3f4f af3d 0b4a 6b3e
000001c0: d0a6 09be e317 123e 574d 34bd f891 3f3e
000001d0: fdbb 38be d759 cebd d5d9 6f3e fe8d 3cbe
000001e0: 3b78 10be 0064 55bd 9d57 323e 62c0 8c3d
000001f0: 8151 773d ed3b 38be 3e4a 623e e242 82be
00000200: 591b 693e 0c02 d2bc 436e 0fbd c2c7 22bd
00000210: 6b65 cb3d 387d 573e cb07 67be 49f0 593e
00000220: f1e8 dd3d 464d c23c 2dc0 9dbd 5860 5f3e
00000230: bbd8 0ebe 00f9 fab9 8281 673e f2d7 24be
00000240: 8a06 02be 044b 44bd f4ef 973d 9a93 343e
00000250: 21ef 2d3d dc72 2cbe facf da3d 58f4 de3d
00000260: 5a78 1bbe 6286 823c 97df 27bd 276e c4bd
00000270: 0531 33be 82ee 99bd f49b fbbc b6c4 733d
00000280: b19e 71bd 5b11 b33d 4a1d dd3c c185 703e
00000290: e763 27be c77b ce3d 1f8a 2e3e 4367 c73c
000002a0: 3828 6cbd 0f06 9fbd 4f21 903d 9380 f53d
000002b0: c2bd 29be d5f6 cfbd 6872 5c3e 55fe 99ba
000002c0: 32e8 a53d 9de1 e03d d58c 57be 4825 2ebe
000002d0: 24eb 0d3e 90a7 293e d01f 38be 44da 113e
000002e0: 3dcd bb3d f714 073e d349 10be fb93 f5bc
000002f0: 90aa 4cbe 3f34 2e3e c8f0 fa3d ec2f 37be
00000300: 44c2 dc3d ba7f 293d a812 2cbe 7319 fcbd
00000310: 2984 8ebe bf3d 3dbc 98ba 623d ef5e 383c
00000320: 89fc 493d bb4b 573c ec94 58be d196 0c3e
00000330: 8968 8c3e e312 1abd 6f8a 0ebe 2c7b 56be
00000340: 7990 373e b824 35bd 63ef b23d 028b 5c3c
00000350: 3879 9b3c 5586 02be a43a 78be c8ec d73d
00000360: 8080 a4bb 45b2 243e 282d a4bc 521f 4bbe
00000370: 89e7 ab3d 99ee 1c3e 9357 c1bb 53c6 653e
00000380: cafd b3bd a481 6dbe af95 9d3d f5ee 3e3d
00000390: dce1 9fbd 2e9a 79be 9d65 813e 8062 8bbd
000003a0: 3f21 f6bd 2081 5fbd 0bd0 b1bd 6949 10be
000003b0: f84e a53d e4e0 68be 56fb 95be 599e 4d3e
000003c0: 6379 88bd 9d54 53bc 3937 533e bf36 3b3e
000003d0: f088 893e c2f3 053c 69a3 10bd 777e 703e
000003e0: 9140 6cbe 77cf 18be 6d96 2e3d fcd2 97be
000003f0: a0e2 e0bd b276 c83c d379 cf3c e495 993d
-0.008579641 0.22757462 -0.25186667 -0.21864559 -0.1385514 0.19135591 -0.1775913 -0.060580738
0.13680448 0.2852581 -0.09709267 0.17888352 0.2902503 -0.11803217 0.026640173 -0.25101483
0.005555417 -0.0661219 0.043797556 -0.06574076 -0.054824077 -0.12367581 -0.12857403 0.03558787
0.096734665 0.03973102 -0.085028686 -0.19241033 0.19201557 0.13971142 -0.07866817 0.14948519
-0.20400974 -0.23347142 0.119796224 0.11417683 -0.10141226 -0.18330936 0.2516382 -0.23293285
-0.3064969 -0.17496543 0.11583971 -0.22434328 0.056755412 -0.25994447 -0.06709316 0.22670493
-0.14597966 -0.013392892 0.0011806249 0.042798925 0.3104973 -0.045302432 0.16228172 0.18419385
-0.2209016 -0.27769995 0.24402577 -0.10529923 -0.14218728 0.13261335 0.13645487 0.2724377
-0.0408533 0.1761999 -0.23928502 0.01626567 -0.026943829 0.26047844 0.07162248 -0.13329981
-0.08647404 -0.24140167 0.22550817 0.20070451 -0.1230256 -0.31143063 0.15383616 -0.26376948
-0.0027965514 0.13395421 -0.14918825 -0.24337827 0.060697764 0.09163579 -0.02931417 0.03723564
0.25258017 0.04889883 -0.0722733 0.21500659 -0.037860107 0.03161203 0.28953254 -0.19833206
0.039952513 -0.13131309 0.07409025 0.07147592 0.20294216 -0.010906162 0.0022740308 0.20624122
-0.14577581 -0.08560317 0.04782235 -0.2558163 -0.17893238 -0.1701398 0.08560037 0.22977464
-0.1344254 0.14266925 -0.04401907 0.18708026 -0.18040462 -0.10075729 0.2342294 -0.1841354
-0.14108364 -0.05209732 0.17416234 0.068726316 0.060380463 -0.1799161 0.22098634 -0.25441653
0.22764339 -0.025635742 -0.035017263 -0.039741285 0.09931453 0.21043861 -0.22561567 0.21283068
0.10835446 0.023718487 -0.0770267 0.21814096 -0.13949864 -0.00047869235 0.22607997 -0.16098002
-0.12697807 -0.047923103 0.07418814 0.1763443 0.04246438 -0.1684069 0.106842 0.108864486
-0.15182629 0.01593322 -0.040984716 -0.095913224 -0.17499168 -0.07516195 -0.030714013 0.05951377
-0.05898923 0.08743545 0.026991505 0.23488523 -0.16346703 0.100822024 0.17044877 0.024341231
-0.057655543 -0.077648275 0.07037603 0.11987414 -0.16576293 -0.10154501 0.21528018 -0.001174877
0.08100928 0.10980532 -0.21049817 -0.17006409 0.1385923 0.16567826 -0.17980886 0.14243418
0.091700055 0.13191591 -0.14090662 -0.02997779 -0.1998694 0.17012118 0.12252957 -0.17889374
0.10779241 0.041381575 -0.16803992 -0.123095416 -0.27835205 -0.011550366 0.05535373 0.011253103
0.049313102 0.013140614 -0.21150559 0.13729407 0.27423504 -0.037615668 -0.13919996 -0.20945424
0.17926206 -0.04422447 0.08737066 0.013460876 0.0189787 -0.12746556 -0.2424112 0.10543209
-0.005020201 0.1608363 -0.020041063 -0.19836167 0.08393771 0.15325393 -0.0059003322 0.22438936
-0.08788641 -0.23193985 0.076945655 0.046614606 -0.07806751 -0.24375221 0.25272837 -0.06805897
-0.1201806 -0.054566503 -0.08682259 -0.14090504 0.08071703 -0.22742039 -0.29293317 0.20079936
-0.06663778 -0.012898591 0.20626535 0.18282603 0.26862288 0.008175792 -0.03531209 0.23485743
-0.23071505 -0.14922892 0.042623926 -0.29653156 -0.10980725 0.02447066 0.025326645 0.074992925

z_loc.bias f4 [20]
00000000: 1175 313d 2c5e f3bd 78d9 333e 772a 8f3d
00000010: 01ee c2bd 3af8 bfbd 73a2 c93d f0eb 56bd
00000020: 3114 89bc b3e1 823d 7992 01be 2819 293d
00000030: bfdf ad3c 2883 4e3d eccb 883d 7ac6 b1bd
00000040: 9243 273e 4a30 c3bd be21 e53c d0bc dfbd
0.043324534 -0.11883196 0.17563426 0.069905214 -0.09518052 -0.09373517 0.09845438 -0.0524711
-0.01673326 0.06390705 -0.12653531 0.041283756 0.021224855 0.05041805 0.0667952 -0.086804345
0.1633437 -0.09530695 0.027970191 -0.10924685

z_logit_scale.weight f4 [20, 48]
00000000: 5ea8 d33d 508e b33d 6fe6 0e3d 3f7b c33b
00000010: ad27 4a3d 1449 963c c4be 38be 5ae9 90bc
00000020: db2f 143e 825d 463d f07e f83d f216 3e3d
00000030: a3c0 cb3d 6b68 63bc 567f 8c3c 26df d5bd
00000040: d1c4 263e 1a2d 8fbd e829 07bd 2bd7 c4bd
00000050: 1315 1b3e 28cb e23d f127 a93d 0fb1 97bd
00000060: ff6b c7bc 1c03 2d3e c486 0bbd 1d23 f2bd
00000070: 0776 1bbe ce56 a4bd 7c84 81bd 754d 99bd
00000080: 50d2 28bd 3a61 653d 8b8a 063e 8c97 b7bb
00000090: ae27 4a3d a84f b73c acd3 b4bd c650 cd3b
000000a0: 5faf 7ebd 0085 f5bd c493 383d 5911 a63d
000000b0: 7619 a5bd 663a 7f3d db20 d63d ba84 0a3d
000000c0: cd7d 6b3d 5ef0 fd3d 9691 abbc ae57 ecbc
000000d0: f481 e93d 8833 9dbc 5d00 1fbe eb65 03bd
000000e0: 3ecd 443d 646f 453c 1b44 1b3e 6ae8 663d
000000f0: a5a9 0c3e b068 363e b437 233e 20e7 b2bd
00000100: bc0d c43d afb8 50bd 5fb9 583d 61c1 683c
00000110: 3be2 ad3c cac8 8b3d 7762 773c 3e0f 36bc
00000120: a2ba 4ebc 81eb cd3d 94e6 aabd 6b03 c4bd
00000130: e888 0cbe 2a85 bcbd 4ab4 f6bd c962 263d
00000140: 3c77 d5bb 3358 02bd 7caf 313e a1a3 5abd
00000150: 2503 543d e570 0cbe 5154 793d 3f29 4b3d
00000160: 6601 0e3e 8a7c 953c fc31 bd3d 8cce 993d
00000170: fadc 803d 0176 06be 9edb b7bc 2377 d6bd
00000180: dcf9 28bd 24f6 28bc 6604 d8bd 5d25 58bd
00000190: d167 333c 703d 4dbd 8fd0 82bd 05d2 cebd
000001a0: e958 d43d f70b f5bb c1e7 30bc 02ee 043c
000001b0: af84 a3bd a163 cebd cb8e fcbc a0fa 843d
000001c0: 96d8 393d 2090 2e3d d4af 6ebd c101 e3bd
000001d0: 70bf f93d ab4a dd3d d0a9 babb 94d9 9abd
000001e0: 5c35 043e 5d14 2ebc 3cc8 5ebd 7fc5 7ebd
000001f0: af2d 24be b0ae 2dbd c385 a5bd 9b76 1dbd
00000200: 8be7 1ebc fff9 88bd 533e 1d3e 9b42 40bd
00000210: 1d88 c4bd d038 a5bc 9b21 cdbd ccaa a63d
00000220: 2f28 2b3d 3d3e b0bd 87bb 9c3d 9013 223d
00000230: 1fd4 003e 0ea7 a1bd af51 9d3d 2a0e df3d
00000240: 0c40 0e3e 0a97 cc3d 97dc d43d ffce d4bd
00000250: 310f e5bd 47d7 e03d b802 1ebd a54c 0e3e
00000260: 6b24 a13c 1781 87bb 9e9a 50bb cf78 fabc
00000270: 1e84 cc3d fef2 803c 64e0 d33d e355 fe3d
00000280: e219 233e 4150 56bd b528 9dbc 47d1 d83b
00000290: fc83 bb3d a0ee b03d 6506 a1bd 3362 173e
000002a0: b38c db3d adfb ee3c f41d 8dbd 798c ffbd
000002b0: 3d04 afbd b2d0 acbd febc 22be c95d 173e
000002c0: de02 c6bd 95e2 00bd 8b1e cdbd fc76 c23d
000002d0: c5db 403d c9d3 bb3d f4d7 e7bd d13f 88bd
000002e0: 987e 8d3d 841c 61bd 1a17 92bd 7af9 10be
000002f0: 04d2 533d f90b 273d 3e17 6d3d 5a15 513b
00000300: 7fe4 99bd 554c c5bd e8dc 01be 593a 883d
00000310: 1d01 6ebd 9974 863d 9948 00bd d28f 273e
00000320: 58f8 8fbd 913c 883c 3ffa 2c3b cd06 7fbd
00000330: 95f6 9d3c 9df4 cfbd 2649 503d 1f2e f33d
00000340: 133d ef3d a582 b83d d633 c8bd 5e28 8fbd
00000350: 25a7 663d 3e45 2c3e ffbe f9bc 5322 c6bd
00000360: aea5 453d 8419 91bd 4516 183d 04b4 22be
00000370: de1d 47bd 410b a5bd caab e3bd c2ef d1bd
00000380: 5ecf 6a3d 330e e1bc 54af 2b3e c33a 9e3d
00000390: bea5 b1b9 50a8 a63d 1207 bfbd 308d f7bd
000003a0: acaf 063d 099b 1ebe 9aa7 743d e5fd 6abd
000003b0: 6750 483d b20f 393d ddf6 a0bc a1f9 0c3d
000003c0: d131 82bd 4202 883d 602e cfbd 0cca 1b3d
000003d0: 68a0 1cbd 0cb3 1ebe 42e0 25be dee9 0b3e
000003e0: 404a 9b3d 2d27 1abe c165 3a3d 6e00 5c3d
000003f0: d5e2 62bd 4abe d0bd 75cb 24bd 864a 033e
0.10334848 0.08767378 0.034887727 0.00596562 0.049354244 0.018345393 -0.18041521 -0.017689396
0.1447138 0.04842902 0.121335864 0.0464086 0.09948852 -0.013879876 0.017150562 -0.10442953
0.16286017 -0.06991024 -0.03299895 -0.096113525 0.15144758 0.11073905 0.08259571 -0.07406818
-0.024343489 0.16895717 -0.03406407 -0.118231036 -0.15181743 -0.08024369 -0.063240975 -0.07485477
-0.041216195 0.056000926 0.13138787 -0.0056027826 0.049354248 0.02237685 -0.08829436 0.0062657325
-0.062178966 -0.11988258 0.045062795 0.081087776 -0.08061497 0.062311552 0.104554854 0.033817984
0.05749302 0.12399362 -0.020943444 -0.028850403 0.1140174 -0.019189611 -0.15527482 -0.03207962
0.048047297 0.012050483 0.15162699 0.05637399 0.13736589 0.17813373 0.15939218 -0.0873549
0.09572932 -0.050957378 0.05291116 0.014206261 0.02122604 0.06825407 0.015099159 -0.011112032
-0.012617739 0.100546844 -0.083447605 -0.095709644 -0.137241 -0.092050865 -0.12046106 0.040621553
-0.006514458 -0.031822395 0.17352098 -0.053378705 0.05176081 -0.13714941 0.060871426 0.049599882
0.13867721 0.018247861 0.092380494 0.07510099 0.06292148 -0.13130952 -0.022443589 -0.10471942
-0.04125391 -0.010312591 -0.10547714 -0.052770007 0.010950045 -0.05010742 -0.06387436 -0.10098652
0.10368521 -0.007478233 -0.010797442 0.008113386 -0.07984292 -0.100775965 -0.030829808 0.064931154
0.045372568 0.042617917 -0.05827315 -0.11084319 0.12194717 0.108052574 -0.0056965128 -0.07561031
0.1291098 -0.010624972 -0.054390177 -0.062200066 -0.16033052 -0.042402923 -0.08082154 -0.03844319
-0.009698759 -0.06688308 0.15355806 -0.04693852 -0.09596274 -0.020168692 -0.10016175 0.08138046
0.04178637 -0.08605621 0.076529555 0.039569438 0.12580918 -0.07893191 0.076815955 0.108913735
0.1389162 0.09989746 0.10393637 -0.10391044 -0.11184538 0.10978561 -0.03857681 0.13896425
0.019670686 -0.0041352618 -0.003183044 -0.030575184 0.09986137 0.015740868 0.103455335 0.12418725
0.15927842 -0.05232263 -0.01918445 0.0066167447 0.091560334 0.08639264 -0.07862548 0.14783554
0.107201956 0.029172743 -0.06890479 -0.12477965 -0.0854573 -0.08438243 -0.15892407 0.1478187
-0.096685156 -0.031466085 -0.10015591 0.09495351 0.04708459 0.09171254 -0.11320487 -0.06652797
0.069089115 -0.054958835 -0.071333125 -0.14157668 0.05171396 0.040782902 0.057883494 0.0031903596
-0.07514285 -0.096337 -0.12681925 0.06651754 -0.05810653 0.06565208 -0.031319235 0.16363457
-0.0702979 0.016630443 0.0026394275 -0.062262345 0.019282619 -0.10154078 0.05085101 0.11874031
0.11681571 0.090092935 -0.09775512 -0.06990121 0.056311745 0.16823289 -0.030486582 -0.096745156
0.048253708 -0.07084945 0.037130613 -0.15888983 -0.048612468 -0.08058787 -0.111167505 -0.10250808
0.057326667 -0.027472591 0.16766101 0.07726052 -0.00033883558 0.08137572 -0.093275204 -0.12087476
0.032882378 -0.15488829 0.05973015 -0.05737104 0.048904803 0.045180984 -0.019648964 0.034417752
-0.06357158 0.06641056 -0.10116267 0.038034484 -0.038238913 -0.15497988 -0.16198829 0.13663432
0.075825214 -0.15054007 0.045507196 0.053711347 -0.055392105 -0.10192545 -0.040233094 0.12821397

z_logit_scale.bias f4 [20]
00000000: a62e a33d f83e 9d3c fa8d c8bd 2952 c73d
00000010: b93d 823d b9d4 b43d 92a0 07be fbf5 403d
00000020: 0aa9 f33c d6e7 843c 5249 153d 1b8a 0dbe
00000030: 603f 97bd 7910 a03d 20a1 9bbd 9e61 14be
00000040: bc68 64bd e08e 753d 1fb3 4d3d 047d 2cbe
0.07967882 0.019195065 -0.09792705 0.09732468 0.06359429 0.08829636 -0.13244846 0.047109585
0.02974369 0.01622383 0.036446877 -0.13822214 -0.07385135 0.07815642 -0.075990915 -0.14490363
-0.055763945 0.05995071 0.05021965 -0.16844565
