task2/T2b_to_F_Deterministic_source_only_encoder.pt (torch, 42327 bytes, 6 tensors)

fc1.weight f4 [48, 140]
000000 e6 3c 9e 3d 62 43 cd 3c 1b 27 4f bd 53 cb fa 3c
       0.07726459 0.025056545 -0.050574403 0.03061453
000010 2e 92 61 bd 0f e9 94 3d 3b 5b ff bc c2 67 6d bd
       -0.05507105 0.07271015 -0.031171432 -0.05796028
000020 1e 8d be 3d 4e f0 a0 3c 11 eb 04 bd 89 1e ab 3d
       0.0930426 0.019645836 -0.03245074 0.083554335
000030 17 62 cc 3d 29 55 2e 3d a5 59 07 bc 3f aa 62 3d
       0.09979647 0.042561684 -0.008261119 0.05533814
000040 15 37 b1 3d 4c 32 82 3d 88 1c 77 bd d9 c1 11 3e
       0.08653084 0.063572496 -0.060329944 0.14234103
000050 ec c6 9c 3d cb 5c 1d 3e 01 2b 06 bd 59 ab 29 3e
       0.07655129 0.15367429 -0.032755855 0.1656927
000060 9e 5d 5c 3d 96 7e a4 3d b2 15 65 3d 06 82 1d 3e
       0.053800218 0.08031957 0.055928893 0.15381631
000070 d0 67 96 bd e7 c3 11 3e 0a 0f 98 bc 3c 8a 13 bc
       -0.073440194 0.14234887 -0.018561859 -0.009005126
000080 90 e5 b9 bd 56 20 e3 3d b9 fe cf bc a6 a2 67 3d
       -0.09076989 0.11090152 -0.025390016 0.056551598
000090 22 f8 b2 bd 0e 46 90 3d c8 98 7c 3d de d8 18 3e
       -0.08738734 0.07044612 0.06166914 0.14926478
0000a0 8f da 4e 3c a4 60 15 3e c9 3a ea bc f4 e4 93 3d
       0.012625351 0.14587647 -0.028592484 0.07221404
0000b0 62 49 46 3d 2b 3b bc 3d bf 91 84 bd 04 7f 09 3e
       0.048409827 0.09190973 -0.06473111 0.13427359
0000c0 b1 d1 37 3d 1a ca 52 3c 62 1e 59 3d a2 c1 fd 3d
       0.04487771 0.012865568 0.05300749 0.12390448
0000d0 99 69 a9 bd 5f 23 8f 3d 4c f4 89 bd e6 e8 eb 3d
       -0.08272094 0.069891684 -0.06736049 0.11519031
0000e0 40 ef 3f bd 7a 3a 81 3d fd 1a 91 bd be 38 95 3d
       -0.046859026 0.06309982 -0.07085226 0.07286213
0000f0 f9 1c c6 bd 39 86 95 bd ca e2 28 3c b9 cd 16 be
       -0.09673495 -0.073009916 0.010307977 -0.14726914
000100 7d 5d 78 bd 95 7d 10 bd 4f 08 64 3d 7e 15 11 3d
       -0.060636032 -0.035276014 0.055671986 0.035420887
000110 0c ce c4 bc 44 53 4d 3c fd fe a4 bd 3c ed 1b 3d
       -0.024024032 0.012532059 -0.08056448 0.03806804
000120 ec 8c 59 3d d5 78 83 3d 66 9f 52 bd 7c 57 57 3d
       0.05311291 0.06419531 -0.051421545 0.052573666
000130 68 5d 75 3c 46 b7 9f 3b 14 78 37 bd b9 fe e9 3d
       0.014975883 0.004874143 -0.04479225 0.114255376
000140 dd 5d 7b 3d 89 d0 8a 3c f4 d2 41 bd 51 2e a0 3d
       0.061368812 0.01694514 -0.04732032 0.07821334
000150 88 e2 32 3d c9 93 af 3c 0b 29 8e bd 36 ab 0c 3d
       0.04367307 0.021432774 -0.06941422 0.034342967
000160 f2 05 3b bd b2 73 fc 3d e9 50 5a 3d 5e f5 e4 3d
       -0.045659967 0.12326755 0.05329982 0.111796126
000170 93 60 2f 3d f1 21 c1 3d 90 46 39 3c 7e 8f f0 3d
       0.04281671 0.09430302 0.011308327 0.11746119
000180 c4 72 04 bd 82 ba e8 3d a9 10 ec 3b 9c d2 08 3e
       -0.03233601 0.113636985 0.0072041345 0.13361591
000190 28 37 40 3c 57 f1 a3 3d f3 f7 ac 3d 37 ef cb 3d
       0.0117319 0.08005016 0.0844573 0.09957736
0001a0 7c 7a 1f 3e 2f 2a 94 3c 87 71 b0 3d 66 6d 61 3c
       0.15574068 0.018086521 0.086154036 0.013758993
0001b0 f9 ab 3d 3e cc 23 43 bd 7a 80 0b 3e be cb d5 bc
       0.18522634 -0.04764156 0.13623229 -0.026098128
0001c0 a9 0d ec 3d d5 b7 f1 bd 48 31 9b bc c6 bc b3 3c
       0.11526043 -0.11802641 -0.018944398 0.0219406
0001d0 0b ab 65 3d 1d 0f 34 be f6 5c 93 3c bb 90 0d be
       0.056071322 -0.1758389 0.017988663 -0.13824742
0001e0 60 b3 91 3d d1 49 0d 3d 98 91 01 3c c5 ca 01 3c
       0.07114291 0.034494225 0.007908247 0.007921879
0001f0 db f9 11 bd 2d c7 a1 bd 60 29 2d bb 90 1e 21 3d
       -0.03563867 -0.07899318 -0.0026422366 0.039335787
000200 db 11 0f bb 44 be 3d 3c c7 87 91 bd 72 31 0c bd
       -0.002183071 0.011581007 -0.071059756 -0.034226842
000210 c8 01 50 3d b2 d7 1f 3d 57 7c e0 3c c3 84 0e bd
       0.05078295 0.039024062 0.02740304 -0.03479458
000220 93 0d 13 bd 5a c8 21 3c 40 af 1d 3d 12 66 eb 3c
       -0.035901617 0.009874428 0.03849721 0.028735194
000230 6e 28 93 3d 40 99 62 3b 58 ed 6a 3c f8 91 8f 3c
       0.07185446 0.0034576207 0.014338814 0.017525658
000240 90 ad 31 bc 63 2d 00 bd 2a 1a 86 3d 20 73 6e bb
       -0.010844603 -0.031293284 0.06547959 -0.0036384538
000250 40 6e fe bb 88 a9 99 3c b8 64 3b 3d 9c 74 91 3d
       -0.0077646077 0.018757597 0.04575035 0.071023196
000260 48 95 2e 3d 2e 99 9d 3d d8 14 b4 bc 70 98 e1 3b
       0.042622834 0.07695232 -0.021982595 0.006884627
000270 e0 51 79 3d 54 dc 45 3d 0d 58 03 bd 88 9e 34 3d
       0.060869098 0.048305824 -0.032066394 0.0440965
000280 45 cb 05 bd 54 a8 7a 3d f0 2e 69 bc 60 0d 77 bb
       -0.032664556 0.061195686 -0.014232382 -0.003769718
000290 b1 6a 54 bd 70 ce 46 3d b6 c8 89 3d 00 68 79 3d
       -0.05185956 0.048536718 0.06727736 0.060890198
0002a0 58 42 b4 bc c4 3c 97 3d dd f0 85 bd 98 0d 95 bc
       -0.022004291 0.07384637 -0.06540082 -0.018194959
0002b0 56 6e a2 bd 86 b3 95 bd e0 75 19 3d e0 89 7a bd
       -0.07931201 -0.07309632 0.03746593 -0.061166644
0002c0 0d 71 49 bd 68 d3 84 bd 14 d8 82 bd 98 7a a3 3c
       -0.04918008 -0.06485635 -0.0638887 0.019955918
0002d0 d4 e6 8f 3d 2c 94 a4 3d c8 ef f9 3c d7 52 90 bd
       0.07026449 0.08036074 0.030509844 -0.070470504
0002e0 00 e4 bd 38 30 2f 10 bc 30 eb 96 bb b8 cd ef bc
       9.0546906e-05 -0.008800313 -0.0046056733 -0.029272899
0002f0 d0 9a 9a 3c 05 2a 12 bd a0 af 4a 3b 22 99 85 3d
       0.018872648 -0.035684604 0.0030927435 0.065233484
000300 2c 34 bc 3c b0 64 96 3c a0 19 39 bb 00 cf d1 3a
       0.022974096 0.018358558 -0.0028244033 0.0016007125
000310 a7 91 8c bd d8 e5 7e 3c e8 09 d6 3c 9c 31 75 3d
       -0.068637185 0.015557729 0.02612777 0.059861764
000320 14 68 9e bd f8 f8 71 3d 5c 61 28 3d de c5 65 bd
       -0.07734695 0.059075326 0.041108474 -0.056096904
000330 ca 96 96 bd d6 ab ce bc 48 b5 2e 3d 30 cc b0 3b
       -0.073529795 -0.025228422 0.042653352 0.005395435
000340 9e 04 96 bd 04 4a ed 3c 08 0e 94 3d d3 02 a9 bd
       -0.073250994 0.028965957 0.07229239 -0.08252492
000350 03 8f 88 bd 26 41 03 3d c2 d6 83 bd 57 71 40 bd
       -0.06667902 0.032044552 -0.06437446 -0.04698309
000360 2c b0 97 3c 3c bc 09 3d 1d 1a 7f bd 60 32 c3 3c
       0.018516622 0.03362678 -0.062280763 0.023827732
000370 a0 37 62 3c 74 be 96 3d 0f 9f ab bd d0 09 10 bc
       0.013807207 0.07360545 -0.083799474 -0.008791402
000380 3f 99 0d bd 8e c9 d1 bc 1c da 8a 3d 80 a4 c3 3b
       -0.034569975 -0.025608804 0.06779882 0.0059705377
000390 1c 08 37 bd d4 89 6b 3d 62 3b a6 3d 50 df 51 bc
       -0.044685468 0.05750449 0.08116795 -0.0128095895
0003a0 28 72 a4 3d dc 8b 33 bd 44 95 7b 3d c0 18 45 bb
       0.08029586 -0.043834552 0.061421648 -0.0030074567
0003b0 c0 fd 26 3c ea a1 80 bd 02 fe 8a bd 7c b6 9f bc
       0.010192335 -0.06280883 -0.067867294 -0.019496195
0003c0 f8 f3 ff 3c 5c 47 5c 3d 58 e3 99 3c bf 1c 51 bd
       0.031244263 0.05377899 0.018785164 -0.051052805
0003d0 02 15 04 3d 94 97 cb 3c d0 9f 2e 3d 22 80 47 bd
       0.032246597 0.024852552 0.042632878 -0.04870618
0003e0 34 a7 d2 bc b4 5f 01 3d 97 03 59 bd 48 10 06 3c
       -0.025714494 0.03158541 -0.05298194 0.008182593
0003f0 2c 8b ed 3c 7c 70 a2 bc c0 c4 86 3d 1e 59 07 bd
       0.028997026 -0.019829027 0.06580496 -0.033043973

fc1.bias f4 [48]
000000 5e 8a 9d 3c 7c 4e 42 3d 50 a8 4c bd e9 eb 6e 3b
       0.019231018 0.04743813 -0.049965203 0.0036456531
000010 ae c7 1f bd 35 67 02 3c 90 f0 a9 3d b5 2c 9f bc
       -0.03900879 0.007959177 0.08297837 -0.019430498
000020 47 b6 91 bd f5 1c 83 bd c0 66 c4 bc ba ed 51 3d
       -0.07114845 -0.064020075 -0.023974776 0.051252104
000030 d0 4d a9 3d 2a f1 32 bd cb 8a a9 bb 93 db 2e bc
       0.08266795 -0.043687023 -0.005174016 -0.010672468
000040 3f 46 49 3d ed e2 20 bd 64 2c c1 bb 1e 9f 27 3d
       0.049139258 -0.039278913 -0.0058951844 0.04092323
000050 f3 68 b2 bc 52 c9 b8 bd 24 e7 c1 3c 4f 4e ac bd
       -0.02177856 -0.09022774 0.023669787 -0.08413374
000060 50 3b 05 bd fc 8d c6 bc e6 f0 67 3d 72 59 98 bd
       -0.032527268 -0.024237625 0.056626223 -0.07438935
000070 4e 01 6f 3d 4c 20 b1 3d fc d5 4f 3d 08 36 35 3d
       0.058350854 0.08648738 0.05074118 0.04424098
000080 82 b9 82 3c d5 06 7f bd 76 8a 67 bd 34 7c 10 3d
       0.015957598 -0.062262375 -0.05652853 0.0352747
000090 25 7a 35 3c 9d 19 90 3d a7 78 9f bd de a0 08 bd
       0.011076485 0.07036135 -0.077866845 -0.03335654
0000a0 96 a4 82 3d dd 78 30 3d 84 27 86 bc 73 bc 04 3d
       0.063790485 0.043084014 -0.016376264 0.03240628
0000b0 00 a1 79 bd d0 0d 09 bc 87 a9 27 bd d0 7d fb 3c
       -0.060944557 -0.00836511 -0.04093316 0.03069964

fc2.weight f4 [48, 48]
000000 5c fa 5e be 00 16 b5 ba 9a 23 85 3c 18 68 de bd
       -0.21775192 -0.0013815761 0.016252328 -0.10859698
000010 74 a3 70 3d a9 0e 4a 3e 20 50 42 3e 1a 31 ed bd
       0.05874963 0.19732155 0.18975878 -0.11581631
000020 cc 35 ad 3d 3c ae 03 be 16 16 d3 3d ae 37 8d 3d
       0.084575266 -0.12859434 0.10306947 0.06895386
000030 83 ba f2 bd d0 6d 92 3c f8 a1 8a bd 3d c1 f9 bc
       -0.118519805 0.017874628 -0.06769174 -0.030487651
000040 11 dd 7e bd db cf 02 bd 61 70 1b 3e 16 b1 5a 3e
       -0.062222544 -0.031936508 0.15179588 0.21356615
000050 2b 75 66 be ac fb 1e be a0 df bf bc 3a 4a ba 3d
       -0.22505634 -0.15525693 -0.023422062 0.09096189
000060 a0 fb 06 3e 3e fa d4 3b c5 9b 0c be 97 a5 20 be
       0.13181925 0.0064995578 -0.13731296 -0.15688168
000070 84 aa ce 3d b6 fe 30 bb e0 a3 f2 3b 5c bd 26 3e
       0.10091117 -0.0027007288 0.0074047893 0.16283172
000080 6b 2d 6d 3d 06 9f ee bd 50 83 28 3c 08 cb 79 3d
       0.057904642 -0.11651425 0.010285214 0.06098464
000090 f7 64 4a bc 16 1b 0a bd e0 68 e2 3b cb 86 99 bd
       -0.012353173 -0.033717237 0.0069094747 -0.07496413
0000a0 d7 aa 38 3e ae da 9d bd c0 d9 14 bc 18 d9 46 3e
       0.1803392 -0.077077255 -0.009085119 0.19418752
0000b0 d1 7b a4 3d 30 52 22 bd ed 93 87 3d b7 91 60 be
       0.080314286 -0.03962916 0.066200115 -0.21930586
0000c0 45 85 a6 bc ee e6 3d bd 6f 00 5c 3d dd 2c 73 3c
       -0.02032722 -0.04636281 0.05371135 0.014842239
0000d0 f6 c7 bf 3d 6e 78 33 be 57 75 1f be 8f 7d eb bc
       0.093643114 -0.17526409 -0.15572105 -0.028746394
0000e0 52 b3 c8 bd ac 6c 24 3d 34 ad 67 3d d6 2d a8 3d
       -0.09799828 0.0401427 0.056561664 0.082118675
0000f0 01 42 0e be b8 1f 8a bc 93 0e 0f be d4 b9 7c 3e
       -0.13892366 -0.016860828 -0.13970403 0.24680263
000100 2c 86 2b bd c1 20 68 be 13 50 1d bd 30 5c 59 be
       -0.041876003 -0.22668745 -0.038406443 -0.21226573
000110 c3 b4 b9 ba 38 7a 1c 3e 37 a9 d4 bd 2c 1b 5f bd
       -0.0014168251 0.15280998 -0.10383838 -0.054469272
000120 e5 ea 80 be 7f 3d bb 3d 75 46 6a 3e 01 a2 34 3c
       -0.2517921 0.09142589 0.2287844 0.011024953
000130 2c f7 a8 bd 5b 08 24 bd 58 e7 fd 3d 4a 25 26 3d
       -0.08250269 -0.04004703 0.12397641 0.040562905
000140 7e 04 f8 bd 94 71 ce 3d 00 71 81 3b 18 75 12 3e
       -0.12110232 0.10080257 0.003950238 0.1430248
000150 d1 0e 38 3c 54 01 64 3c a0 3f f6 3d 10 13 e5 3d
       0.011234001 0.013916332 0.12023854 0.111852765
000160 41 5a 75 bd 21 33 76 bd 70 15 46 3c fc d9 97 bc
       -0.059900526 -0.060107354 0.012090072 -0.01853656
000170 2e e7 76 3d 28 7d ae bc b3 c8 05 be ce b0 fe 3d
       0.060279064 -0.021299914 -0.13064842 0.124360666
000180 e7 9f c1 3d 30 70 3a bc 69 67 0a be 87 64 2a 3e
       0.09454327 -0.011379287 -0.1351601 0.1663991
000190 20 00 35 3c 0b b6 19 bd 3a df d4 3c a6 02 5e 3d
       0.011047393 -0.037527125 0.025985349 0.054201744
0001a0 ca 27 0c be a8 77 3a 3d 26 32 d5 3d d1 20 b5 3c
       -0.13687053 0.04552427 0.10409956 0.022110375
0001b0 cd f6 e5 bd 9a e7 29 be 80 48 91 bd 85 bc b9 3c
       -0.11228714 -0.16592255 -0.070939064 0.0226729
0001c0 da b5 76 bd 0e 19 b4 3d d1 7a dc bd 08 eb 17 be
       -0.06023202 0.08793841 -0.10765613 -0.14835751
0001d0 23 a6 5c 3e 18 6d 46 3e ae dc a1 bd 80 ad 07 3e
       0.21547751 0.19377553 -0.079034194 0.13249779
0001e0 61 12 47 be f9 92 d3 3d f7 7f 4f 3e 91 a9 05 3e
       -0.19440605 0.10330767 0.20263658 0.13052966
0001f0 7b ed 93 3d 9b 29 92 3d a8 f8 12 3d e1 a4 19 be
       0.0722303 0.07136842 0.03588167 -0.15004303
000200 a4 6d 16 be 00 e8 bb 3c fe 42 d9 bd 40 10 77 bb
       -0.14690262 0.022937775 -0.10608481 -0.0037698895
000210 91 4f a1 3c 18 51 45 be 98 7f d9 3d 7e d4 0b bd
       0.01969126 -0.19269216 0.1062004 -0.034138195
000220 d4 30 91 3c e6 89 b5 3d 22 42 fe bd ce 95 21 be
       0.017723478 0.08864193 -0.124149576 -0.15779802
000230 4f 70 be bc b8 b2 8a 3d a1 92 ec bd b8 2f 46 3d
       -0.023246912 0.06772369 -0.11551405 0.048385352
000240 2e 72 54 3e 70 ae 3a bd 3f 85 36 3d e8 b1 7e 3e
       0.20746681 -0.045576513 0.044560667 0.24872553
000250 68 fb 95 bd c4 ea f7 ba 46 83 58 bd 10 c4 e9 3d
       -0.073233426 -0.001891457 -0.052859567 0.11414349
000260 c6 53 04 bd a8 71 a3 bd ef c1 96 bd d7 45 20 be
       -0.032306455 -0.079806626 -0.07361209 -0.15651642
000270 bd 27 fd bd b6 9c 23 be f0 93 b4 bc 60 46 83 3e
       -0.12361095 -0.15977749 -0.022043198 0.2563963
000280 55 49 de 3c 17 b7 65 bd 29 dc 87 bd ac 3d fc bd
       0.027134577 -0.05608281 -0.06633789 -0.123164505
000290 9e ef 6f 3e 22 f1 66 3d b4 51 56 3d 6c a4 95 3d
       0.2343125 0.056382306 0.052324012 0.073067516
0002a0 81 47 86 be 22 2f da 3d 09 d7 39 3e 45 44 da 3d
       -0.26226428 0.10653521 0.18148436 0.10657553
0002b0 25 d2 b8 3c 50 fc 6a bc e4 02 85 3d 95 98 e6 bd
       0.022561142 -0.014342383 0.06494692 -0.112595715
0002c0 19 b5 31 3d d8 90 92 3d ec 2c 47 3d 98 a7 bd bd
       0.0433856 0.07156533 0.048626825 -0.092604816
0002d0 0b 52 80 3d ab b9 be bd c0 2a 54 bd 86 47 cf 3d
       0.062656485 -0.09312757 -0.051798582 0.10121064
0002e0 f4 23 3b bd b7 b6 b9 bc 3c 13 dc 3d 8e fb b4 bd
       -0.045688584 -0.022670133 0.10745856 -0.08837043
0002f0 52 e5 29 be 90 6e b1 bc bb 79 0c 3e 29 b1 69 3e
       -0.16591385 -0.021659166 0.13718311 0.22821487
000300 73 aa 38 3e c6 4c 05 be d9 c9 9b bc 68 5d 22 3c
       0.18033771 -0.13017568 -0.019017147 0.009909965
000310 89 c0 93 bd 79 41 15 3d 37 8a 16 be 9a e9 c7 bd
       -0.072144575 0.036439393 -0.14701162 -0.09761353
000320 74 aa 04 be 38 06 86 3c 08 14 ff 3d 98 5e 1d 3b
       -0.12955648 0.016360387 0.124549925 0.002401268
000330 98 f7 f5 bc bd b8 2a be 6b 9f 04 bb e0 00 d4 3b
       -0.030025288 -0.16672035 -0.0020236622 0.006469831
000340 5c 9a 04 be 13 17 57 be de e3 73 bd 20 6d 5f be
       -0.12949508 -0.21004896 -0.059543483 -0.21818972
000350 10 2b 41 3e 83 fe dc 3d c0 b8 fc bc 18 16 c7 3d
       0.18864083 0.10790732 -0.030849814 0.09721011
000360 0b b3 94 bc 7c e2 89 bc 81 a7 37 3e ff a8 21 3e
       -0.01815178 -0.016831629 0.17934991 0.15787123
000370 ba 5c 45 be 22 46 8a bd f4 a9 a0 3d ba e7 f6 bd
       -0.19273654 -0.06751658 0.07844916 -0.12055917
000380 75 fc dd bc ea 42 0d 3e 44 1f 91 3d f0 74 76 bc
       -0.02709792 0.13795057 0.070860416 -0.0150425285
000390 02 89 ab 3d 0e be 2c be ac bc c8 bd 1a a8 9c 3d
       0.083757415 -0.16869375 -0.09801611 0.0764925
0003a0 16 23 0f be 15 ec ca bc 00 da 40 bb 56 68 b2 bd
       -0.13978228 -0.024770776 -0.0029426813 -0.08711307
0003b0 53 c9 8d bc 46 18 cc 3d 5f a0 d3 3d dd 15 af bc
       -0.017307913 0.09965567 0.10333323 -0.02137273
0003c0 b3 c7 ee 3d a0 68 de bc 42 c3 e7 3d 7f ed 36 3e
       0.11659183 -0.027149498 0.11316539 0.17864035
0003d0 ea 6f c6 bd 03 8f 1f 3d 64 f5 89 bd 97 a4 d3 3d
       -0.09689315 0.038954746 -0.06736258 0.103341274
0003e0 4b fb 0d be 5c 76 84 3d 90 79 82 bd 97 1c 9b bd
       -0.13865392 0.06467888 -0.063708425 -0.075738125
0003f0 c0 27 df 3c 11 c6 90 bb 35 2a a4 3d 22 e5 93 3d
       0.027240634 -0.0044181426 0.08015863 0.07221438

fc2.bias f4 [48]
000000 99 41 db bc 62 a2 61 bd a8 7e d3 bd 6e 69 59 3d
       -0.026764678 -0.0550865 -0.10326892 0.05307906
000010 f5 99 e7 bd 82 36 df bd dc 19 0f bd bf 61 ee 3d
       -0.11308662 -0.108990684 -0.03493677 0.11639737
000020 80 d9 4f bd 75 26 07 be bf b2 ea bd e8 db 11 3e
       -0.050744534 -0.13198264 -0.11459874 0.14244044
000030 29 36 2a bd ec 12 d7 bd 0f b6 d9 bb f2 38 cc bd
       -0.041555557 -0.10501656 -0.0066440175 -0.09971799
000040 06 13 b7 3d 9d 73 7b bd b8 2a 21 3d 79 86 b4 3d
       0.08939175 -0.061389554 0.03934738 0.08814711
000050 17 53 83 bd aa ed 0d 3d 8f b4 0c be ad 13 e4 3d
       -0.064123325 0.034650482 -0.13740753 0.11136565
000060 b6 be 34 bd 6e f5 a4 3d 5c e1 4c 3c fb 5e fa bd
       -0.04412719 0.080546245 0.012504902 -0.12225147
000070 13 8a af 3d 39 b4 a3 3c d8 fd 2b 3e f2 95 2a 3e
       0.085712574 0.019983398 0.16796052 0.16658762
000080 68 f9 04 3e c0 b9 5a bc a2 96 1f 3e 17 8b 6e 3d
       0.12985766 -0.01334995 0.15584806 0.058238115
000090 70 14 64 bd c2 13 f9 3d df b9 07 3e 87 35 0d 3d
       -0.055683553 0.12161972 0.13254498 0.034474876
0000a0 ed f1 15 be 15 6d 1b bd 09 bd 35 bc 7e 9d a3 3d
       -0.14643069 -0.037945826 -0.011092433 0.079890236
0000b0 9c 45 e9 3d 0e 29 d4 bd 0e a1 46 3d 6a 29 9c bd
       0.1139023 -0.10359393 0.048493437 -0.076250866

z_loc.weight f4 [20, 48]
000000 61 51 37 be fa ab 67 3d 44 ab cd 3d 11 ef 3f 3e
       -0.17902137 0.056560494 0.10042432 0.1874354
000010 58 f7 93 3d e8 fa fd 3d 61 b3 38 be 03 de 20 be
       0.072249115 0.12401372 -0.18037178 -0.15709691
000020 dd 80 86 be 72 a0 e5 3c 4d c1 0b 3e 0e 01 52 3c
       -0.2627019 0.028030608 0.13647957 0.012817634
000030 2f ed 53 be c3 a5 d7 3d 53 ba 4f 3e 3d a2 b1 3d
       -0.20695947 0.105296634 0.20285921 0.086735226
000040 de 44 ed bd 97 47 17 3e e8 77 46 be c5 67 12 be
       -0.11585401 0.14773403 -0.19381678 -0.14297397
000050 5e 9c 7e 3e 9d 84 c7 bd d6 4d fc 3d 46 04 63 be
       0.24864337 -0.09742091 0.123195335 -0.22169599
000060 3a bd 27 3e 37 d5 13 3e ca bd 9e bd ef c3 85 bd
       0.16380778 0.14436804 -0.07751043 -0.06531512
000070 76 0d 9d bc 71 7d 03 be d5 52 42 3e c9 0c 8f 3d
       -0.019171458 -0.12840821 0.1897691 0.069848605
000080 aa 73 96 bc ed ec 00 be ac 22 1b 3d b2 e4 60 be
       -0.0183657 -0.1259038 0.037874863 -0.2196224
000090 5f e7 87 be 71 39 36 3d 75 ac 3e be 58 87 85 3b
       -0.2654371 0.044488374 -0.18620475 0.004074972
0000a0 e1 e3 bf 3d 14 2a 27 3e 20 36 1e be 8e 5b 64 bc
       0.09369636 0.16324645 -0.15450335 -0.013937844
0000b0 90 0a 6e 3e 31 2d 87 3d ad 94 7a 3e df 3d 7b 3e
       0.23246217 0.066004165 0.24470778 0.2453532
0000c0 0f fc 57 3e 9c 13 c5 bd a4 ef 99 bd 88 de 86 be
       0.21092246 -0.09622881 -0.07516411 -0.26341653
0000d0 e4 e7 40 be 7f d4 47 be 82 2c ce 3d 9e 51 be bc
       -0.18838459 -0.19514655 0.10067083 -0.023232277
0000e0 bf db 23 3e 1a 9b 4e 3d 44 50 7a b8 67 e7 3f 3e
       0.16001795 0.050440885 -5.9679398e-05 0.18740617
0000f0 9c 7f 84 3e 2c 8a 06 bc b7 77 7d be bc 9a b0 bc
       0.25878608 -0.008211654 -0.24752699 -0.021558158
000100 55 60 20 3e f2 c1 44 be 4d 70 8f 3d 19 4b 18 3d
       0.15661748 -0.1921461 0.070038415 0.037180994
000110 50 9e be bc 58 51 49 3d cb ed 3a be 8f d4 97 3d
       -0.023268849 0.04914984 -0.18254773 0.07413589
000120 60 69 3e be 1c 6e c2 bd f8 9e 12 bd f0 5f 31 3e
       -0.18594885 -0.09493658 -0.035796136 0.17321754
000130 1a 4a 5b bd 20 65 fa 3d ff 01 58 bd 65 6a 03 be
       -0.053537466 0.12226319 -0.05273628 -0.12833555
000140 f3 5f 23 3e 4f 9d 07 3e ad 95 99 bc 64 c5 ba 3d
       0.1595457 0.13243602 -0.018748129 0.091196805
000150 9b 81 60 3e 80 76 e1 3d da 8d 80 3c 8e 51 3d bd
       0.2192444 0.1100893 0.01569264 -0.046220355
000160 72 a7 2a be a3 51 a4 bd d9 1d 7c 3d 48 f7 62 3e
       -0.16665438 -0.080233835 0.061551902 0.22164643
000170 d7 be c0 bd 6e 1e 0a be 87 df c7 bb 41 21 17 be
       -0.094114 -0.1348817 -0.0060996446 -0.14758779
000180 10 30 a4 3d 24 ab a5 3d 76 9b 47 3e e4 4b d4 3c
       0.0801698 0.08089283 0.19492897 0.025915094
000190 88 89 03 3e 30 ad be 3d 82 91 99 bd df f2 c0 bd
       0.12845433 0.09310377 -0.074984565 -0.09421324
0001a0 52 2c b9 3c af f7 9b 3d 82 c0 26 3e 92 93 9a 3d
       0.022604141 0.07615601 0.16284373 0.07547678
0001b0 40 74 4c bd 81 1e 96 3d a6 1f fa 3c be 9f d0 3d
       -0.049915552 0.07330037 0.03053267 0.101867184
0001c0 e4 05 bb 3d 38 2f e0 3d 34 37 d1 3c 9c 2e 4c 3d
       0.09131983 0.10946506 0.025539018 0.049849138
0001d0 3e c1 b2 bd 9b a9 86 bd 66 78 c3 3c 9d 91 17 be
       -0.08728264 -0.065753184 0.023861121 -0.14801641
0001e0 68 70 57 3d 11 00 56 bd 82 4b 2b be bd 12 b6 bc
       0.052597433 -0.052246157 -0.16728023 -0.022225732
0001f0 63 ad b5 bd 2b 6b 02 be 07 69 d0 3d 32 83 34 bd
       -0.088709615 -0.12736194 0.101762824 -0.04407043
000200 7f 79 ac 3b 12 35 5e 3c ae 10 25 be 10 9d 32 be
       0.005263507 0.013562458 -0.16119644 -0.17442727
000210 42 ef e5 3d bc 3f 37 be 26 9a 1b be f5 62 24 3c
       0.112272754 -0.17895406 -0.15195522 0.010033359
000220 e5 be eb 3c 83 69 83 3d 9e ed 58 bd 90 d8 03 3d
       0.028777549 0.06416609 -0.052960984 0.032188952
000230 5d 1b 8f 3c e4 6e a8 3d 83 b9 4e bd 94 78 27 3c
       0.017469103 0.08224276 -0.050469887 0.010221619
000240 bf 30 2f be 8a 83 5d 3e f9 de 46 3d af 1b 8c 3d
       -0.17108439 0.2163221 0.048552487 0.06841218
000250 12 e3 1d bb 75 eb fb 3d 51 43 7b be 66 e4 80 3d
       -0.0024091643 0.12300769 -0.24537398 0.062935635
000260 38 c1 43 be 95 fb cd 3c b5 1f 3e 3e e8 ca de bd
       -0.19116676 0.025144378 0.18566783 -0.10878545
000270 52 dc 3d be 10 ed 29 3e 07 b9 23 3e f3 5d 2d 3e
       -0.18541077 0.16594338 0.15988551 0.1693037
000280 49 9d 13 be 28 88 69 3c a3 8d 20 be 36 52 9f bc
       -0.14415468 0.014253654 -0.1567903 -0.01944838
000290 df 6e 1a 3e a6 13 b0 bd c9 4a 44 3d 3a bd 4b be
       0.15081356 -0.08597498 0.047922883 -0.19896403
0002a0 d6 47 5c 3e 01 28 52 3e 54 c5 e2 bd 7f ea 28 be
       0.21511778 0.20523073 -0.110727936 -0.16495703
0002b0 20 9d 3e 3e 60 29 f4 bd 6d 1f 16 3e 23 b3 31 3e
       0.18614626 -0.11921954 0.14660425 0.17353491
0002c0 27 b4 20 bd 2e 7b 7a be dc 81 f4 bd 78 b9 4c be
       -0.039234307 -0.24461052 -0.11938831 -0.19992626
0002d0 88 56 ba bd e0 ab e2 bb 71 1a 6f bd 8c 44 21 3c
       -0.09098536 -0.0069174618 -0.058374826 0.009843003
0002e0 bd cc 4b 3e e0 4c 37 3e c7 b9 39 bc 0e f7 75 3c
       0.1990232 0.17900419 -0.011335797 0.015012516
0002f0 4b 84 fd 3d cd 89 b9 3c 0d 80 84 3e eb 07 90 3c
       0.123787485 0.022648716 0.25878945 0.0175819
000300 74 9c db bb bc 9c 63 3e 60 87 85 3d af 08 bf 3d
       -0.0067020003 0.22227758 0.06519961 0.09327828
000310 ce 28 18 3e 76 49 4f 3e f7 68 31 be 16 6d d7 3c
       0.14859316 0.20242867 -0.17325197 0.026297133
000320 9c cf 0d be f6 16 04 3e d3 00 6f 3d a0 af 2b be
       -0.13848728 0.12899384 0.058350395 -0.16766214
000330 db 6b 4b be 52 b1 56 3e 94 aa 81 3e 53 a5 5d 3d
       -0.19865362 0.2096608 0.25325453 0.054112744
000340 0f 36 0b 3d 58 45 1d 3e 32 88 d9 bb 5a b6 09 be
       0.0339871 0.15358484 -0.00663855 -0.13448468
000350 53 71 a7 3d 6b 2b 79 be ff 56 14 3e d3 12 49 be
       0.08175912 -0.24332969 0.14486311 -0.19636087
000360 ba 3f 55 3e e1 b5 10 3e a3 25 5e be fd b6 40 3b
       0.20825091 0.14131881 -0.21694045 0.0029405945
000370 d0 c0 ec 3c 9c 9e 0a be 63 3d 54 bc 59 2f 90 bd
       0.028900534 -0.13537067 -0.012954089 -0.07040281
000380 20 e7 12 bd d4 ea 16 be dd 24 3a be 8b 17 9b bd
       -0.03586495 -0.14738017 -0.18178125 -0.0757285
000390 6d 03 a0 bd 8a 21 27 bd f1 b5 97 bd 26 fa 1a be
       -0.078131534 -0.04080347 -0.074077494 -0.15134487
0003a0 ac b5 ff bc 0d 46 d6 3d 4d a0 41 3d 41 fa 2a be
       -0.031214558 0.1046258 0.047272015 -0.16697027
0003b0 4b f1 5f 3e ed 6c 64 bd 5d f9 6c 3e 26 2a 70 3e
       0.2186939 -0.055767942 0.23142 0.23453578
0003c0 e2 cc 66 3c 2d 29 12 3e 26 5f 1c 3e c7 52 b2 3d
       0.014086934 0.1427352 0.15270671 0.08707195
0003d0 79 b5 50 3e 47 1f 16 3e ba e5 23 be cc d9 53 be
       0.20381726 0.14660369 -0.16005602 -0.20688552
0003e0 2e dc 89 bd 37 f6 18 3e 88 42 31 3e aa f2 1c be
       -0.06731449 0.14937674 0.17310536 -0.15326944
0003f0 3a 57 1d be cd f0 d9 3c 58 00 57 3e ed ee 03 3c
       -0.15365306 0.02660408 0.20996225 0.00805257

z_loc.bias f4 [20]
000000 73 2f 82 bd f0 d1 8f 3d aa 40 f7 bd ef 0b 29 bd
       -0.063567065 0.07022464 -0.120728806 -0.041271146
000010 63 94 50 bd f3 a9 0b be 6a 3a c9 bd eb 0a be 3a
       -0.050922763 -0.13639049 -0.09825595 0.0014499103
000020 0d 33 c7 bd 5f 4e 47 3e 8e 66 07 3d 73 b3 f1 3d
       -0.09726534 0.1946349 0.03305679 0.11801805
000030 52 be a0 bd ff 0f ea 3b cd c2 ff 3d d6 6c e9 bc
       -0.07848801 0.00714302 0.12488327 -0.02849428
000040 21 0d 00 3e ff f1 1b 3d 7a a9 15 3d f3 16 3d 3e
       0.12505008 0.038072582 0.03653858 0.18465786
