task2/T2b_to_F_Gaussian_source_only_classifier.pt (torch, 5087 bytes, 3 tensors)

fc1.weight f4 [40, 20]
00000000: 1f18 663e 8403 95be e6ef 59bd cf34 9dbd
00000010: f324 063e cc5e ad3c 874c 4fbe d74c 193e
00000020: 2202 6cbe 55f7 c9bd fec2 763e 2623 c1bd
00000030: 0209 76be 0455 c9bd 8fe8 4c3d a6bc 773e
00000040: 7e4f 793c 8f17 30be d595 15be 87fb 043d
00000050: e957 67be c516 333d 20f3 dfbd 7b04 703c
00000060: ae6a 8fbe 6ca9 6c3d 6311 2a3e 9266 f73d
00000070: dd1a 8f3d 7f74 8ebd 8196 2dbc 8e77 0cbd
00000080: 11c6 f9bb de9f f13c 9b6a 03bb 86d5 6cbe
00000090: a60f 693e fa77 8f3e c98a a0bd 91c3 f4bd
000000a0: dcad 4abe 46d3 403e 6a7b 98bd c2f4 8e3e
000000b0: e447 143e d98a 813e de04 d2bd 2d1c 333e
000000c0: be83 423d 94ce 0d3e 7df6 86be 546c 7cbd
000000d0: 4b29 f53c 1295 ab3d 8fed 0b3d 5afc d8bd
000000e0: 6e19 7c3e d620 a0bd ac69 03be c5e5 0c3e
000000f0: a845 3f3d e01f a0be 3b02 b2bc 5baa 98bd
00000100: 9836 cb3d aded 52be 1052 5bbe e51c d53d
00000110: 2da6 89be d118 c53c 63ab 723e 7282 ffbc
00000120: 57b6 3abd 57e7 fa3d 4be4 17be 7a32 4b3e
00000130: a212 43be 487d 7dbe c184 973d a101 86bd
00000140: 2514 20be 7853 e43d 136e 7b3e 14c2 2c3e
00000150: 9049 d83d fd55 17bd 3ce3 633e 303d b93c
00000160: 11e1 623c fede bb3d f597 34be 911f 813e
00000170: 7420 413e 2426 5f3e 00bc 913e fcca adbd
00000180: f8e5 4f3b 7dd3 223e 458b 5a3e af39 113d
00000190: 4e2d 0f3d 9ce1 783e 4e7f 963e ac9a 57bb
000001a0: 2111 1f3e aa71 f8bd 1464 87bc 4f41 613d
000001b0: 49bd afbc 891f 15be 1109 7dbe 2237 fabd
000001c0: 1428 513e 4899 373e 0af6 973e 035f 2dbe
000001d0: cd66 86bd 0529 0ebd 31a6 6b3e c1c3 a8bd
000001e0: cccb 73be f80c 033e baae c43c 1b01 b33d
000001f0: d87a 83bd a340 01be c358 893e 9c91 c93d
00000200: 0e92 803e 8577 283e bc8b b7bc 07e3 72bd
00000210: 9489 7b3e 2f49 173e f3ee efbd 0e4e 17be
00000220: f57e 553e 84e0 4dbd 14c9 a43d 1371 8ebe
00000230: 19dd d53d 23ab a8be 18fd 17be a9c9 2ebe
00000240: 74f6 043e 5603 58be 7858 b43d 8ee0 c6bd
00000250: e34c 88bd a2af 853d bd17 693e b92e 3d3d
00000260: ada3 8abd 2e5f d43c 92a5 a0bd 457c 643e
00000270: f487 ac3a 5444 71be 449a 45be b77e 593e
00000280: 23e2 573e b04a 4abe 34a9 8abe bfec 293e
00000290: 5d40 473d 5a0f f7bd a78b 78be ac3d 8fbd
000002a0: 08a1 b33d d852 84bd 9694 433e abf2 f4bd
000002b0: 4252 90be cd63 91be df2a b43d ff4f e8bd
000002c0: 1d95 c7bd 497e 24be 7c89 653d 116b 163d
000002d0: 5f27 48be 47b8 3b3d 19ad ebbd f61d 753d
000002e0: 9ca5 71bd 5f43 cabc e4a5 c0bd fdc3 743e
000002f0: 90cb debd d622 533e 148d 36ba 5754 a73c
00000300: 210d 3e3e 30bb 273e 48a8 363e c1e0 593d
00000310: ba7c fdbc 7e33 51bd 6373 073e abe0 8ebe
00000320: e135 4e3d f2e3 83be e71d 153e a52a 2a3e
00000330: ac3a 6b3e dedb 42be 3a28 9bbe a49c a13d
00000340: 493e 5abd 4453 46be 3b28 133e b786 8dbe
00000350: 6270 0cbe 4667 26be 30b7 e8bd 1a19 503e
00000360: ec21 d33d 112b f23d 27cc 7cbe 8586 333e
00000370: 702a 543d d1d5 a1be b83d 97be 5301 a5bc
00000380: 4aa4 fc3d e236 5bbe d88c 93be 1ee5 dcbd
00000390: 1b28 b23c 83fc 6cba 76f8 733e 72a1 de3d
000003a0: cc89 89ba 2d92 b33d 3426 5bbe d29f aa3a
000003b0: cc1d 1a3e 3746 11bd d373 00be 55b7 eabd
000003c0: 7d08 5cbd 96e7 fbbc 4238 3d3e a26c 863e
000003d0: 27e4 2cbe 4587 91bd 707f 973b 37cd a23d
000003e0: 01aa 5a3d 61d2 713d d7db a23d 736e 96bd
000003f0: ea0b aa3d 529a 743d dabe 323e c733 87be
0.22470139 -0.29104245 -0.0532073 -0.07676088 0.13100033 0.021163367 -0.20244037 0.14970718
-0.23047689 -0.09861628 0.24097821 -0.09430532 -0.24026874 -0.098306686 0.050026473 0.24193057
0.015216706 -0.17196487 -0.14607938 0.032466438 -0.22592129 0.043722887 -0.10935044 0.014649506
-0.28011078 0.05777876 0.16608195 0.120801106 0.06987546 -0.069558136 -0.010594965 -0.034293704
-0.0076224883 0.029495176 -0.0020052555 -0.23128328 0.22759876 0.28021222 -0.07838971 -0.11951364
-0.19792885 0.18830594 -0.07445414 0.2792111 0.14480549 0.25301245 -0.102548346 0.17491217
0.04748892 0.13848335 -0.2635993 -0.061626747 0.029926917 0.08378042 0.0341621 -0.10595007
0.24619076 -0.07818763 -0.1283328 0.13759525 0.04669729 -0.3127432 -0.02172958 -0.07454368
0.09922522 -0.20598479 -0.21418023 0.10405902 -0.26884595 0.024059685 0.23698191 -0.03119013
-0.04558405 0.12251156 -0.1483318 0.19843474 -0.19050077 -0.24754822 0.07398368 -0.065432794
-0.15632685 0.11148733 0.24553709 0.1687091 0.10560906 -0.03694724 0.22254652 0.022612184
0.013847605 0.09173392 -0.17636092 0.25219396 0.18860036 0.21791893 0.28463745 -0.08485982
0.0031722765 0.15900989 0.2134219 0.035455402 0.034955315 0.24304813 0.29394 -0.0032898588
0.15533878 -0.12131055 -0.016527213 0.054993924 -0.021452563 -0.14562811 -0.2471049 -0.12217547
0.20425445 0.17929566 0.296799 -0.16930775 -0.065625764 -0.034707088 0.23012616 -0.08240462
-0.23808211 0.12797916 0.024009097 0.08740445 -0.06419915 -0.12622313 0.26825532 0.09842226
0.2511143 0.16451843 -0.022405498 -0.05929854 0.245642 0.14774011 -0.11715498 -0.14775869
0.20849212 -0.050262943 0.08046165 -0.27820644 0.10442562 -0.32943067 -0.14842641 -0.17069115
0.1298464 -0.21095023 0.088059366 -0.09710799 -0.0665529 0.0652764 0.22762962 0.046187136
-0.067695 0.025924291 -0.0784408 0.2231303 0.0013163076 -0.23561221 -0.19297129 0.21239744
0.21082358 -0.19755054 -0.27082217 0.16594218 0.048645366 -0.12063475 -0.24272023 -0.06994185
0.08770949 -0.06461114 0.1909965 -0.11960348 -0.28187758 -0.28396454 0.087972395 -0.11343383
-0.09745238 -0.16063799 0.05603932 0.0367232 -0.19546269 0.045830037 -0.11507625 0.059843026
-0.058995828 -0.024690328 -0.09406641 0.23902889 -0.1087867 0.20618758 -0.00069637713 0.020425959
0.18559696 0.1638 0.17837632 0.053192858 -0.030943263 -0.051074497 0.1322761 -0.27905783
0.05034435 -0.25759846 0.14562188 0.1661783 0.229716 -0.19029185 -0.30304128 0.07891205
-0.053282056 -0.19367701 0.14370815 -0.27641842 -0.13714746 -0.16250333 -0.11363065 0.20322075
0.103092045 0.118246205 -0.24687253 0.17531784 0.051798284 -0.3160844 -0.29539275 -0.020142233
0.12336023 -0.21407655 -0.28818393 -0.10785888 0.02174764 -0.0009040313 0.23825249 0.10870637
-0.0010493337 0.08768115 -0.21401292 0.0013017601 0.15050429 -0.035467353 -0.12544183 -0.11460749
-0.053719033 -0.030750077 0.18478492 0.26254755 -0.16883908 -0.07105879 0.004623346 0.07949298
0.053384785 0.059038524 0.079520874 -0.07345285 0.08303054 0.059717484 0.17455617 -0.2640669

fc1.bias f4 [40]
00000000: ca59 e8bd 6ed2 983e 67e7 7cbd 830c 433d
00000010: 183e 8c3e e547 593e 3f2a ccbd 30d9 5b3e
00000020: 41d8 7fbc bf82 48be 0a29 d33c 501f e83d
00000030: 5bdd 273e a555 953e 55cb 623e 2ed6 84bd
00000040: cdef d83d 3f84 43be 6bcb ee3d 734d 0cbc
00000050: 223a 163e b14a 7e3e 01a6 91bd 7270 413d
00000060: 7bc1 eabc 026d 983e cdf6 2fbe 1584 ebbd
00000070: 9347 733e 716f 1d3e 688b 16bd 5846 e2bd
00000080: e630 883d dba5 4b3e 9ef9 eb3d 5a84 873e
00000090: 6443 583e 544d 103d 7e1a 14be aa00 21bd
-0.11345251 0.29848045 -0.06174412 0.047619354 0.27391124 0.21218832 -0.09968995 0.21469569
-0.015615524 -0.19581126 0.025776405 0.113340974 0.16393034 0.29166904 0.22147878 -0.06486164
0.10592613 -0.19093417 0.11659893 -0.008563387 0.14670613 0.2483318 -0.07111741 0.047226377
-0.028656712 0.29770666 -0.17183991 -0.11499802 0.23757772 0.15374543 -0.036754042 -0.11048573
0.06649952 0.19887488 0.1152222 0.26468164 0.21119457 0.035229996 -0.14463231 -0.039307274

fc2.weight f4 [1, 40]
00000000: d0a1 863e a508 e4bd a1a8 06be 68b6 813e
00000010: 18b1 e4bd bb8d 21be dfae 11be fe65 003e
00000020: 6a07 3a3e 3824 34be 7069 6f3e 7737 113e
00000030: da35 08be 91fe d9bd 6a74 9abd f31a 393e
00000040: 1665 303e e7d5 abbd d356 27be fec8 0c3e
00000050: 7c1b febd 2919 1ebe 4c26 debd 8236 083e
00000060: 29d6 683e bd5d fcbd a0ed 4ebe 2152 3f3e
00000070: ece8 36be 48d8 2dbe aa3c b63b 6f57 04be
00000080: 4bc3 2c3e f9cd 01be c13c 4cbe e3e7 ecbd
00000090: 433f d3bd 892a bcbb 6d0d fcbc 274d 2e3e
0.26295328 -0.11134461 -0.13150264 0.25334477 -0.111665905 -0.15776722 -0.14226864 0.12538907
0.1816689 -0.17591941 0.23380065 0.14181314 -0.13301793 -0.10644258 -0.075417355 0.18076687
0.17226061 -0.08390408 -0.16341715 0.13748547 -0.12407586 -0.15439285 -0.10847148 0.13302043
0.22737946 -0.12322567 -0.20207834 0.18683673 -0.1786229 -0.16977036 0.005561431 -0.12923978
0.16871373 -0.12676229 -0.19945051 -0.115676664 -0.103148006 -0.0057423753 -0.03076812 0.17021619
