task2/T2b_to_F_Gaussian_source_only_encoder.pt (torch, 46735 bytes, 8 tensors)

fc1.weight f4 [48, 140]
-0.0793875 -0.04927385 -0.029889684 0.031058587 0.07551478 0.037661225 0.03192652 -0.07171644
0.05468723 0.030268185 -0.027176932 -0.040551353 0.024027027 -0.045811273 0.0343083 0.06463511
-0.055765234 -0.052719768 -0.035111386 -0.072360076 -0.009692684 0.052639946 0.031631894 -0.027235437
-0.010492131 -0.036752608 -0.06822429 -0.02306753 0.005832702 -0.042859845 -0.06331692 0.024687305
0.012449235 -0.02628925 0.023141272 0.07811004 0.004615009 -0.05792533 0.07815345 0.06081976
-0.008066528 -0.038175948 -0.03566102 0.073696226 0.044149876 -0.04346186 0.0033731163 0.017335266
0.022341564 -0.0047814846 -0.044233162 -0.0025996491 -0.023346014 -0.028372385 -0.04189617 -0.04098028
-0.03982515 0.0333028 -0.071452826 -0.08038446 0.07228726 0.03034088 0.046745285 0.03686692
-0.032236658 -0.05308011 -0.057610817 -0.0053334385 0.020961612 -0.0791677 -0.064892635 0.047572732
0.010836616 0.05574563 0.07527879 0.051376387 -0.0179611 -0.03760431 0.023915559 0.06875029
-0.08102637 0.022687495 -0.06515201 -0.06719068 0.030581698 0.04299155 0.028935649 0.024578273
-0.025530625 0.0020441413 -0.07462969 -0.055129178 0.0017292053 -0.01937455 -0.013138428 0.048044324
0.031731375 -0.01791206 -0.027815528 -0.06114977 0.043499857 -0.059411176 0.026203193 -0.015365891
0.06580225 -0.05392478 -0.055230755 0.009755999 0.0024833456 -0.036353726 0.08440989 -0.07231484
0.045799106 0.041144133 -0.019499391 0.0299403 -0.014198199 -0.06351708 0.05593337 -0.022118304
-0.012416452 0.08281398 0.08184302 -0.0629112 -0.022140097 0.047858745 0.05238259 -0.061727233
-0.061475858 0.035415135 -0.057708062 0.060883686 -0.06468394 -0.049552936 0.03295108 0.046360508
-0.02971353 -0.048914794 0.03238795 0.027237475 0.021672145 -0.08588837 -0.23311536 -0.13998
-0.15986164 0.042058572 -0.10903861 0.04801834 0.020435873 0.15022789 -0.08118108 0.112625
0.061939064 0.05243585 0.04386481 0.1010483 0.074658394 0.03634506 0.018837355 0.16808993
0.06630467 0.064500846 -0.06381863 0.10910125 -0.041134126 0.16113128 -0.049646914 0.10712987
-0.08320176 0.084946826 0.060355056 0.1401257 0.0184943 0.06993196 0.054766852 0.084475435
0.06469959 0.0042766742 -0.054827344 0.008802949 0.0009889045 0.05402932 0.004267434 -0.014059812
-0.081939764 0.02383579 -0.05489821 0.021225132 0.038710438 0.11838143 -0.05752441 0.1573272
-0.068133615 0.060723737 -0.018545156 0.15130481 0.033509634 0.017824195 -0.068525046 0.05568727
-0.014039267 -0.017764846 -0.005133626 -0.03930547 -0.022903094 0.0091220625 -0.025434282 0.080659814
-0.09339123 0.024100048 0.066516764 -0.103531264 0.012060953 0.08631538 0.025531724 0.0779745
-0.049877714 0.10080685 -0.011848606 0.16777223 -0.1051934 0.13015781 -0.07756322 0.005013278
0.04951772 0.1073899 -0.07973532 0.023632016 -0.04669944 0.0738701 -0.039232396 0.035653837
-0.017493842 0.08659387 -0.10597803 0.01340022 0.04492329 -0.019573543 0.06037853 0.069425516
0.043633822 0.062387813 0.10423676 0.10174527 -0.00080308394 0.10423579 -0.0550894 0.09628875
0.1663289 -0.020589143 0.10559009 -0.02993393 0.12570724 -0.11818837 -0.07970652 -0.10830782
00000000: ea95 a2bd 60d3 49bd 36db f4bc 946e fe3c
00000010: 7ea7 9a3d a842 1a3d 62c5 023d 12e0 92bd
00000020: b8ff 5f3d fcf4 f73c 28a2 debc 2d19 26bd
00000030: 54d4 c43c 9aa4 3bbd dc86 0c3d 6a5f 843d
00000040: 166a 64bd aff0 57bd f5d0 0fbd 8531 94bd
00000050: 10ce 1ebc fc9c 573d 7290 013d da1c dfbc
00000060: 30e7 2bbc e789 16bd 2db9 8bbd 1ef8 bcbc
00000070: 4020 bf3b ce8d 2fbd 4dac 81bd 083d ca3c
00000080: e0f7 4b3c 8e5c d7bc c492 bd3c 28f8 9f3d
00000090: 8039 973b 1c43 6dbd ea0e a03d 241e 793d
000000a0: 7829 04bc 625e 1cbd 4a11 12bd 0cee 963d
000000b0: 80d6 343d 1005 32bd 800f 5d3b b002 8e3c
000000c0: a805 b73c 00ae 9cbb d52d 35bd e05e 2abb
000000d0: 2440 bfbc 346d e8bc 519b 2bbd f0da 27bd
000000e0: b21f 23bd 8468 083d dc55 92bd 9ca0 a4bd
000000f0: 580b 943d 708d f83c fc77 3f3d c401 173d
00000100: 960a 04bd 886a 59bd 52f9 6bbd 20c4 aebb
00000110: b0b7 ab3c ad22 a2bd 6ee6 84bd a0db 423d
00000120: 108c 313c 8855 643d c42b 9a3d 0c70 523d
00000130: 2823 93bc fa06 1abd 90ea c33c f4cc 8c3d
00000140: 27f1 a5bd 20db b93c 6b6e 85bd 449b 89bd
00000150: 7886 fa3c e817 303d 740a ed3c 6058 c93c
00000160: 9a25 d1bc 00f7 053b 73d7 98bd 22cf 61bd
00000170: 80a6 e23a 60b7 9ebc 9042 57bc 20ca 443d
00000180: c2f8 013d 50bc 92bc 64dd e3bc 2e78 7abd
00000190: e82c 323d 2259 73bd 14a8 d63c 38c1 7bbc
000001a0: 54c3 863d 3be0 5cbd a539 62bd a0d7 1f3c
000001b0: a0bf 223b a5e7 14bd 18df ac3d ce19 94bd
000001c0: d897 3b3d c086 283d 30bd 9fbc 5c45 f53c
000001d0: 909f 68bc 3e15 82bd 641a 653d 7231 b5bc
000001e0: 606e 4bbc 609a a93d 509d a73d 96d7 80bd
000001f0: 265f b5bc 8807 443d 208f 563d b2d5 7cbd
00000200: 1cce 7bbd 760f 113d 4a5f 6cbd 2c61 793d
00000210: 0379 84bd 05f8 4abd b6f7 063d 84e4 3d3d
00000220: ca69 f3bc e15a 48bd 3aa9 043d 2021 df3c
00000230: c889 b13c 3ee6 afbd cbb5 6ebe eb56 0fbe
00000240: c5b2 23be 9c45 2c3d a24f dfbd e1ae 443d
00000250: 2269 a73c 57d5 193e 4442 a6bd f0a7 e63d
00000260: d1b3 7d3d f9c6 563d 96ab 333d 69f2 ce3d
00000270: 80e6 983d 8fde 143d cc50 9a3c c41f 2c3e
00000280: beca 873d 0519 843d 58b3 82bd 7a70 df3d
00000290: 427c 28bd 99ff 243e 905a 4bbd e866 db3d
000002a0: af65 aabd 9af8 ad3d dd36 773d 1d7d 0f3e
000002b0: 5c81 973c 7d38 8f3d 3553 603d 7501 ad3d
000002c0: 3881 843d 5823 8c3b a392 60bd 3f3a 103c
000002d0: 219e 813a d94d 5d3d d5d5 8b3b 205b 66bc
000002e0: 09d0 a7bd 4643 c33c f2dc 60bd 54e0 ad3c
000002f0: d68e 1e3d f771 f23d b79e 6bbd 621a 213e
00000300: a389 8bbd 74b9 783d 03ec 97bc a6ef 1a3e
00000310: 6641 093d 0c04 923c dc56 8cbd 5618 643d
00000320: f404 66bc 9587 91bc fa37 a8bb c6fe 20bd
00000330: 459f bbbc b474 153c 8e5b d0bc f930 a53d
00000340: e743 bfbd 776d c53c f139 883d 3308 d4bd
00000350: 4e9b 453c 1ec6 b03d e827 d13c 18b1 9f3d
00000360: 934c 4cbd d273 ce3d a820 42bc 7ccc 2b3e
00000370: a36f d7bd 1748 053e 77d9 9ebd 6d46 a43b
00000380: 18d3 4a3d 3cef db3d 454c a3bd ee97 c13c
00000390: e947 3fbd 3549 973d 26b2 20bd c209 123d
000003a0: 3f4f 8fbc 2058 b13d 020b d9bd 998c 5b3c
000003b0: 7c01 383d b258 a0bc 7a4f 773d f72e 8e3d
000003c0: 61b9 323d 5d8a 7f3d 157a d53d d35f d03d
000003d0: 0d86 52ba 9379 d53d 6ca5 61bd 0933 c53d
000003e0: 2052 2a3e 90aa a8bc 9e3f d83d 0038 f5bc
000003f0: 66b9 003e be0c f2bd 2c3d a3bd 7ed0 ddbd

fc1.bias f4 [48]
-0.003881663 0.015691899 -0.0024670144 0.07841946 0.07597418 0.06709473 0.010848875 -0.084801145
-0.04418857 0.010459416 -0.029208967 0.048857838 -0.008436039 0.025773037 -0.08078523 0.06251751
0.033837173 0.00022181123 0.07297897 -0.06999981 0.080822386 0.06629058 -0.03361456 -0.01728288
-0.079923496 -0.0064746724 -0.043122802 -0.039875954 -0.017294707 0.022140495 -0.03376303 -0.02945693
-0.05719437 0.00067666173 -0.022624461 0.06015311 -0.037071522 0.06946712 0.05187072 -0.048080437
-0.072258055 0.01888798 0.006056834 0.05884528 0.05297494 -0.03455323 0.08428671 -0.024370303
00000000: 8063 7ebb 4c8c 803c a2ad 21bb 629a a03d
00000010: 5a98 9b3d f668 893d 7bbf 313c 39ac adbd
00000020: 13ff 34bd f85d 2b3c a547 efbc 281f 483d
00000030: 5037 0abc fa21 d33c ba72 a5bd 2e09 803d
00000040: d998 0a3d 0096 6839 0076 953d 0f5c 8fbd
00000050: 3586 a53d 5bc3 873d 6caf 09bd d494 8dbc
00000060: eeae a3bd 7d29 d4bb 89a1 30bd f854 23bd
00000070: a1ad 8dbc fc5f b53c 1a4b 0abd a94f f1bc
00000080: a544 6abd 0062 313a ef56 b9bc 1c63 763d
00000090: 4fd8 17bd c744 8e3d 6476 543d feef 44bd
000000a0: 08fc 93bd f7ba 9a3c 6878 c63b c007 713d
000000b0: 40fc 583d b087 0dbd 839e ac3d 3ba4 c7bc

fc2.weight f4 [48, 48]
0.054365546 0.16209763 0.25344607 -0.019936081 0.030242983 -0.102080375 0.056271136 0.027566662
-0.03434196 -0.015721709 -0.055146433 0.06121035 -0.07050352 0.03696567 0.11797008 0.042724073
0.076264575 -0.03989975 0.1307616 -0.0392583 0.03947858 -0.0408469 0.049102068 0.28363532
-0.0662859 -0.14661893 -0.05890478 0.11534393 0.15090525 0.0034365952 -0.13584775 0.026077276
-0.06821382 -0.002075702 0.03805089 -0.045256957 -0.07198438 0.1146561 -0.124089114 0.10298885
-0.07129874 -0.083930016 -0.03111441 0.073661715 -0.15707652 0.09899019 -0.18931225 -0.040120155
0.069090486 0.24312201 0.14725742 -0.117945895 -0.11266185 -0.015870359 -0.17720169 -0.0042843386
-0.12660263 0.026145518 0.005380805 0.016277477 0.014543772 -0.16334789 0.028479822 0.12966424
-0.059577692 -0.06194608 0.01731655 0.019756041 -0.16154823 0.014631062 0.10583481 0.1586296
-0.06110806 -0.17053017 -0.1558401 0.13708809 0.17351104 0.07371403 0.042081986 0.097506225
-0.18176988 0.025333628 0.28427434 0.13832307 -0.07098693 -0.08961084 0.06744662 0.045157116
0.13283193 -0.12796299 -0.08530344 0.06405317 -0.10147055 -0.11331026 0.062404238 -0.24903058
-0.13024327 -0.19075245 -0.23249513 0.03730892 -0.09148962 0.103470534 0.16542307 -0.12820655
0.17429523 -0.09778087 -0.104621574 0.080890745 0.07882172 0.053065255 0.09336226 -0.07904902
-0.13216434 0.053311586 -0.0809067 -0.12919618 0.035155732 0.09164735 0.034426555 -0.11742642
0.12662554 0.18822522 0.14473681 0.041270107 0.01016426 0.04688847 -0.029524649 0.07698397
0.0674773 -0.14013757 -0.11270738 0.107714444 -0.025327995 0.05080215 0.0682078 -0.069945514
-0.14276986 -0.073975444 0.15063116 -0.122941144 0.096679 -0.071216635 0.16786452 0.20532003
0.14428008 -0.21201919 -0.11318788 0.25548273 0.020087719 0.10137852 0.08189677 -0.10327396
0.18509409 0.052504703 -0.034751408 0.039426148 -0.07169287 0.103906505 0.021408359 -0.19115928
-0.098511554 -0.021266311 -0.06426543 -0.032652512 0.08576925 -0.006878198 -0.027851947 -0.18326516
-0.12131753 -0.06672857 0.034389965 0.1367664 -0.00752172 -0.033754013 0.1424592 -0.040954705
0.15303075 -0.05271425 -0.027202027 0.054818407 -0.0888412 -0.06460381 -0.10962525 0.09231639
0.017880067 -0.05277229 0.24507204 0.13255899 0.06461644 -0.060426153 -0.05050012 0.13990834
0.13942537 -0.29966864 -0.21754515 0.050919704 0.086144075 -0.098233394 -0.031986598 -0.07563271
0.20663327 -0.13480136 -0.12323785 -0.12559377 -0.10363579 0.037494943 -0.0727773 -0.24641822
0.081548065 0.019832328 -0.056227654 0.053613316 0.12155716 -0.015263427 -0.010003164 -0.28383994
0.045174673 0.16610603 -0.009040686 0.0379771 -0.06783441 -0.0154489875 0.11956447 0.1219038
0.14321508 0.06470604 -0.28531614 0.120966285 -0.05176694 -0.12450497 -0.10787371 0.028416207
0.12230778 0.05120905 0.0702692 -0.1432426 0.11114926 -0.0020993054 0.04239316 0.11926885
0.014106929 0.12883238 0.21050757 -0.07573009 0.03689415 -0.09433897 0.09664451 -0.019390987
0.1014012 0.066445276 0.1305585 0.03940408 -0.010780111 -0.113405146 -0.043972977 0.075567506
00000000: 68ae 5e3d ecfc 253e afc3 813e fe50 a3bc
00000010: 22c0 f73c 840f d1bd 907c 663d 7bd3 e13c
00000020: 28aa 0cbd d0ca 80bc 3ae1 61bd b4b7 7a3d
00000030: 2664 90bd 5069 173d 4c9a f13d 70ff 2e3d
00000040: 9a30 9c3d ec6d 23bd 5ee6 053e 50cd 20bd
00000050: 4bb4 213d 144f 27bd 401f 493d a638 913e
00000060: e7c0 87bd 4623 16be 2346 71bd 7039 ec3d
00000070: e886 1a3e 8038 613b ac1b 0bbe 03a0 d53c
00000080: b0b3 8bbd 8008 08bb 40db 1b3d 5c5f 39bd
00000090: 8c6c 93bd d1d0 ea3d 6f22 febd d1eb d23d
000000a0: 1305 92bd 80e3 abbd a6e3 febc f4db 963d
000000b0: abd8 20be 5ebb ca3d 12db 41be 0855 24bd
000000c0: 507f 8d3d faf4 783e a6ca 163e 9e8d f1bd
000000d0: 42bb e6bd 8e02 82bc 5c74 35be a363 8cbb
000000e0: 1fa4 01be 202f d63c 7751 b03b 5858 853c
000000f0: 0049 6e3c ab44 27be 844e e93c b4c6 043e
00000100: bd07 74bd 2cbb 7dbd 70db 8d3c 6cd7 a13c
00000110: e66c 25be 1fb7 6f3c ecbf d83d cc6f 223e
00000120: 724c 7abd 769f 2ebe 8c94 1fbe d260 0c3e
00000130: e1ac 313e 62f7 963d 295e 2c3d 58b1 c73d
00000140: e221 3abe 7888 cf3c 688c 913e 90a4 0d3e
00000150: 9861 91bd e385 b7bd 7421 8a3d abf6 383d
00000160: 1805 083e bb08 03be 92b3 aebd 4f2e 833d
00000170: cbcf cfbd 360f e8bd 969b 7f3d df01 7fbe
00000180: 7e5e 05be 9c54 43be 3413 6ebe 3dd1 183d
00000190: e95e bbbd 5ce8 d33d aa64 293e 9448 03be
000001a0: 737a 323e 5641 c8bd d643 d6bd 0caa a53d
000001b0: 486d a13d f45a 593d b634 bf3d 74e4 a1bd
000001c0: 1756 07be 405d 5a3d 69b2 a5bd 014c 04be
000001d0: 75ff 0f3d 9bb1 bb3d dc02 0d3d 437d f0bd
000001e0: 20aa 013e 1dbe 403e e335 143e d80a 293d
000001f0: ff87 263c 200e 403d addd f1bc c6a9 9d3d
00000200: 8a31 8a3d 3980 0fbe 20d3 e6bd 6499 dc3d
00000210: a87c cfbc ea15 503d 88b0 8b3d 983f 8fbd
00000220: 4332 12be 7080 97bd 0e3f 1a3e 91c8 fbbd
00000230: a4ff c53d 07da 91bd ade4 2b3e 6a3f 523e
00000240: 28be 133e 8f1b 59be 0ccf e7bd a2ce 823e
00000250: 008f a43c 8b9f cf3d 7eb9 a73d 4c81 d3bd
00000260: 4e89 3d3e 2c0f 573d 7e57 0ebd 507d 213d
00000270: b6d3 92bd efcc d43d 9560 af3c 42bf 43be
00000280: 6dc0 c9bd b036 aebc 989d 83bd a4be 05bd
00000290: caa7 af3d 8262 e1bb c429 e4bc dda9 3bbe
000002a0: 5375 f8bd fda8 88bd 7edc 0c3d 7e0c 0c3e
000002b0: c378 f6bb a641 0abd d3e0 113e 1fc0 27bd
000002c0: 18b4 1c3e e6ea 57bd c9d6 debc 4489 603d
000002d0: 60f2 b5bd 014f 84bd 3483 e0bd 6010 bd3d
000002e0: 3879 923c c227 58bd 2af4 7a3e 8bbd 073e
000002f0: a055 843d 6a81 77bd 37d9 4ebd 2244 0f3e
00000300: 86c5 0e3e 2b6e 99be 28c4 5ebe 2e91 503d
00000310: 4e6c b03d 972e c9bd 6104 03bd 52e5 9abd
00000320: ac97 533e 5e09 0abe 2064 fcbd a79b 00be
00000330: 003f d4bd 4c94 193d 440c 95bd 0f55 7cbe
00000340: ac02 a73d 6877 a23c f84e 66bd a399 5b3d
00000350: f6f2 f83d 7413 7abc 50e4 23bc 7853 91be
00000360: 1409 393d b317 2a3e 631f 14bc e08d 1b3d
00000370: c4ec 8abd c01d 7dbc 38de f43d b3a8 f93d
00000380: f9a6 123e 9a84 843d f514 92be 2cbd f73d
00000390: 9209 54bd 76fc febd e4ec dcbd 1bc9 e83c
000003a0: 807c fa3d 95c0 513d 4ce9 8f3d 30ae 12be
000003b0: 39a2 e33d 8094 09bb 73a4 2d3d 3a43 f43d
000003c0: c020 673c a3ec 033e 4c8f 573e 6118 9bbd
000003d0: 521e 173d ca34 c1bd 8fed c53d d9d9 9ebc
000003e0: 6fab cf3d 7614 883d 21b1 053e 2c66 213d
000003f0: 109f 30bc f540 e8bd 021d 34bd 23c3 9a3d

fc2.bias f4 [48]
-0.02453729 -0.16692595 0.052536987 0.104258806 0.0585005 -0.049690697 0.21749693 -0.108032405
0.046874978 0.052208006 -0.045711115 0.065279834 -0.18045193 -0.12663668 -0.016819106 -0.024350911
-0.012886602 0.015215593 -0.042149395 -0.019206045 0.016839778 -0.12503695 -0.026772091 -0.09620993
-0.13574462 -0.15757443 0.063662775 -0.025900196 0.13109355 0.09364698 0.16776185 0.0037382445
-0.033013817 0.04832449 -0.14298497 -0.060202233 0.12177545 0.093027696 -0.030763397 0.0678868
-0.067711875 0.10917224 -0.10580858 0.12908964 -0.11088235 0.12426108 0.004083069 0.041036263
00000000: 6d02 c9bc a3ee 2abe 0631 573d a485 d53d
00000010: 389e 6f3d 7988 4bbd 84b7 5e3e 1840 ddbd
00000020: faff 3f3d 10d8 553d 943b 3bbd 6fb1 853d
00000030: 64c8 38be 0cad 01be 39c8 89bc 907b c7bc
00000040: 5422 53bc d34a 793c d8a4 2cbd ff55 9dbc
00000050: 93f3 893c b009 00be 2551 dbbc b609 c5bd
00000060: a300 0bbe 315b 21be a161 823d a62c d4bc
00000070: 633d 063e fdc9 bf3d c3c9 2b3e 56fd 743b
00000080: 7f39 07bd e7ef 453d a76a 12be 9e96 76bd
00000090: 6865 f93d 4e85 be3d 8503 fcbc 3c08 8b3d
000000a0: 86ac 8abd b295 df3d 2bb2 d8bd 1330 043e
000000b0: 4916 e3bd 987c fe3d 44cb 853b a415 283d

z_loc.weight f4 [20, 48]
-0.0051710075 0.22417104 -0.25162786 -0.21677992 -0.13983752 0.19513348 -0.17228304 -0.06890523
0.1360264 0.28781188 -0.10459305 0.18046863 0.28924868 -0.12775666 0.018032672 -0.25356618
0.0020979638 -0.06566715 0.04225883 -0.06778812 -0.054776136 -0.13456239 -0.13026491 0.033501025
0.09546906 0.03711917 -0.08132991 -0.19379672 0.2029081 0.14253362 -0.074970335 0.15183112
-0.20246923 -0.23142296 0.11558386 0.11420858 -0.09812473 -0.18054838 0.25203684 -0.23260336
-0.3101885 -0.17266594 0.10855633 -0.22111057 0.051518343 -0.25694606 -0.07160624 0.2295495
-0.13952363 -0.010590292 -0.003258269 0.03945012 0.30454662 -0.040253915 0.16194937 0.17632478
-0.21560161 -0.2708143 0.2367661 -0.098341495 -0.13787152 0.12711288 0.12886298 0.26587197
-0.037634768 0.17084168 -0.2345485 0.00997908 -0.021852296 0.2532821 0.06543427 -0.12979183
-0.082190365 -0.23815197 0.22274749 0.19483672 -0.11396847 -0.30456543 0.15135986 -0.2572743
-0.0074371537 0.1298235 -0.14757372 -0.23871021 0.057771094 0.08820442 -0.023849774 0.032144308
0.24571061 0.045185372 -0.07379399 0.21247005 -0.037349835 0.028348256 0.2831472 -0.1918873
0.047779985 -0.12043947 0.0643454 0.06126889 0.19269247 -0.009059157 -0.008298505 0.20243694
-0.13460413 -0.07492525 0.047174018 -0.24455643 -0.16879171 -0.15923063 0.08817204 0.21971849
-0.12319934 0.13158062 -0.03299575 0.17713456 -0.17015235 -0.08920313 0.22382702 -0.17366332
-0.13087612 -0.04148671 0.16297287 0.05868154 0.05192986 -0.16950563 0.21007586 -0.2443701
0.21639828 -0.036491163 -0.02457602 -0.029861422 0.08846033 0.19953394 -0.21519023 0.20230553
0.09873096 0.013003418 -0.06563435 0.20749474 -0.12869559 -0.011300057 0.22038613 -0.15123597
-0.12617293 -0.053397153 0.07612246 0.1798537 0.044025127 -0.16598135 0.1137327 0.10463058
-0.1555907 0.01453172 -0.045740888 -0.098654516 -0.17794684 -0.08639724 -0.03709924 0.06023618
-0.06485687 0.09110218 0.022865616 0.2360523 -0.16610275 0.08817388 0.17210935 0.020352649
-0.060913626 -0.08226539 0.076432206 0.121079184 -0.15503545 -0.10257557 0.22108877 -0.001988592
0.08537058 0.11424412 -0.21629728 -0.17200287 0.14407319 0.17062134 -0.18204574 0.14525114
0.09178361 0.1363534 -0.15030056 -0.024873829 -0.2069339 0.17538352 0.12045572 -0.17933919
0.106720746 0.04310666 -0.169606 -0.12513725 -0.2782945 -0.013226407 0.052743897 0.013374392
0.04989179 0.012620238 -0.20905784 0.13652956 0.27531442 -0.03355592 -0.1365458 -0.2090698
0.18082535 -0.044362295 0.08815609 0.013663237 0.019656468 -0.122685395 -0.2421988 0.10706225
-0.003939972 0.16244747 -0.021673463 -0.1988692 0.07978863 0.15286137 -0.007752486 0.22405419
-0.08881432 -0.23307683 0.07922216 0.047768947 -0.07962076 -0.24537292 0.25310835 -0.06876619
-0.11941267 -0.056046322 -0.08415485 -0.14291514 0.0831695 -0.22884528 -0.29187548 0.20040004
-0.055498425 -0.0044571897 0.19608068 0.17364582 0.25800586 0.018497905 -0.042591713 0.2245597
-0.22099532 -0.13834761 0.032185964 -0.2861181 -0.09977021 0.029492637 0.017389882 0.06403334
00000000: 8e71 a9bb 188d 653e 5ed5 80be 8efb 5dbe
00000010: 9131 0fbe 12d1 473e f76a 30be 2f1e 8dbd
00000020: 814a 0b3e 145c 933e e234 d6bd c5cc 383e
00000030: 6718 943e a4d2 02be 41b9 933c 6dd3 81be
00000040: fe7d 093b 807c 86bd 9817 2d3d 7fd4 8abd
00000050: f15c 60bd b9ca 09be 2a64 05be 5f38 093d
00000060: 4885 c33d 450a 183d 4c90 a6bd a672 46be
00000070: 24c7 4f3e 55f4 113e 0c8a 99bd 9e79 1b3e
00000080: 1854 4fbe 24fa 6cbe 3bb7 ec3d 30e6 e93d
00000090: 9ef5 c8bd ade1 38be f90a 813e 932f 6ebe
000000a0: 07d1 9ebe 57cf 30be c852 de3d cf6a 62be
000000b0: e604 533d 6f8e 83be 4ba6 92bd 060f 6b3e
000000c0: 48df 0ebe e782 2dbc af88 55bb 7396 213d
000000d0: 89ed 9b3e 4ae1 24bd 0ed6 253e 7c8e 343e
000000e0: abc6 5cbe 2ca8 8abe d072 723e 4467 c9bd
000000f0: 312e 0dbe e129 023e a8f4 033e 5f20 883e
00000100: ea26 1abd 1ff1 2e3e 7b2d 70be 4c7f 233c
00000110: 9603 b3bc 31ae 813e 6702 863d 26e8 04be
00000120: 6c53 a8bd 1cde 73be eb17 643e 4783 473e
00000130: 4d68 e9bd 00f0 9bbe 14fe 1a3e 75b9 83be
00000140: 5eb3 f3bb 74f0 043e 911d 17be 7370 74be
00000150: 62a1 6c3d 85a4 b43d 9a60 c3bc c0a9 033d
00000160: 909b 7b3e 4c14 393d 4e21 97bd c091 593e
00000170: 24fc 18bd 9a3a e83c abf8 903e 1b7e 44be
00000180: f2b4 433d f8a8 f6bd 85c7 833d 16f5 7a3d
00000190: 2d51 453e dc6c 14bc 74f6 07bc a14b 4f3e
000001a0: aad5 09be 6972 99bd 8b39 413d 006d 7abe
000001b0: bcd7 2cbe 5b0d 23be 8b93 b43d e2fd 603e
000001c0: f04f fcbd 12bd 063e 8d26 07bd c362 353e
000001d0: 6b3c 2ebe 21b0 b6bd e932 653e ccd4 31be
000001e0: 6404 06be f8ed 29bd 5ce2 263e 0e5c 703d
000001f0: 68b4 543d e292 2dbe 201e 573e 283c 7abe
00000200: 8397 5d3e c277 15bd a653 c9bc f19f f4bc
00000210: b12a b53d a052 4c3e d45a 5cbe 2e29 4f3e
00000220: 7533 ca3d 4a0c 553c 4d6b 86bd 8079 543e
00000230: c7c8 03be e023 39bc e7ac 613e 9add 1abe
00000240: 7a33 01be f9b6 5abd 18e6 9b3d 912b 383e
00000250: b153 343d 04f7 29be b1ec e83d 8f48 d63d
00000260: 2b53 1fbe 7416 6e3c cc5a 3bbd 610b cabd
00000270: b237 36be 09f1 b0bd 5ff5 17bd 36ba 763d
00000280: aed3 84bd c893 ba3d ac50 bb3c b2b7 713e
00000290: d716 2abe 8294 b43d 6f3d 303e 99ba a63c
000002a0: 9180 79bd c27a a8bd 7d88 9c3d 5df8 f73d
000002b0: 9dc1 1ebe 2413 d2bd 1865 623e 0a53 02bb
000002c0: c5d6 ae3d d2f8 e93d 097d 5dbe 8521 30be
000002d0: ec87 133e 5cb7 2e3e 336a 3abe b7bc 143e
000002e0: 0cf9 bb3d 3aa0 0b3e 64e8 19be 33c4 cbbc
000002f0: 7be6 53be bd97 333e 7db1 f63d b1a4 37be
00000300: 6890 da3d 9c90 303d 32ad 2dbe fb23 00be
00000310: 9e7c 8ebe 92b3 58bc fc09 583d 4420 5b3c
00000320: 555b 4c3d 1dc5 4e3c 4213 56be 68ce 0b3e
00000330: 03f6 8c3e ef71 09bd aad2 0bbe 6516 56be
00000340: 482a 393e 3db5 35bd 2e8b b43d c5db 5f3c
00000350: 9a06 a13c 7b42 fbbd f602 78be 7443 db3d
00000360: e11a 81bb a158 263e 8c8c b1bc 5ea4 4bbe
00000370: 3968 a33d b187 1c3e 9108 febb 766e 653e
00000380: 48e4 b5bd b1ab 6ebe 3a3f a23d 5fa9 433d
00000390: 3610 a3bd 0a43 7bbe 6b97 813e 4ad5 8cbd
000003a0: a18e f4bd d490 65bd 6159 acbd 5958 12be
000003b0: c554 aa3d 6b56 6abe b470 95be ab35 4d3e
000003c0: 5152 63bd 9e0d 92bb 60c9 483e 36d0 313e
000003d0: 5819 843e eb88 973c a674 2ebd faf2 653e
000003e0: 994c 62be ffaa 0dbe 6ed5 033d 127e 92be
000003f0: 5354 ccbd 8b9a f13c 3a75 8e3c e923 833d

z_loc.bias f4 [20]
0.05119288 -0.116019286 0.16529913 0.0793023 -0.09803303 -0.09949613 0.11010212 -0.041067313
-0.011002243 0.05368676 -0.11323999 0.0469545 0.020761669 0.04074273 0.06724544 -0.07997992
0.15575418 -0.086403176 0.025135804 -0.11948896
00000000: a0af 513d 859b edbd 2d44 293e 3f69 a23d
00000010: 8bc5 c8bd a1c4 cbbd 387d e13d 3336 28bd
00000020: c042 34bc a6e6 5b3d 5eea e7bd 5d53 403d
00000030: 6014 aa3c d9e1 263d fab7 893d 83cc a3bd
00000040: 067e 1f3e 26f4 b0bd 9ae9 cd3c a1b6 f4bd

z_logit_scale.weight f4 [20, 48]
0.107018605 0.07971178 0.03607776 0.010951531 0.049366146 0.024300724 -0.17053132 -0.025009897
0.14103708 0.049674887 0.11324698 0.04576673 0.09625243 -0.025517374 0.008760578 -0.10650584
0.15510315 -0.066596866 -0.038358897 -0.09790442 0.1496193 0.09874904 0.0822813 -0.079848
-0.028865239 0.16228986 -0.025699213 -0.11918221 -0.1415806 -0.0783569 -0.054676514 -0.07303098
-0.03619274 0.061895322 0.122539245 -0.006917623 0.05730727 0.029007537 -0.089236245 0.00883006
-0.065647006 -0.11370868 0.033839326 0.08873493 -0.090657346 0.06977103 0.09921304 0.036127012
0.05974127 0.12057347 -0.021080585 -0.027146174 0.11332047 -0.015697645 -0.15044524 -0.036205567
0.047134876 0.013398066 0.14717521 0.05683293 0.13638072 0.1716247 0.15470998 -0.08893944
0.09259386 -0.050236583 0.05109472 0.012730723 0.021112412 0.061538994 0.014193225 -0.013262303
-0.014234508 0.09787827 -0.07983803 -0.096917674 -0.13165152 -0.09037249 -0.116700865 0.04216174
-0.0048806574 -0.029644292 0.16950047 -0.05329707 0.05515238 -0.1346505 0.061222356 0.05007444
0.13635117 0.020649813 0.08644185 0.07825305 0.058014706 -0.12828039 -0.025749499 -0.10290767
-0.039939485 -0.009674093 -0.10631293 -0.053517226 0.009789016 -0.04908637 -0.06417864 -0.10208319
0.1044926 -0.006290347 -0.011989091 0.009219225 -0.07883541 -0.101372026 -0.0320127 0.06386467
0.046021443 0.04170659 -0.057400588 -0.11204408 0.12286403 0.10734941 -0.006684695 -0.07492787
0.1300985 -0.009863815 -0.054991238 -0.06325362 -0.1591405 -0.041311525 -0.08144087 -0.037285846
-0.010385735 -0.06767622 0.15406153 -0.045997348 -0.09656821 -0.020889107 -0.09915022 0.080432236
0.040585022 -0.08688301 0.07667628 0.039025985 0.12611501 -0.07965863 0.07560201 0.10992295
0.13926446 0.09560423 0.10593159 -0.10065209 -0.11065699 0.111328214 -0.03342228 0.13671017
0.017105576 -0.004774476 -0.005820883 -0.03188454 0.09721565 0.010041135 0.10051574 0.12458317
0.15504122 -0.050161455 -0.022408262 0.0072166394 0.08964715 0.080716945 -0.07763191 0.14437248
0.10421404 0.02525389 -0.06442669 -0.12376063 -0.08145681 -0.08485018 -0.15433474 0.14734401
-0.093639754 -0.028025832 -0.10486428 0.09299056 0.051316153 0.095524326 -0.11482884 -0.06430891
0.06884979 -0.05127485 -0.07704595 -0.13737518 0.046563003 0.044875182 0.056781415 0.0029796262
-0.07359789 -0.09712525 -0.12717609 0.06673505 -0.058964074 0.06749943 -0.029870152 0.16158271
-0.070414394 0.017533138 0.00042604105 -0.061739627 0.01925515 -0.104301505 0.048446998 0.11779218
0.11608174 0.08996316 -0.09802979 -0.07089308 0.05673621 0.16531819 -0.031205423 -0.09720535
0.048129436 -0.071416706 0.038054734 -0.15963595 -0.04581872 -0.07957615 -0.11026089 -0.101513475
0.057634156 -0.027066361 0.16658555 0.0775621 0.00049059064 0.081938006 -0.09284714 -0.12123829
0.0315614 -0.15445808 0.0577787 -0.0566623 0.04751206 0.04586364 -0.021508154 0.035433836
-0.06330105 0.058902603 -0.09774906 0.04368429 -0.035358187 -0.15173702 -0.15353966 0.1326993
0.07058616 -0.15260436 0.040571578 0.050063584 -0.06023453 -0.11174977 -0.045909267 0.12976712
00000000: 922c db3d ee3f a33d 46c6 133d 0d6e 333c
00000010: 2834 4a3d 5012 c73c c39f 2ebe 8ee1 ccbc
00000020: 066c 103e e577 4b3d 08ee e73d e575 3b3d
00000030: fe1f c53d d009 d1bc 8788 0f3c bc1f dabd
00000040: 5cd3 1e3e f063 88bd 381e 1dbd 1d82 c8bd
00000050: cd35 193e f03c ca3d 1983 a83d 5987 a3bd
00000060: cb76 ecbc 502f 263e 2887 d2bc cd15 f4bd
00000070: 81fa 10be 9579 a0bd 7bf4 5fbd 4491 95bd
00000080: d73e 14bd f385 7d3d dbf5 fa3d 3aad e2bb
00000090: 07bb 6a3d 37a1 ed3c 7ec1 b6bd f5ab 103c
000000a0: f071 86bd 19e0 e8bd 1b9b 0a3d a9ba b53d
000000b0: 8faa b9bd 1de4 8e3d 3530 cb3d ebf9 133d
000000c0: 43b3 743d 39ef f63d 31b1 acbc a761 debc
000000d0: 9014 e83d 5998 80bc 510e 1abe 4a4c 14bd
000000e0: 8010 413d 9083 5b3c 19b5 163e a5c9 683d
000000f0: 63a7 0b3e 63be 2f3e 4b6c 1e3e e225 b6bd
00000100: daa1 bd3d e0c4 4dbd b248 513d 8694 503c
00000110: f0f3 ac3c 5010 7c3d b38a 683c 214a 59bc
00000120: db37 69bc 6774 c83d 1f82 a3bd c67c c6bd
00000130: a8cf 06be 3615 b9bd dd00 efbd cab1 2c3d
00000140: eced 9fbb 96d8 f2bc 8891 2d3e 074e 5abd
00000150: 76e7 613d d2e1 09be 4bc4 7a3d db1a 4d3d
00000160: a49f 0b3e cc29 a93c 6d08 b13d 2343 a03d
00000170: d4a0 6d3d ef5b 03be 9df0 d2bc 42c1 d2bd
00000180: 9697 23bd 1680 1ebc 98ba d9bd e134 5bbd
00000190: 1c62 203c ca0e 49bd 1770 83bd fe10 d1bd
000001a0: 3700 d63d 411f cebb e46d 44bc 3b0c 173c
000001b0: 7674 a1bd 239c cfbd c01f 03bd 7bcb 823d
000001c0: fb80 3c3d 88d4 2a3d e11c 6bbd 5e77 e5bd
000001d0: 23a0 fb3d 02da db3d 490b dbbb c873 99bd
000001e0: 8b38 053e d79b 21bc 7e3e 61bd 1d8b 81bd
000001f0: baf5 22be 4636 29bd 79ca a6bd 0bb9 18bd
00000200: ee28 2abc d499 8abd 4ec2 1d3e b767 3cbd
00000210: 8ec5 c5bd a21f abbc 450f cbbd a8b9 a43d
00000220: 7b3c 263d b8ef b1bd 7408 9d3d b6d9 1f3d
00000230: 4b24 013e 1024 a3bd 3ad5 9a3d 491f e13d
00000240: 589b 0e3e 27cc c33d a9f2 d83d af22 cebd
00000250: 22a0 e2bd 0c00 e43d cde5 08bd c0fd 0b3e
00000260: fe20 8c3c 3573 9cbb 1bbd bebb 5d99 02bd
00000270: 0019 c73d 9383 243c 32db cd3d 7625 ff3d
00000280: 20c3 1e3e 1976 4dbd 8891 b7bc 8f79 ec3b
00000290: ed98 b73d ed4e a53d 7bfd 9ebd 61d6 133e
000002a0: 2c6e d53d 3fe1 ce3c 24f2 83bd 3776 fdbd
000002b0: d4d2 a6bd eec5 adbd ed09 1ebe 59e1 163e
000002c0: 33c6 bfbd 6e96 e5bc 15c3 d6bd d671 be3d
000002d0: e330 523d 42a2 c33d 622b ebbd 64b4 83bd
000002e0: 1e01 8d3d 9405 52bd 44ca 9dbd 14ac 0cbe
000002f0: d9b8 3e3d 0acf 373d a193 683d d545 433b
00000300: 7eba 96bd 9ae9 c6bd 733a 02be 63ac 883d
00000310: 5084 71bd 243d 8a3d 40b2 f4bc f075 253e
00000320: 6c35 90bd a8a1 8f3c 435e df39 b1e2 7cbd
00000330: fabc 9d3c 079c d5bd 5c70 463d 073d f13d
00000340: 43bc ed3d 9b3e b83d d8c3 c8bd 6430 91bd
00000350: 3a64 683d 2c49 293e 84a2 ffbc 9913 c7bd
00000360: 5f23 453d ec42 92bd 48df 1b3d 9b77 23be
00000370: 69ac 3bbd d2f8 a2bd 76d0 e1bd 4ce6 cfbd
00000380: cb11 6c3d 46ba ddbc 6795 2a3e e1d8 9e3d
00000390: fb9a 003a 1dcf a73d a426 bebd c84b f8bd
000003a0: 8746 013d 422a 1ebe 5ca9 6c3d ba16 68bd
000003b0: 019c 423d 83db 3b3d de31 b0bc 1223 113d
000003c0: fba3 81bd db43 713d a930 c8bd 4cee 323d
000003d0: bfd3 10bd f360 1bbe 8039 1dbe 53e2 073e
000003e0: 7a8f 903d 5144 1cbe 622e 263d 790f 4d3d
000003f0: 7cb8 76bd 10dd e4bd 5b0b 3cbd ace1 043e

z_logit_scale.bias f4 [20]
0.09096285 0.025553627 -0.09791675 0.10300717 0.065833114 0.09781552 -0.13178276 0.058272317
0.039054796 0.02785762 0.047566693 -0.13023646 -0.06721538 0.083222635 -0.069176935 -0.13589346
-0.046437047 0.05326316 0.055116054 -0.1600617
00000000: bb4a ba3d d755 d13c 9488 c8bd 6cf5 d23d
00000010: 83d3 863d 8153 c83d 0ff2 06be f4ae 6e3d
00000020: ecf7 1f3d aa35 e43c 4bd5 423d b55c 05be
00000030: 38a8 89bd a170 aa3d a3ac 8dbd a827 0bbe
00000040: c634 3ebd 792a 5a3d 5fc1 613d 37e7 23be
